{"format": "graph-model", "generatedBy": "2.6.0", "convertedBy": "TensorFlow.js Converter v3.11.0", "signature": {"inputs": {"input_3": {"name": "input_3:0", "dtype": "DT_FLOAT", "tensorShape": {"dim": [{"size": "-1"}, {"size": "224"}, {"size": "224"}, {"size": "3"}]}}}, "outputs": {"dense_2": {"name": "Identity:0", "dtype": "DT_FLOAT", "tensorShape": {"dim": [{"size": "-1"}, {"size": "4"}]}}}}, "modelTopology": {"node": [{"name": "StatefulPartitionedCall/sequential_2/dense_2/MatMul/ReadVariableOp", "op": "Const", "attr": {"value": {"tensor": {"dtype": "DT_FLOAT", "tensorShape": {"dim": [{"size": "1280"}, {"size": "4"}]}}}, "dtype": {"type": "DT_FLOAT"}}}, {"name": "StatefulPartitionedCall/sequential_2/dense_2/BiasAdd/ReadVariableOp", "op": "Const", "attr": {"dtype": {"type": "DT_FLOAT"}, "value": {"tensor": {"dtype": "DT_FLOAT", "tensorShape": {"dim": [{"size": "4"}]}}}}}, {"name": "input_3", "op": "Placeholder", "attr": {"shape": {"shape": {"dim": [{"size": "-1"}, {"size": "224"}, {"size": "224"}, {"size": "3"}]}}, "dtype": {"type": "DT_FLOAT"}}}, {"name": "StatefulPartitionedCall/sequential_2/hub_keras_layer_v1v2_2/StatefulPartitionedCall/efficientnet-lite0/model/stem/conv2d/Conv2D_weights", "op": "Const", "attr": {"dtype": {"type": "DT_FLOAT"}, "value": {"tensor": {"dtype": "DT_FLOAT", "tensorShape": {"dim": [{"size": "3"}, {"size": "3"}, {"size": "3"}, {"size": "32"}]}}}}}, {"name": "StatefulPartitionedCall/sequential_2/hub_keras_layer_v1v2_2/StatefulPartitionedCall/efficientnet-lite0/model/stem/conv2d/Conv2D_bn_offset", "op": "Const", "attr": {"value": {"tensor": {"dtype": "DT_FLOAT", "tensorShape": {"dim": [{"size": "32"}]}}}, "dtype": {"type": "DT_FLOAT"}}}, {"name": "StatefulPartitionedCall/sequential_2/hub_keras_layer_v1v2_2/StatefulPartitionedCall/efficientnet-lite0/model/blocks_0/depthwise_conv2d/depthwise_weights", "op": "Const", "attr": {"value": {"tensor": {"dtype": "DT_FLOAT", "tensorShape": {"dim": [{"size": "3"}, {"size": "3"}, {"size": "32"}, {"size": "1"}]}}}, "dtype": {"type": "DT_FLOAT"}}}, {"name": "StatefulPartitionedCall/sequential_2/hub_keras_layer_v1v2_2/StatefulPartitionedCall/efficientnet-lite0/model/blocks_0/depthwise_conv2d/depthwise_bn_offset", "op": "Const", "attr": {"dtype": {"type": "DT_FLOAT"}, "value": {"tensor": {"dtype": "DT_FLOAT", "tensorShape": {"dim": [{"size": "32"}]}}}}}, {"name": "StatefulPartitionedCall/sequential_2/hub_keras_layer_v1v2_2/StatefulPartitionedCall/efficientnet-lite0/model/blocks_0/conv2d/Conv2D_weights", "op": "Const", "attr": {"value": {"tensor": {"dtype": "DT_FLOAT", "tensorShape": {"dim": [{"size": "1"}, {"size": "1"}, {"size": "32"}, {"size": "16"}]}}}, "dtype": {"type": "DT_FLOAT"}}}, {"name": "StatefulPartitionedCall/sequential_2/hub_keras_layer_v1v2_2/StatefulPartitionedCall/efficientnet-lite0/model/blocks_13/depthwise_conv2d/depthwise_weights", "op": "Const", "attr": {"value": {"tensor": {"dtype": "DT_FLOAT", "tensorShape": {"dim": [{"size": "5"}, {"size": "5"}, {"size": "1152"}, {"size": "1"}]}}}, "dtype": {"type": "DT_FLOAT"}}}, {"name": "StatefulPartitionedCall/sequential_2/hub_keras_layer_v1v2_2/StatefulPartitionedCall/efficientnet-lite0/model/blocks_0/conv2d/Conv2D_bn_offset", "op": "Const", "attr": {"value": {"tensor": {"dtype": "DT_FLOAT", "tensorShape": {"dim": [{"size": "16"}]}}}, "dtype": {"type": "DT_FLOAT"}}}, {"name": "StatefulPartitionedCall/sequential_2/hub_keras_layer_v1v2_2/StatefulPartitionedCall/efficientnet-lite0/model/blocks_1/conv2d/Conv2D_weights", "op": "Const", "attr": {"dtype": {"type": "DT_FLOAT"}, "value": {"tensor": {"dtype": "DT_FLOAT", "tensorShape": {"dim": [{"size": "1"}, {"size": "1"}, {"size": "16"}, {"size": "96"}]}}}}}, {"name": "StatefulPartitionedCall/sequential_2/hub_keras_layer_v1v2_2/StatefulPartitionedCall/efficientnet-lite0/model/blocks_1/conv2d/Conv2D_bn_offset", "op": "Const", "attr": {"value": {"tensor": {"dtype": "DT_FLOAT", "tensorShape": {"dim": [{"size": "96"}]}}}, "dtype": {"type": "DT_FLOAT"}}}, {"name": "StatefulPartitionedCall/sequential_2/hub_keras_layer_v1v2_2/StatefulPartitionedCall/efficientnet-lite0/model/blocks_13/depthwise_conv2d/depthwise_bn_offset", "op": "Const", "attr": {"dtype": {"type": "DT_FLOAT"}, "value": {"tensor": {"dtype": "DT_FLOAT", "tensorShape": {"dim": [{"size": "1152"}]}}}}}, {"name": "StatefulPartitionedCall/sequential_2/hub_keras_layer_v1v2_2/StatefulPartitionedCall/efficientnet-lite0/model/blocks_1/depthwise_conv2d/depthwise_weights", "op": "Const", "attr": {"dtype": {"type": "DT_FLOAT"}, "value": {"tensor": {"dtype": "DT_FLOAT", "tensorShape": {"dim": [{"size": "3"}, {"size": "3"}, {"size": "96"}, {"size": "1"}]}}}}}, {"name": "StatefulPartitionedCall/sequential_2/hub_keras_layer_v1v2_2/StatefulPartitionedCall/efficientnet-lite0/model/blocks_1/depthwise_conv2d/depthwise_bn_offset", "op": "Const", "attr": {"dtype": {"type": "DT_FLOAT"}, "value": {"tensor": {"dtype": "DT_FLOAT", "tensorShape": {"dim": [{"size": "96"}]}}}}}, {"name": "StatefulPartitionedCall/sequential_2/hub_keras_layer_v1v2_2/StatefulPartitionedCall/efficientnet-lite0/model/blocks_1/conv2d_1/Conv2D_weights", "op": "Const", "attr": {"dtype": {"type": "DT_FLOAT"}, "value": {"tensor": {"dtype": "DT_FLOAT", "tensorShape": {"dim": [{"size": "1"}, {"size": "1"}, {"size": "96"}, {"size": "24"}]}}}}}, {"name": "StatefulPartitionedCall/sequential_2/hub_keras_layer_v1v2_2/StatefulPartitionedCall/efficientnet-lite0/model/blocks_1/conv2d_1/Conv2D_bn_offset", "op": "Const", "attr": {"dtype": {"type": "DT_FLOAT"}, "value": {"tensor": {"dtype": "DT_FLOAT", "tensorShape": {"dim": [{"size": "24"}]}}}}}, {"name": "StatefulPartitionedCall/sequential_2/hub_keras_layer_v1v2_2/StatefulPartitionedCall/efficientnet-lite0/model/blocks_2/conv2d/Conv2D_weights", "op": "Const", "attr": {"value": {"tensor": {"dtype": "DT_FLOAT", "tensorShape": {"dim": [{"size": "1"}, {"size": "1"}, {"size": "24"}, {"size": "144"}]}}}, "dtype": {"type": "DT_FLOAT"}}}, {"name": "StatefulPartitionedCall/sequential_2/hub_keras_layer_v1v2_2/StatefulPartitionedCall/efficientnet-lite0/model/blocks_2/conv2d/Conv2D_bn_offset", "op": "Const", "attr": {"dtype": {"type": "DT_FLOAT"}, "value": {"tensor": {"dtype": "DT_FLOAT", "tensorShape": {"dim": [{"size": "144"}]}}}}}, {"name": "StatefulPartitionedCall/sequential_2/hub_keras_layer_v1v2_2/StatefulPartitionedCall/efficientnet-lite0/model/blocks_13/conv2d_1/Conv2D_weights", "op": "Const", "attr": {"value": {"tensor": {"dtype": "DT_FLOAT", "tensorShape": {"dim": [{"size": "1"}, {"size": "1"}, {"size": "1152"}, {"size": "192"}]}}}, "dtype": {"type": "DT_FLOAT"}}}, {"name": "StatefulPartitionedCall/sequential_2/hub_keras_layer_v1v2_2/StatefulPartitionedCall/efficientnet-lite0/model/blocks_2/depthwise_conv2d/depthwise_weights", "op": "Const", "attr": {"dtype": {"type": "DT_FLOAT"}, "value": {"tensor": {"dtype": "DT_FLOAT", "tensorShape": {"dim": [{"size": "3"}, {"size": "3"}, {"size": "144"}, {"size": "1"}]}}}}}, {"name": "StatefulPartitionedCall/sequential_2/hub_keras_layer_v1v2_2/StatefulPartitionedCall/efficientnet-lite0/model/blocks_2/depthwise_conv2d/depthwise_bn_offset", "op": "Const", "attr": {"dtype": {"type": "DT_FLOAT"}, "value": {"tensor": {"dtype": "DT_FLOAT", "tensorShape": {"dim": [{"size": "144"}]}}}}}, {"name": "StatefulPartitionedCall/sequential_2/hub_keras_layer_v1v2_2/StatefulPartitionedCall/efficientnet-lite0/model/blocks_2/conv2d_1/Conv2D_weights", "op": "Const", "attr": {"value": {"tensor": {"dtype": "DT_FLOAT", "tensorShape": {"dim": [{"size": "1"}, {"size": "1"}, {"size": "144"}, {"size": "24"}]}}}, "dtype": {"type": "DT_FLOAT"}}}, {"name": "StatefulPartitionedCall/sequential_2/hub_keras_layer_v1v2_2/StatefulPartitionedCall/efficientnet-lite0/model/head/conv2d/Conv2D_weights", "op": "Const", "attr": {"dtype": {"type": "DT_FLOAT"}, "value": {"tensor": {"dtype": "DT_FLOAT", "tensorShape": {"dim": [{"size": "1"}, {"size": "1"}, {"size": "320"}, {"size": "1280"}]}}}}}, {"name": "StatefulPartitionedCall/sequential_2/hub_keras_layer_v1v2_2/StatefulPartitionedCall/efficientnet-lite0/model/blocks_2/conv2d_1/Conv2D_bn_offset", "op": "Const", "attr": {"dtype": {"type": "DT_FLOAT"}, "value": {"tensor": {"dtype": "DT_FLOAT", "tensorShape": {"dim": [{"size": "24"}]}}}}}, {"name": "StatefulPartitionedCall/sequential_2/hub_keras_layer_v1v2_2/StatefulPartitionedCall/efficientnet-lite0/model/blocks_3/conv2d/Conv2D_weights", "op": "Const", "attr": {"dtype": {"type": "DT_FLOAT"}, "value": {"tensor": {"dtype": "DT_FLOAT", "tensorShape": {"dim": [{"size": "1"}, {"size": "1"}, {"size": "24"}, {"size": "144"}]}}}}}, {"name": "StatefulPartitionedCall/sequential_2/hub_keras_layer_v1v2_2/StatefulPartitionedCall/efficientnet-lite0/model/blocks_13/conv2d_1/Conv2D_bn_offset", "op": "Const", "attr": {"value": {"tensor": {"dtype": "DT_FLOAT", "tensorShape": {"dim": [{"size": "192"}]}}}, "dtype": {"type": "DT_FLOAT"}}}, {"name": "StatefulPartitionedCall/sequential_2/hub_keras_layer_v1v2_2/StatefulPartitionedCall/efficientnet-lite0/model/blocks_3/conv2d/Conv2D_bn_offset", "op": "Const", "attr": {"value": {"tensor": {"dtype": "DT_FLOAT", "tensorShape": {"dim": [{"size": "144"}]}}}, "dtype": {"type": "DT_FLOAT"}}}, {"name": "StatefulPartitionedCall/sequential_2/hub_keras_layer_v1v2_2/StatefulPartitionedCall/efficientnet-lite0/model/blocks_3/depthwise_conv2d/depthwise_weights", "op": "Const", "attr": {"dtype": {"type": "DT_FLOAT"}, "value": {"tensor": {"dtype": "DT_FLOAT", "tensorShape": {"dim": [{"size": "5"}, {"size": "5"}, {"size": "144"}, {"size": "1"}]}}}}}, {"name": "StatefulPartitionedCall/sequential_2/hub_keras_layer_v1v2_2/StatefulPartitionedCall/efficientnet-lite0/model/blocks_3/depthwise_conv2d/depthwise_bn_offset", "op": "Const", "attr": {"dtype": {"type": "DT_FLOAT"}, "value": {"tensor": {"dtype": "DT_FLOAT", "tensorShape": {"dim": [{"size": "144"}]}}}}}, {"name": "StatefulPartitionedCall/sequential_2/hub_keras_layer_v1v2_2/StatefulPartitionedCall/efficientnet-lite0/model/blocks_3/conv2d_1/Conv2D_weights", "op": "Const", "attr": {"value": {"tensor": {"dtype": "DT_FLOAT", "tensorShape": {"dim": [{"size": "1"}, {"size": "1"}, {"size": "144"}, {"size": "40"}]}}}, "dtype": {"type": "DT_FLOAT"}}}, {"name": "StatefulPartitionedCall/sequential_2/hub_keras_layer_v1v2_2/StatefulPartitionedCall/efficientnet-lite0/model/blocks_3/conv2d_1/Conv2D_bn_offset", "op": "Const", "attr": {"dtype": {"type": "DT_FLOAT"}, "value": {"tensor": {"dtype": "DT_FLOAT", "tensorShape": {"dim": [{"size": "40"}]}}}}}, {"name": "StatefulPartitionedCall/sequential_2/hub_keras_layer_v1v2_2/StatefulPartitionedCall/efficientnet-lite0/model/blocks_4/conv2d/Conv2D_weights", "op": "Const", "attr": {"value": {"tensor": {"dtype": "DT_FLOAT", "tensorShape": {"dim": [{"size": "1"}, {"size": "1"}, {"size": "40"}, {"size": "240"}]}}}, "dtype": {"type": "DT_FLOAT"}}}, {"name": "StatefulPartitionedCall/sequential_2/hub_keras_layer_v1v2_2/StatefulPartitionedCall/efficientnet-lite0/model/blocks_14/conv2d/Conv2D_weights", "op": "Const", "attr": {"dtype": {"type": "DT_FLOAT"}, "value": {"tensor": {"dtype": "DT_FLOAT", "tensorShape": {"dim": [{"size": "1"}, {"size": "1"}, {"size": "192"}, {"size": "1152"}]}}}}}, {"name": "StatefulPartitionedCall/sequential_2/hub_keras_layer_v1v2_2/StatefulPartitionedCall/efficientnet-lite0/model/blocks_4/conv2d/Conv2D_bn_offset", "op": "Const", "attr": {"value": {"tensor": {"dtype": "DT_FLOAT", "tensorShape": {"dim": [{"size": "240"}]}}}, "dtype": {"type": "DT_FLOAT"}}}, {"name": "StatefulPartitionedCall/sequential_2/hub_keras_layer_v1v2_2/StatefulPartitionedCall/efficientnet-lite0/model/blocks_4/depthwise_conv2d/depthwise_weights", "op": "Const", "attr": {"value": {"tensor": {"dtype": "DT_FLOAT", "tensorShape": {"dim": [{"size": "5"}, {"size": "5"}, {"size": "240"}, {"size": "1"}]}}}, "dtype": {"type": "DT_FLOAT"}}}, {"name": "StatefulPartitionedCall/sequential_2/hub_keras_layer_v1v2_2/StatefulPartitionedCall/efficientnet-lite0/model/blocks_4/depthwise_conv2d/depthwise_bn_offset", "op": "Const", "attr": {"dtype": {"type": "DT_FLOAT"}, "value": {"tensor": {"dtype": "DT_FLOAT", "tensorShape": {"dim": [{"size": "240"}]}}}}}, {"name": "StatefulPartitionedCall/sequential_2/hub_keras_layer_v1v2_2/StatefulPartitionedCall/efficientnet-lite0/model/blocks_4/conv2d_1/Conv2D_weights", "op": "Const", "attr": {"dtype": {"type": "DT_FLOAT"}, "value": {"tensor": {"dtype": "DT_FLOAT", "tensorShape": {"dim": [{"size": "1"}, {"size": "1"}, {"size": "240"}, {"size": "40"}]}}}}}, {"name": "StatefulPartitionedCall/sequential_2/hub_keras_layer_v1v2_2/StatefulPartitionedCall/efficientnet-lite0/model/blocks_14/conv2d/Conv2D_bn_offset", "op": "Const", "attr": {"value": {"tensor": {"dtype": "DT_FLOAT", "tensorShape": {"dim": [{"size": "1152"}]}}}, "dtype": {"type": "DT_FLOAT"}}}, {"name": "StatefulPartitionedCall/sequential_2/hub_keras_layer_v1v2_2/StatefulPartitionedCall/efficientnet-lite0/model/blocks_4/conv2d_1/Conv2D_bn_offset", "op": "Const", "attr": {"value": {"tensor": {"dtype": "DT_FLOAT", "tensorShape": {"dim": [{"size": "40"}]}}}, "dtype": {"type": "DT_FLOAT"}}}, {"name": "StatefulPartitionedCall/sequential_2/hub_keras_layer_v1v2_2/StatefulPartitionedCall/efficientnet-lite0/model/blocks_5/conv2d/Conv2D_weights", "op": "Const", "attr": {"dtype": {"type": "DT_FLOAT"}, "value": {"tensor": {"dtype": "DT_FLOAT", "tensorShape": {"dim": [{"size": "1"}, {"size": "1"}, {"size": "40"}, {"size": "240"}]}}}}}, {"name": "StatefulPartitionedCall/sequential_2/hub_keras_layer_v1v2_2/StatefulPartitionedCall/efficientnet-lite0/model/head/conv2d/Conv2D_bn_offset", "op": "Const", "attr": {"dtype": {"type": "DT_FLOAT"}, "value": {"tensor": {"dtype": "DT_FLOAT", "tensorShape": {"dim": [{"size": "1280"}]}}}}}, {"name": "StatefulPartitionedCall/sequential_2/hub_keras_layer_v1v2_2/StatefulPartitionedCall/efficientnet-lite0/model/blocks_5/conv2d/Conv2D_bn_offset", "op": "Const", "attr": {"dtype": {"type": "DT_FLOAT"}, "value": {"tensor": {"dtype": "DT_FLOAT", "tensorShape": {"dim": [{"size": "240"}]}}}}}, {"name": "StatefulPartitionedCall/sequential_2/hub_keras_layer_v1v2_2/StatefulPartitionedCall/efficientnet-lite0/model/blocks_5/depthwise_conv2d/depthwise_weights", "op": "Const", "attr": {"dtype": {"type": "DT_FLOAT"}, "value": {"tensor": {"dtype": "DT_FLOAT", "tensorShape": {"dim": [{"size": "3"}, {"size": "3"}, {"size": "240"}, {"size": "1"}]}}}}}, {"name": "StatefulPartitionedCall/sequential_2/hub_keras_layer_v1v2_2/StatefulPartitionedCall/efficientnet-lite0/model/blocks_5/depthwise_conv2d/depthwise_bn_offset", "op": "Const", "attr": {"value": {"tensor": {"dtype": "DT_FLOAT", "tensorShape": {"dim": [{"size": "240"}]}}}, "dtype": {"type": "DT_FLOAT"}}}, {"name": "StatefulPartitionedCall/sequential_2/hub_keras_layer_v1v2_2/StatefulPartitionedCall/efficientnet-lite0/model/blocks_5/conv2d_1/Conv2D_weights", "op": "Const", "attr": {"value": {"tensor": {"dtype": "DT_FLOAT", "tensorShape": {"dim": [{"size": "1"}, {"size": "1"}, {"size": "240"}, {"size": "80"}]}}}, "dtype": {"type": "DT_FLOAT"}}}, {"name": "StatefulPartitionedCall/sequential_2/hub_keras_layer_v1v2_2/StatefulPartitionedCall/efficientnet-lite0/model/blocks_14/depthwise_conv2d/depthwise_weights", "op": "Const", "attr": {"value": {"tensor": {"dtype": "DT_FLOAT", "tensorShape": {"dim": [{"size": "5"}, {"size": "5"}, {"size": "1152"}, {"size": "1"}]}}}, "dtype": {"type": "DT_FLOAT"}}}, {"name": "StatefulPartitionedCall/sequential_2/hub_keras_layer_v1v2_2/StatefulPartitionedCall/efficientnet-lite0/model/blocks_5/conv2d_1/Conv2D_bn_offset", "op": "Const", "attr": {"dtype": {"type": "DT_FLOAT"}, "value": {"tensor": {"dtype": "DT_FLOAT", "tensorShape": {"dim": [{"size": "80"}]}}}}}, {"name": "StatefulPartitionedCall/sequential_2/hub_keras_layer_v1v2_2/StatefulPartitionedCall/efficientnet-lite0/model/blocks_6/conv2d/Conv2D_weights", "op": "Const", "attr": {"value": {"tensor": {"dtype": "DT_FLOAT", "tensorShape": {"dim": [{"size": "1"}, {"size": "1"}, {"size": "80"}, {"size": "480"}]}}}, "dtype": {"type": "DT_FLOAT"}}}, {"name": "StatefulPartitionedCall/sequential_2/hub_keras_layer_v1v2_2/StatefulPartitionedCall/efficientnet-lite0/model/blocks_6/conv2d/Conv2D_bn_offset", "op": "Const", "attr": {"value": {"tensor": {"dtype": "DT_FLOAT", "tensorShape": {"dim": [{"size": "480"}]}}}, "dtype": {"type": "DT_FLOAT"}}}, {"name": "StatefulPartitionedCall/sequential_2/hub_keras_layer_v1v2_2/StatefulPartitionedCall/efficientnet-lite0/model/blocks_14/depthwise_conv2d/depthwise_bn_offset", "op": "Const", "attr": {"dtype": {"type": "DT_FLOAT"}, "value": {"tensor": {"dtype": "DT_FLOAT", "tensorShape": {"dim": [{"size": "1152"}]}}}}}, {"name": "StatefulPartitionedCall/sequential_2/hub_keras_layer_v1v2_2/StatefulPartitionedCall/efficientnet-lite0/model/blocks_6/depthwise_conv2d/depthwise_weights", "op": "Const", "attr": {"dtype": {"type": "DT_FLOAT"}, "value": {"tensor": {"dtype": "DT_FLOAT", "tensorShape": {"dim": [{"size": "3"}, {"size": "3"}, {"size": "480"}, {"size": "1"}]}}}}}, {"name": "StatefulPartitionedCall/sequential_2/hub_keras_layer_v1v2_2/StatefulPartitionedCall/efficientnet-lite0/model/blocks_6/depthwise_conv2d/depthwise_bn_offset", "op": "Const", "attr": {"dtype": {"type": "DT_FLOAT"}, "value": {"tensor": {"dtype": "DT_FLOAT", "tensorShape": {"dim": [{"size": "480"}]}}}}}, {"name": "StatefulPartitionedCall/sequential_2/hub_keras_layer_v1v2_2/StatefulPartitionedCall/efficientnet-lite0/model/blocks_6/conv2d_1/Conv2D_weights", "op": "Const", "attr": {"dtype": {"type": "DT_FLOAT"}, "value": {"tensor": {"dtype": "DT_FLOAT", "tensorShape": {"dim": [{"size": "1"}, {"size": "1"}, {"size": "480"}, {"size": "80"}]}}}}}, {"name": "StatefulPartitionedCall/sequential_2/hub_keras_layer_v1v2_2/StatefulPartitionedCall/efficientnet-lite0/model/blocks_6/conv2d_1/Conv2D_bn_offset", "op": "Const", "attr": {"value": {"tensor": {"dtype": "DT_FLOAT", "tensorShape": {"dim": [{"size": "80"}]}}}, "dtype": {"type": "DT_FLOAT"}}}, {"name": "StatefulPartitionedCall/sequential_2/hub_keras_layer_v1v2_2/StatefulPartitionedCall/efficientnet-lite0/model/blocks_7/conv2d/Conv2D_weights", "op": "Const", "attr": {"dtype": {"type": "DT_FLOAT"}, "value": {"tensor": {"dtype": "DT_FLOAT", "tensorShape": {"dim": [{"size": "1"}, {"size": "1"}, {"size": "80"}, {"size": "480"}]}}}}}, {"name": "StatefulPartitionedCall/sequential_2/hub_keras_layer_v1v2_2/StatefulPartitionedCall/efficientnet-lite0/model/blocks_7/conv2d/Conv2D_bn_offset", "op": "Const", "attr": {"dtype": {"type": "DT_FLOAT"}, "value": {"tensor": {"dtype": "DT_FLOAT", "tensorShape": {"dim": [{"size": "480"}]}}}}}, {"name": "StatefulPartitionedCall/sequential_2/hub_keras_layer_v1v2_2/StatefulPartitionedCall/efficientnet-lite0/model/blocks_14/conv2d_1/Conv2D_weights", "op": "Const", "attr": {"value": {"tensor": {"dtype": "DT_FLOAT", "tensorShape": {"dim": [{"size": "1"}, {"size": "1"}, {"size": "1152"}, {"size": "192"}]}}}, "dtype": {"type": "DT_FLOAT"}}}, {"name": "StatefulPartitionedCall/sequential_2/hub_keras_layer_v1v2_2/StatefulPartitionedCall/efficientnet-lite0/model/blocks_7/depthwise_conv2d/depthwise_weights", "op": "Const", "attr": {"value": {"tensor": {"dtype": "DT_FLOAT", "tensorShape": {"dim": [{"size": "3"}, {"size": "3"}, {"size": "480"}, {"size": "1"}]}}}, "dtype": {"type": "DT_FLOAT"}}}, {"name": "StatefulPartitionedCall/sequential_2/hub_keras_layer_v1v2_2/StatefulPartitionedCall/efficientnet-lite0/model/blocks_7/depthwise_conv2d/depthwise_bn_offset", "op": "Const", "attr": {"value": {"tensor": {"dtype": "DT_FLOAT", "tensorShape": {"dim": [{"size": "480"}]}}}, "dtype": {"type": "DT_FLOAT"}}}, {"name": "StatefulPartitionedCall/sequential_2/hub_keras_layer_v1v2_2/StatefulPartitionedCall/efficientnet-lite0/model/blocks_7/conv2d_1/Conv2D_weights", "op": "Const", "attr": {"dtype": {"type": "DT_FLOAT"}, "value": {"tensor": {"dtype": "DT_FLOAT", "tensorShape": {"dim": [{"size": "1"}, {"size": "1"}, {"size": "480"}, {"size": "80"}]}}}}}, {"name": "StatefulPartitionedCall/sequential_2/hub_keras_layer_v1v2_2/StatefulPartitionedCall/efficientnet-lite0/model/blocks_7/conv2d_1/Conv2D_bn_offset", "op": "Const", "attr": {"value": {"tensor": {"dtype": "DT_FLOAT", "tensorShape": {"dim": [{"size": "80"}]}}}, "dtype": {"type": "DT_FLOAT"}}}, {"name": "StatefulPartitionedCall/sequential_2/hub_keras_layer_v1v2_2/StatefulPartitionedCall/efficientnet-lite0/model/blocks_8/conv2d/Conv2D_weights", "op": "Const", "attr": {"dtype": {"type": "DT_FLOAT"}, "value": {"tensor": {"dtype": "DT_FLOAT", "tensorShape": {"dim": [{"size": "1"}, {"size": "1"}, {"size": "80"}, {"size": "480"}]}}}}}, {"name": "StatefulPartitionedCall/sequential_2/hub_keras_layer_v1v2_2/StatefulPartitionedCall/efficientnet-lite0/model/blocks_14/conv2d_1/Conv2D_bn_offset", "op": "Const", "attr": {"value": {"tensor": {"dtype": "DT_FLOAT", "tensorShape": {"dim": [{"size": "192"}]}}}, "dtype": {"type": "DT_FLOAT"}}}, {"name": "StatefulPartitionedCall/sequential_2/hub_keras_layer_v1v2_2/StatefulPartitionedCall/efficientnet-lite0/model/blocks_8/conv2d/Conv2D_bn_offset", "op": "Const", "attr": {"value": {"tensor": {"dtype": "DT_FLOAT", "tensorShape": {"dim": [{"size": "480"}]}}}, "dtype": {"type": "DT_FLOAT"}}}, {"name": "StatefulPartitionedCall/sequential_2/hub_keras_layer_v1v2_2/StatefulPartitionedCall/efficientnet-lite0/model/blocks_8/depthwise_conv2d/depthwise_weights", "op": "Const", "attr": {"dtype": {"type": "DT_FLOAT"}, "value": {"tensor": {"dtype": "DT_FLOAT", "tensorShape": {"dim": [{"size": "5"}, {"size": "5"}, {"size": "480"}, {"size": "1"}]}}}}}, {"name": "StatefulPartitionedCall/sequential_2/hub_keras_layer_v1v2_2/StatefulPartitionedCall/efficientnet-lite0/model/blocks_8/depthwise_conv2d/depthwise_bn_offset", "op": "Const", "attr": {"dtype": {"type": "DT_FLOAT"}, "value": {"tensor": {"dtype": "DT_FLOAT", "tensorShape": {"dim": [{"size": "480"}]}}}}}, {"name": "StatefulPartitionedCall/sequential_2/hub_keras_layer_v1v2_2/StatefulPartitionedCall/efficientnet-lite0/model/blocks_8/conv2d_1/Conv2D_weights", "op": "Const", "attr": {"value": {"tensor": {"dtype": "DT_FLOAT", "tensorShape": {"dim": [{"size": "1"}, {"size": "1"}, {"size": "480"}, {"size": "112"}]}}}, "dtype": {"type": "DT_FLOAT"}}}, {"name": "StatefulPartitionedCall/sequential_2/hub_keras_layer_v1v2_2/StatefulPartitionedCall/efficientnet-lite0/model/blocks_8/conv2d_1/Conv2D_bn_offset", "op": "Const", "attr": {"dtype": {"type": "DT_FLOAT"}, "value": {"tensor": {"dtype": "DT_FLOAT", "tensorShape": {"dim": [{"size": "112"}]}}}}}, {"name": "StatefulPartitionedCall/sequential_2/hub_keras_layer_v1v2_2/StatefulPartitionedCall/efficientnet-lite0/model/blocks_9/conv2d/Conv2D_weights", "op": "Const", "attr": {"value": {"tensor": {"dtype": "DT_FLOAT", "tensorShape": {"dim": [{"size": "1"}, {"size": "1"}, {"size": "112"}, {"size": "672"}]}}}, "dtype": {"type": "DT_FLOAT"}}}, {"name": "StatefulPartitionedCall/sequential_2/hub_keras_layer_v1v2_2/StatefulPartitionedCall/efficientnet-lite0/model/blocks_15/conv2d/Conv2D_weights", "op": "Const", "attr": {"value": {"tensor": {"dtype": "DT_FLOAT", "tensorShape": {"dim": [{"size": "1"}, {"size": "1"}, {"size": "192"}, {"size": "1152"}]}}}, "dtype": {"type": "DT_FLOAT"}}}, {"name": "StatefulPartitionedCall/sequential_2/hub_keras_layer_v1v2_2/StatefulPartitionedCall/efficientnet-lite0/model/blocks_9/conv2d/Conv2D_bn_offset", "op": "Const", "attr": {"value": {"tensor": {"dtype": "DT_FLOAT", "tensorShape": {"dim": [{"size": "672"}]}}}, "dtype": {"type": "DT_FLOAT"}}}, {"name": "StatefulPartitionedCall/sequential_2/hub_keras_layer_v1v2_2/StatefulPartitionedCall/efficientnet-lite0/model/blocks_9/depthwise_conv2d/depthwise_weights", "op": "Const", "attr": {"dtype": {"type": "DT_FLOAT"}, "value": {"tensor": {"dtype": "DT_FLOAT", "tensorShape": {"dim": [{"size": "5"}, {"size": "5"}, {"size": "672"}, {"size": "1"}]}}}}}, {"name": "StatefulPartitionedCall/sequential_2/hub_keras_layer_v1v2_2/StatefulPartitionedCall/efficientnet-lite0/model/blocks_9/depthwise_conv2d/depthwise_bn_offset", "op": "Const", "attr": {"value": {"tensor": {"dtype": "DT_FLOAT", "tensorShape": {"dim": [{"size": "672"}]}}}, "dtype": {"type": "DT_FLOAT"}}}, {"name": "StatefulPartitionedCall/sequential_2/hub_keras_layer_v1v2_2/StatefulPartitionedCall/efficientnet-lite0/model/blocks_9/conv2d_1/Conv2D_weights", "op": "Const", "attr": {"value": {"tensor": {"dtype": "DT_FLOAT", "tensorShape": {"dim": [{"size": "1"}, {"size": "1"}, {"size": "672"}, {"size": "112"}]}}}, "dtype": {"type": "DT_FLOAT"}}}, {"name": "StatefulPartitionedCall/sequential_2/hub_keras_layer_v1v2_2/StatefulPartitionedCall/efficientnet-lite0/model/blocks_15/conv2d/Conv2D_bn_offset", "op": "Const", "attr": {"dtype": {"type": "DT_FLOAT"}, "value": {"tensor": {"dtype": "DT_FLOAT", "tensorShape": {"dim": [{"size": "1152"}]}}}}}, {"name": "StatefulPartitionedCall/sequential_2/hub_keras_layer_v1v2_2/StatefulPartitionedCall/efficientnet-lite0/model/blocks_9/conv2d_1/Conv2D_bn_offset", "op": "Const", "attr": {"value": {"tensor": {"dtype": "DT_FLOAT", "tensorShape": {"dim": [{"size": "112"}]}}}, "dtype": {"type": "DT_FLOAT"}}}, {"name": "StatefulPartitionedCall/sequential_2/hub_keras_layer_v1v2_2/StatefulPartitionedCall/efficientnet-lite0/model/blocks_10/conv2d/Conv2D_weights", "op": "Const", "attr": {"value": {"tensor": {"dtype": "DT_FLOAT", "tensorShape": {"dim": [{"size": "1"}, {"size": "1"}, {"size": "112"}, {"size": "672"}]}}}, "dtype": {"type": "DT_FLOAT"}}}, {"name": "StatefulPartitionedCall/sequential_2/hub_keras_layer_v1v2_2/StatefulPartitionedCall/efficientnet-lite0/model/blocks_10/conv2d/Conv2D_bn_offset", "op": "Const", "attr": {"value": {"tensor": {"dtype": "DT_FLOAT", "tensorShape": {"dim": [{"size": "672"}]}}}, "dtype": {"type": "DT_FLOAT"}}}, {"name": "StatefulPartitionedCall/sequential_2/hub_keras_layer_v1v2_2/StatefulPartitionedCall/efficientnet-lite0/model/blocks_10/depthwise_conv2d/depthwise_weights", "op": "Const", "attr": {"value": {"tensor": {"dtype": "DT_FLOAT", "tensorShape": {"dim": [{"size": "5"}, {"size": "5"}, {"size": "672"}, {"size": "1"}]}}}, "dtype": {"type": "DT_FLOAT"}}}, {"name": "StatefulPartitionedCall/sequential_2/hub_keras_layer_v1v2_2/StatefulPartitionedCall/efficientnet-lite0/model/blocks_10/depthwise_conv2d/depthwise_bn_offset", "op": "Const", "attr": {"value": {"tensor": {"dtype": "DT_FLOAT", "tensorShape": {"dim": [{"size": "672"}]}}}, "dtype": {"type": "DT_FLOAT"}}}, {"name": "StatefulPartitionedCall/sequential_2/hub_keras_layer_v1v2_2/StatefulPartitionedCall/efficientnet-lite0/model/blocks_10/conv2d_1/Conv2D_weights", "op": "Const", "attr": {"dtype": {"type": "DT_FLOAT"}, "value": {"tensor": {"dtype": "DT_FLOAT", "tensorShape": {"dim": [{"size": "1"}, {"size": "1"}, {"size": "672"}, {"size": "112"}]}}}}}, {"name": "StatefulPartitionedCall/sequential_2/hub_keras_layer_v1v2_2/StatefulPartitionedCall/efficientnet-lite0/model/blocks_15/depthwise_conv2d/depthwise_weights", "op": "Const", "attr": {"dtype": {"type": "DT_FLOAT"}, "value": {"tensor": {"dtype": "DT_FLOAT", "tensorShape": {"dim": [{"size": "3"}, {"size": "3"}, {"size": "1152"}, {"size": "1"}]}}}}}, {"name": "StatefulPartitionedCall/sequential_2/hub_keras_layer_v1v2_2/StatefulPartitionedCall/efficientnet-lite0/model/blocks_10/conv2d_1/Conv2D_bn_offset", "op": "Const", "attr": {"value": {"tensor": {"dtype": "DT_FLOAT", "tensorShape": {"dim": [{"size": "112"}]}}}, "dtype": {"type": "DT_FLOAT"}}}, {"name": "StatefulPartitionedCall/sequential_2/hub_keras_layer_v1v2_2/StatefulPartitionedCall/efficientnet-lite0/model/blocks_11/conv2d/Conv2D_weights", "op": "Const", "attr": {"value": {"tensor": {"dtype": "DT_FLOAT", "tensorShape": {"dim": [{"size": "1"}, {"size": "1"}, {"size": "112"}, {"size": "672"}]}}}, "dtype": {"type": "DT_FLOAT"}}}, {"name": "StatefulPartitionedCall/sequential_2/hub_keras_layer_v1v2_2/StatefulPartitionedCall/efficientnet-lite0/model/blocks_11/conv2d/Conv2D_bn_offset", "op": "Const", "attr": {"value": {"tensor": {"dtype": "DT_FLOAT", "tensorShape": {"dim": [{"size": "672"}]}}}, "dtype": {"type": "DT_FLOAT"}}}, {"name": "StatefulPartitionedCall/sequential_2/hub_keras_layer_v1v2_2/StatefulPartitionedCall/efficientnet-lite0/model/blocks_15/depthwise_conv2d/depthwise_bn_offset", "op": "Const", "attr": {"value": {"tensor": {"dtype": "DT_FLOAT", "tensorShape": {"dim": [{"size": "1152"}]}}}, "dtype": {"type": "DT_FLOAT"}}}, {"name": "StatefulPartitionedCall/sequential_2/hub_keras_layer_v1v2_2/StatefulPartitionedCall/efficientnet-lite0/model/blocks_11/depthwise_conv2d/depthwise_weights", "op": "Const", "attr": {"value": {"tensor": {"dtype": "DT_FLOAT", "tensorShape": {"dim": [{"size": "5"}, {"size": "5"}, {"size": "672"}, {"size": "1"}]}}}, "dtype": {"type": "DT_FLOAT"}}}, {"name": "StatefulPartitionedCall/sequential_2/hub_keras_layer_v1v2_2/StatefulPartitionedCall/efficientnet-lite0/model/blocks_11/depthwise_conv2d/depthwise_bn_offset", "op": "Const", "attr": {"dtype": {"type": "DT_FLOAT"}, "value": {"tensor": {"dtype": "DT_FLOAT", "tensorShape": {"dim": [{"size": "672"}]}}}}}, {"name": "StatefulPartitionedCall/sequential_2/hub_keras_layer_v1v2_2/StatefulPartitionedCall/efficientnet-lite0/model/blocks_11/conv2d_1/Conv2D_weights", "op": "Const", "attr": {"value": {"tensor": {"dtype": "DT_FLOAT", "tensorShape": {"dim": [{"size": "1"}, {"size": "1"}, {"size": "672"}, {"size": "192"}]}}}, "dtype": {"type": "DT_FLOAT"}}}, {"name": "StatefulPartitionedCall/sequential_2/hub_keras_layer_v1v2_2/StatefulPartitionedCall/efficientnet-lite0/model/blocks_11/conv2d_1/Conv2D_bn_offset", "op": "Const", "attr": {"value": {"tensor": {"dtype": "DT_FLOAT", "tensorShape": {"dim": [{"size": "192"}]}}}, "dtype": {"type": "DT_FLOAT"}}}, {"name": "StatefulPartitionedCall/sequential_2/hub_keras_layer_v1v2_2/StatefulPartitionedCall/efficientnet-lite0/model/blocks_12/conv2d/Conv2D_weights", "op": "Const", "attr": {"value": {"tensor": {"dtype": "DT_FLOAT", "tensorShape": {"dim": [{"size": "1"}, {"size": "1"}, {"size": "192"}, {"size": "1152"}]}}}, "dtype": {"type": "DT_FLOAT"}}}, {"name": "StatefulPartitionedCall/sequential_2/hub_keras_layer_v1v2_2/StatefulPartitionedCall/efficientnet-lite0/model/blocks_12/conv2d/Conv2D_bn_offset", "op": "Const", "attr": {"value": {"tensor": {"dtype": "DT_FLOAT", "tensorShape": {"dim": [{"size": "1152"}]}}}, "dtype": {"type": "DT_FLOAT"}}}, {"name": "StatefulPartitionedCall/sequential_2/hub_keras_layer_v1v2_2/StatefulPartitionedCall/efficientnet-lite0/model/blocks_15/conv2d_1/Conv2D_weights", "op": "Const", "attr": {"value": {"tensor": {"dtype": "DT_FLOAT", "tensorShape": {"dim": [{"size": "1"}, {"size": "1"}, {"size": "1152"}, {"size": "320"}]}}}, "dtype": {"type": "DT_FLOAT"}}}, {"name": "StatefulPartitionedCall/sequential_2/hub_keras_layer_v1v2_2/StatefulPartitionedCall/efficientnet-lite0/model/blocks_12/depthwise_conv2d/depthwise_weights", "op": "Const", "attr": {"dtype": {"type": "DT_FLOAT"}, "value": {"tensor": {"dtype": "DT_FLOAT", "tensorShape": {"dim": [{"size": "5"}, {"size": "5"}, {"size": "1152"}, {"size": "1"}]}}}}}, {"name": "StatefulPartitionedCall/sequential_2/hub_keras_layer_v1v2_2/StatefulPartitionedCall/efficientnet-lite0/model/blocks_12/depthwise_conv2d/depthwise_bn_offset", "op": "Const", "attr": {"dtype": {"type": "DT_FLOAT"}, "value": {"tensor": {"dtype": "DT_FLOAT", "tensorShape": {"dim": [{"size": "1152"}]}}}}}, {"name": "StatefulPartitionedCall/sequential_2/hub_keras_layer_v1v2_2/StatefulPartitionedCall/efficientnet-lite0/model/blocks_12/conv2d_1/Conv2D_weights", "op": "Const", "attr": {"value": {"tensor": {"dtype": "DT_FLOAT", "tensorShape": {"dim": [{"size": "1"}, {"size": "1"}, {"size": "1152"}, {"size": "192"}]}}}, "dtype": {"type": "DT_FLOAT"}}}, {"name": "StatefulPartitionedCall/sequential_2/hub_keras_layer_v1v2_2/StatefulPartitionedCall/efficientnet-lite0/model/blocks_12/conv2d_1/Conv2D_bn_offset", "op": "Const", "attr": {"value": {"tensor": {"dtype": "DT_FLOAT", "tensorShape": {"dim": [{"size": "192"}]}}}, "dtype": {"type": "DT_FLOAT"}}}, {"name": "StatefulPartitionedCall/sequential_2/hub_keras_layer_v1v2_2/StatefulPartitionedCall/efficientnet-lite0/model/blocks_13/conv2d/Conv2D_weights", "op": "Const", "attr": {"dtype": {"type": "DT_FLOAT"}, "value": {"tensor": {"dtype": "DT_FLOAT", "tensorShape": {"dim": [{"size": "1"}, {"size": "1"}, {"size": "192"}, {"size": "1152"}]}}}}}, {"name": "StatefulPartitionedCall/sequential_2/hub_keras_layer_v1v2_2/StatefulPartitionedCall/efficientnet-lite0/model/blocks_15/conv2d_1/Conv2D_bn_offset", "op": "Const", "attr": {"dtype": {"type": "DT_FLOAT"}, "value": {"tensor": {"dtype": "DT_FLOAT", "tensorShape": {"dim": [{"size": "320"}]}}}}}, {"name": "StatefulPartitionedCall/sequential_2/hub_keras_layer_v1v2_2/StatefulPartitionedCall/efficientnet-lite0/model/blocks_13/conv2d/Conv2D_bn_offset", "op": "Const", "attr": {"dtype": {"type": "DT_FLOAT"}, "value": {"tensor": {"dtype": "DT_FLOAT", "tensorShape": {"dim": [{"size": "1152"}]}}}}}, {"name": "StatefulPartitionedCall/sequential_2/hub_keras_layer_v1v2_2/StatefulPartitionedCall/Const", "op": "Const", "input": ["^input_3"], "attr": {"value": {"tensor": {"dtype": "DT_FLOAT", "tensorShape": {}}}, "dtype": {"type": "DT_FLOAT"}}}, {"name": "StatefulPartitionedCall/sequential_2/hub_keras_layer_v1v2_2/StatefulPartitionedCall/Const_1", "op": "Const", "input": ["^input_3"], "attr": {"dtype": {"type": "DT_FLOAT"}, "value": {"tensor": {"dtype": "DT_FLOAT", "tensorShape": {}}}}}, {"name": "StatefulPartitionedCall/sequential_2/hub_keras_layer_v1v2_2/StatefulPartitionedCall/efficientnet-lite0/model/head/global_average_pooling2d/Mean/reduction_indices", "op": "Const", "input": ["^input_3"], "attr": {"dtype": {"type": "DT_INT32"}, "value": {"tensor": {"dtype": "DT_INT32", "tensorShape": {"dim": [{"size": "2"}]}}}}}, {"name": "StatefulPartitionedCall/sequential_2/hub_keras_layer_v1v2_2/StatefulPartitionedCall/mul", "op": "Mul", "input": ["input_3", "StatefulPartitionedCall/sequential_2/hub_keras_layer_v1v2_2/StatefulPartitionedCall/Const"], "attr": {"T": {"type": "DT_FLOAT"}}}, {"name": "StatefulPartitionedCall/sequential_2/hub_keras_layer_v1v2_2/StatefulPartitionedCall/add", "op": "AddV2", "input": ["StatefulPartitionedCall/sequential_2/hub_keras_layer_v1v2_2/StatefulPartitionedCall/mul", "StatefulPartitionedCall/sequential_2/hub_keras_layer_v1v2_2/StatefulPartitionedCall/Const_1"], "attr": {"T": {"type": "DT_FLOAT"}}}, {"name": "StatefulPartitionedCall/sequential_2/hub_keras_layer_v1v2_2/StatefulPartitionedCall/efficientnet-lite0/model/stem/Relu6", "op": "_FusedConv2D", "input": ["StatefulPartitionedCall/sequential_2/hub_keras_layer_v1v2_2/StatefulPartitionedCall/add", "StatefulPartitionedCall/sequential_2/hub_keras_layer_v1v2_2/StatefulPartitionedCall/efficientnet-lite0/model/stem/conv2d/Conv2D_weights", "StatefulPartitionedCall/sequential_2/hub_keras_layer_v1v2_2/StatefulPartitionedCall/efficientnet-lite0/model/stem/conv2d/Conv2D_bn_offset"], "device": "/device:CPU:0", "attr": {"padding": {"s": "U0FNRQ=="}, "data_format": {"s": "TkhXQw=="}, "T": {"type": "DT_FLOAT"}, "strides": {"list": {"i": ["1", "2", "2", "1"]}}, "fused_ops": {"list": {"s": ["Qmlhc0FkZA==", "UmVsdTY="]}}, "epsilon": {"f": 0.0}, "use_cudnn_on_gpu": {"b": true}, "num_args": {"i": "1"}, "dilations": {"list": {"i": ["1", "1", "1", "1"]}}, "explicit_paddings": {"list": {}}}}, {"name": "StatefulPartitionedCall/sequential_2/hub_keras_layer_v1v2_2/StatefulPartitionedCall/efficientnet-lite0/model/blocks_0/depthwise_conv2d/depthwise", "op": "FusedDepthwiseConv2dNative", "input": ["StatefulPartitionedCall/sequential_2/hub_keras_layer_v1v2_2/StatefulPartitionedCall/efficientnet-lite0/model/stem/Relu6", "StatefulPartitionedCall/sequential_2/hub_keras_layer_v1v2_2/StatefulPartitionedCall/efficientnet-lite0/model/blocks_0/depthwise_conv2d/depthwise_weights", "StatefulPartitionedCall/sequential_2/hub_keras_layer_v1v2_2/StatefulPartitionedCall/efficientnet-lite0/model/blocks_0/depthwise_conv2d/depthwise_bn_offset"], "attr": {"explicit_paddings": {"list": {}}, "T": {"type": "DT_FLOAT"}, "padding": {"s": "U0FNRQ=="}, "data_format": {"s": "TkhXQw=="}, "dilations": {"list": {"i": ["1", "1", "1", "1"]}}, "num_args": {"i": "1"}, "fused_ops": {"list": {"s": ["Qmlhc0FkZA==", "UmVsdTY="]}}, "strides": {"list": {"i": ["1", "1", "1", "1"]}}}}, {"name": "StatefulPartitionedCall/sequential_2/hub_keras_layer_v1v2_2/StatefulPartitionedCall/efficientnet-lite0/model/blocks_0/tpu_batch_normalization_1/FusedBatchNormV3", "op": "_FusedConv2D", "input": ["StatefulPartitionedCall/sequential_2/hub_keras_layer_v1v2_2/StatefulPartitionedCall/efficientnet-lite0/model/blocks_0/depthwise_conv2d/depthwise", "StatefulPartitionedCall/sequential_2/hub_keras_layer_v1v2_2/StatefulPartitionedCall/efficientnet-lite0/model/blocks_0/conv2d/Conv2D_weights", "StatefulPartitionedCall/sequential_2/hub_keras_layer_v1v2_2/StatefulPartitionedCall/efficientnet-lite0/model/blocks_0/conv2d/Conv2D_bn_offset"], "device": "/device:CPU:0", "attr": {"T": {"type": "DT_FLOAT"}, "use_cudnn_on_gpu": {"b": true}, "padding": {"s": "U0FNRQ=="}, "strides": {"list": {"i": ["1", "1", "1", "1"]}}, "explicit_paddings": {"list": {}}, "data_format": {"s": "TkhXQw=="}, "fused_ops": {"list": {"s": ["Qmlhc0FkZA=="]}}, "epsilon": {"f": 0.0}, "num_args": {"i": "1"}, "dilations": {"list": {"i": ["1", "1", "1", "1"]}}}}, {"name": "StatefulPartitionedCall/sequential_2/hub_keras_layer_v1v2_2/StatefulPartitionedCall/efficientnet-lite0/model/blocks_1/Relu6", "op": "_FusedConv2D", "input": ["StatefulPartitionedCall/sequential_2/hub_keras_layer_v1v2_2/StatefulPartitionedCall/efficientnet-lite0/model/blocks_0/tpu_batch_normalization_1/FusedBatchNormV3", "StatefulPartitionedCall/sequential_2/hub_keras_layer_v1v2_2/StatefulPartitionedCall/efficientnet-lite0/model/blocks_1/conv2d/Conv2D_weights", "StatefulPartitionedCall/sequential_2/hub_keras_layer_v1v2_2/StatefulPartitionedCall/efficientnet-lite0/model/blocks_1/conv2d/Conv2D_bn_offset"], "device": "/device:CPU:0", "attr": {"data_format": {"s": "TkhXQw=="}, "use_cudnn_on_gpu": {"b": true}, "padding": {"s": "U0FNRQ=="}, "strides": {"list": {"i": ["1", "1", "1", "1"]}}, "fused_ops": {"list": {"s": ["Qmlhc0FkZA==", "UmVsdTY="]}}, "epsilon": {"f": 0.0}, "dilations": {"list": {"i": ["1", "1", "1", "1"]}}, "T": {"type": "DT_FLOAT"}, "explicit_paddings": {"list": {}}, "num_args": {"i": "1"}}}, {"name": "StatefulPartitionedCall/sequential_2/hub_keras_layer_v1v2_2/StatefulPartitionedCall/efficientnet-lite0/model/blocks_1/depthwise_conv2d/depthwise", "op": "FusedDepthwiseConv2dNative", "input": ["StatefulPartitionedCall/sequential_2/hub_keras_layer_v1v2_2/StatefulPartitionedCall/efficientnet-lite0/model/blocks_1/Relu6", "StatefulPartitionedCall/sequential_2/hub_keras_layer_v1v2_2/StatefulPartitionedCall/efficientnet-lite0/model/blocks_1/depthwise_conv2d/depthwise_weights", "StatefulPartitionedCall/sequential_2/hub_keras_layer_v1v2_2/StatefulPartitionedCall/efficientnet-lite0/model/blocks_1/depthwise_conv2d/depthwise_bn_offset"], "attr": {"num_args": {"i": "1"}, "padding": {"s": "U0FNRQ=="}, "fused_ops": {"list": {"s": ["Qmlhc0FkZA==", "UmVsdTY="]}}, "dilations": {"list": {"i": ["1", "1", "1", "1"]}}, "T": {"type": "DT_FLOAT"}, "data_format": {"s": "TkhXQw=="}, "explicit_paddings": {"list": {}}, "strides": {"list": {"i": ["1", "2", "2", "1"]}}}}, {"name": "StatefulPartitionedCall/sequential_2/hub_keras_layer_v1v2_2/StatefulPartitionedCall/efficientnet-lite0/model/blocks_1/tpu_batch_normalization_2/FusedBatchNormV3", "op": "_FusedConv2D", "input": ["StatefulPartitionedCall/sequential_2/hub_keras_layer_v1v2_2/StatefulPartitionedCall/efficientnet-lite0/model/blocks_1/depthwise_conv2d/depthwise", "StatefulPartitionedCall/sequential_2/hub_keras_layer_v1v2_2/StatefulPartitionedCall/efficientnet-lite0/model/blocks_1/conv2d_1/Conv2D_weights", "StatefulPartitionedCall/sequential_2/hub_keras_layer_v1v2_2/StatefulPartitionedCall/efficientnet-lite0/model/blocks_1/conv2d_1/Conv2D_bn_offset"], "device": "/device:CPU:0", "attr": {"strides": {"list": {"i": ["1", "1", "1", "1"]}}, "epsilon": {"f": 0.0}, "dilations": {"list": {"i": ["1", "1", "1", "1"]}}, "num_args": {"i": "1"}, "padding": {"s": "U0FNRQ=="}, "fused_ops": {"list": {"s": ["Qmlhc0FkZA=="]}}, "T": {"type": "DT_FLOAT"}, "explicit_paddings": {"list": {}}, "use_cudnn_on_gpu": {"b": true}, "data_format": {"s": "TkhXQw=="}}}, {"name": "StatefulPartitionedCall/sequential_2/hub_keras_layer_v1v2_2/StatefulPartitionedCall/efficientnet-lite0/model/blocks_2/Relu6", "op": "_FusedConv2D", "input": ["StatefulPartitionedCall/sequential_2/hub_keras_layer_v1v2_2/StatefulPartitionedCall/efficientnet-lite0/model/blocks_1/tpu_batch_normalization_2/FusedBatchNormV3", "StatefulPartitionedCall/sequential_2/hub_keras_layer_v1v2_2/StatefulPartitionedCall/efficientnet-lite0/model/blocks_2/conv2d/Conv2D_weights", "StatefulPartitionedCall/sequential_2/hub_keras_layer_v1v2_2/StatefulPartitionedCall/efficientnet-lite0/model/blocks_2/conv2d/Conv2D_bn_offset"], "device": "/device:CPU:0", "attr": {"epsilon": {"f": 0.0}, "T": {"type": "DT_FLOAT"}, "use_cudnn_on_gpu": {"b": true}, "data_format": {"s": "TkhXQw=="}, "padding": {"s": "U0FNRQ=="}, "strides": {"list": {"i": ["1", "1", "1", "1"]}}, "fused_ops": {"list": {"s": ["Qmlhc0FkZA==", "UmVsdTY="]}}, "num_args": {"i": "1"}, "dilations": {"list": {"i": ["1", "1", "1", "1"]}}, "explicit_paddings": {"list": {}}}}, {"name": "StatefulPartitionedCall/sequential_2/hub_keras_layer_v1v2_2/StatefulPartitionedCall/efficientnet-lite0/model/blocks_2/depthwise_conv2d/depthwise", "op": "FusedDepthwiseConv2dNative", "input": ["StatefulPartitionedCall/sequential_2/hub_keras_layer_v1v2_2/StatefulPartitionedCall/efficientnet-lite0/model/blocks_2/Relu6", "StatefulPartitionedCall/sequential_2/hub_keras_layer_v1v2_2/StatefulPartitionedCall/efficientnet-lite0/model/blocks_2/depthwise_conv2d/depthwise_weights", "StatefulPartitionedCall/sequential_2/hub_keras_layer_v1v2_2/StatefulPartitionedCall/efficientnet-lite0/model/blocks_2/depthwise_conv2d/depthwise_bn_offset"], "attr": {"dilations": {"list": {"i": ["1", "1", "1", "1"]}}, "num_args": {"i": "1"}, "T": {"type": "DT_FLOAT"}, "data_format": {"s": "TkhXQw=="}, "fused_ops": {"list": {"s": ["Qmlhc0FkZA==", "UmVsdTY="]}}, "padding": {"s": "U0FNRQ=="}, "explicit_paddings": {"list": {}}, "strides": {"list": {"i": ["1", "1", "1", "1"]}}}}, {"name": "StatefulPartitionedCall/sequential_2/hub_keras_layer_v1v2_2/StatefulPartitionedCall/efficientnet-lite0/model/blocks_2/tpu_batch_normalization_2/FusedBatchNormV3", "op": "_FusedConv2D", "input": ["StatefulPartitionedCall/sequential_2/hub_keras_layer_v1v2_2/StatefulPartitionedCall/efficientnet-lite0/model/blocks_2/depthwise_conv2d/depthwise", "StatefulPartitionedCall/sequential_2/hub_keras_layer_v1v2_2/StatefulPartitionedCall/efficientnet-lite0/model/blocks_2/conv2d_1/Conv2D_weights", "StatefulPartitionedCall/sequential_2/hub_keras_layer_v1v2_2/StatefulPartitionedCall/efficientnet-lite0/model/blocks_2/conv2d_1/Conv2D_bn_offset"], "device": "/device:CPU:0", "attr": {"explicit_paddings": {"list": {}}, "epsilon": {"f": 0.0}, "use_cudnn_on_gpu": {"b": true}, "data_format": {"s": "TkhXQw=="}, "padding": {"s": "U0FNRQ=="}, "fused_ops": {"list": {"s": ["Qmlhc0FkZA=="]}}, "dilations": {"list": {"i": ["1", "1", "1", "1"]}}, "T": {"type": "DT_FLOAT"}, "strides": {"list": {"i": ["1", "1", "1", "1"]}}, "num_args": {"i": "1"}}}, {"name": "StatefulPartitionedCall/sequential_2/hub_keras_layer_v1v2_2/StatefulPartitionedCall/efficientnet-lite0/model/blocks_2/Add", "op": "Add", "input": ["StatefulPartitionedCall/sequential_2/hub_keras_layer_v1v2_2/StatefulPartitionedCall/efficientnet-lite0/model/blocks_2/tpu_batch_normalization_2/FusedBatchNormV3", "StatefulPartitionedCall/sequential_2/hub_keras_layer_v1v2_2/StatefulPartitionedCall/efficientnet-lite0/model/blocks_1/tpu_batch_normalization_2/FusedBatchNormV3"], "attr": {"T": {"type": "DT_FLOAT"}}}, {"name": "StatefulPartitionedCall/sequential_2/hub_keras_layer_v1v2_2/StatefulPartitionedCall/efficientnet-lite0/model/blocks_3/Relu6", "op": "_FusedConv2D", "input": ["StatefulPartitionedCall/sequential_2/hub_keras_layer_v1v2_2/StatefulPartitionedCall/efficientnet-lite0/model/blocks_2/Add", "StatefulPartitionedCall/sequential_2/hub_keras_layer_v1v2_2/StatefulPartitionedCall/efficientnet-lite0/model/blocks_3/conv2d/Conv2D_weights", "StatefulPartitionedCall/sequential_2/hub_keras_layer_v1v2_2/StatefulPartitionedCall/efficientnet-lite0/model/blocks_3/conv2d/Conv2D_bn_offset"], "device": "/device:CPU:0", "attr": {"epsilon": {"f": 0.0}, "use_cudnn_on_gpu": {"b": true}, "dilations": {"list": {"i": ["1", "1", "1", "1"]}}, "fused_ops": {"list": {"s": ["Qmlhc0FkZA==", "UmVsdTY="]}}, "num_args": {"i": "1"}, "strides": {"list": {"i": ["1", "1", "1", "1"]}}, "explicit_paddings": {"list": {}}, "T": {"type": "DT_FLOAT"}, "padding": {"s": "U0FNRQ=="}, "data_format": {"s": "TkhXQw=="}}}, {"name": "StatefulPartitionedCall/sequential_2/hub_keras_layer_v1v2_2/StatefulPartitionedCall/efficientnet-lite0/model/blocks_3/depthwise_conv2d/depthwise", "op": "FusedDepthwiseConv2dNative", "input": ["StatefulPartitionedCall/sequential_2/hub_keras_layer_v1v2_2/StatefulPartitionedCall/efficientnet-lite0/model/blocks_3/Relu6", "StatefulPartitionedCall/sequential_2/hub_keras_layer_v1v2_2/StatefulPartitionedCall/efficientnet-lite0/model/blocks_3/depthwise_conv2d/depthwise_weights", "StatefulPartitionedCall/sequential_2/hub_keras_layer_v1v2_2/StatefulPartitionedCall/efficientnet-lite0/model/blocks_3/depthwise_conv2d/depthwise_bn_offset"], "attr": {"padding": {"s": "U0FNRQ=="}, "data_format": {"s": "TkhXQw=="}, "dilations": {"list": {"i": ["1", "1", "1", "1"]}}, "num_args": {"i": "1"}, "explicit_paddings": {"list": {}}, "fused_ops": {"list": {"s": ["Qmlhc0FkZA==", "UmVsdTY="]}}, "strides": {"list": {"i": ["1", "2", "2", "1"]}}, "T": {"type": "DT_FLOAT"}}}, {"name": "StatefulPartitionedCall/sequential_2/hub_keras_layer_v1v2_2/StatefulPartitionedCall/efficientnet-lite0/model/blocks_3/tpu_batch_normalization_2/FusedBatchNormV3", "op": "_FusedConv2D", "input": ["StatefulPartitionedCall/sequential_2/hub_keras_layer_v1v2_2/StatefulPartitionedCall/efficientnet-lite0/model/blocks_3/depthwise_conv2d/depthwise", "StatefulPartitionedCall/sequential_2/hub_keras_layer_v1v2_2/StatefulPartitionedCall/efficientnet-lite0/model/blocks_3/conv2d_1/Conv2D_weights", "StatefulPartitionedCall/sequential_2/hub_keras_layer_v1v2_2/StatefulPartitionedCall/efficientnet-lite0/model/blocks_3/conv2d_1/Conv2D_bn_offset"], "device": "/device:CPU:0", "attr": {"T": {"type": "DT_FLOAT"}, "num_args": {"i": "1"}, "use_cudnn_on_gpu": {"b": true}, "fused_ops": {"list": {"s": ["Qmlhc0FkZA=="]}}, "explicit_paddings": {"list": {}}, "strides": {"list": {"i": ["1", "1", "1", "1"]}}, "epsilon": {"f": 0.0}, "data_format": {"s": "TkhXQw=="}, "padding": {"s": "U0FNRQ=="}, "dilations": {"list": {"i": ["1", "1", "1", "1"]}}}}, {"name": "StatefulPartitionedCall/sequential_2/hub_keras_layer_v1v2_2/StatefulPartitionedCall/efficientnet-lite0/model/blocks_4/Relu6", "op": "_FusedConv2D", "input": ["StatefulPartitionedCall/sequential_2/hub_keras_layer_v1v2_2/StatefulPartitionedCall/efficientnet-lite0/model/blocks_3/tpu_batch_normalization_2/FusedBatchNormV3", "StatefulPartitionedCall/sequential_2/hub_keras_layer_v1v2_2/StatefulPartitionedCall/efficientnet-lite0/model/blocks_4/conv2d/Conv2D_weights", "StatefulPartitionedCall/sequential_2/hub_keras_layer_v1v2_2/StatefulPartitionedCall/efficientnet-lite0/model/blocks_4/conv2d/Conv2D_bn_offset"], "device": "/device:CPU:0", "attr": {"strides": {"list": {"i": ["1", "1", "1", "1"]}}, "T": {"type": "DT_FLOAT"}, "explicit_paddings": {"list": {}}, "epsilon": {"f": 0.0}, "dilations": {"list": {"i": ["1", "1", "1", "1"]}}, "data_format": {"s": "TkhXQw=="}, "padding": {"s": "U0FNRQ=="}, "fused_ops": {"list": {"s": ["Qmlhc0FkZA==", "UmVsdTY="]}}, "use_cudnn_on_gpu": {"b": true}, "num_args": {"i": "1"}}}, {"name": "StatefulPartitionedCall/sequential_2/hub_keras_layer_v1v2_2/StatefulPartitionedCall/efficientnet-lite0/model/blocks_4/depthwise_conv2d/depthwise", "op": "FusedDepthwiseConv2dNative", "input": ["StatefulPartitionedCall/sequential_2/hub_keras_layer_v1v2_2/StatefulPartitionedCall/efficientnet-lite0/model/blocks_4/Relu6", "StatefulPartitionedCall/sequential_2/hub_keras_layer_v1v2_2/StatefulPartitionedCall/efficientnet-lite0/model/blocks_4/depthwise_conv2d/depthwise_weights", "StatefulPartitionedCall/sequential_2/hub_keras_layer_v1v2_2/StatefulPartitionedCall/efficientnet-lite0/model/blocks_4/depthwise_conv2d/depthwise_bn_offset"], "attr": {"data_format": {"s": "TkhXQw=="}, "explicit_paddings": {"list": {}}, "strides": {"list": {"i": ["1", "1", "1", "1"]}}, "num_args": {"i": "1"}, "fused_ops": {"list": {"s": ["Qmlhc0FkZA==", "UmVsdTY="]}}, "T": {"type": "DT_FLOAT"}, "dilations": {"list": {"i": ["1", "1", "1", "1"]}}, "padding": {"s": "U0FNRQ=="}}}, {"name": "StatefulPartitionedCall/sequential_2/hub_keras_layer_v1v2_2/StatefulPartitionedCall/efficientnet-lite0/model/blocks_4/tpu_batch_normalization_2/FusedBatchNormV3", "op": "_FusedConv2D", "input": ["StatefulPartitionedCall/sequential_2/hub_keras_layer_v1v2_2/StatefulPartitionedCall/efficientnet-lite0/model/blocks_4/depthwise_conv2d/depthwise", "StatefulPartitionedCall/sequential_2/hub_keras_layer_v1v2_2/StatefulPartitionedCall/efficientnet-lite0/model/blocks_4/conv2d_1/Conv2D_weights", "StatefulPartitionedCall/sequential_2/hub_keras_layer_v1v2_2/StatefulPartitionedCall/efficientnet-lite0/model/blocks_4/conv2d_1/Conv2D_bn_offset"], "device": "/device:CPU:0", "attr": {"strides": {"list": {"i": ["1", "1", "1", "1"]}}, "dilations": {"list": {"i": ["1", "1", "1", "1"]}}, "data_format": {"s": "TkhXQw=="}, "use_cudnn_on_gpu": {"b": true}, "T": {"type": "DT_FLOAT"}, "fused_ops": {"list": {"s": ["Qmlhc0FkZA=="]}}, "epsilon": {"f": 0.0}, "padding": {"s": "U0FNRQ=="}, "explicit_paddings": {"list": {}}, "num_args": {"i": "1"}}}, {"name": "StatefulPartitionedCall/sequential_2/hub_keras_layer_v1v2_2/StatefulPartitionedCall/efficientnet-lite0/model/blocks_4/Add", "op": "Add", "input": ["StatefulPartitionedCall/sequential_2/hub_keras_layer_v1v2_2/StatefulPartitionedCall/efficientnet-lite0/model/blocks_4/tpu_batch_normalization_2/FusedBatchNormV3", "StatefulPartitionedCall/sequential_2/hub_keras_layer_v1v2_2/StatefulPartitionedCall/efficientnet-lite0/model/blocks_3/tpu_batch_normalization_2/FusedBatchNormV3"], "attr": {"T": {"type": "DT_FLOAT"}}}, {"name": "StatefulPartitionedCall/sequential_2/hub_keras_layer_v1v2_2/StatefulPartitionedCall/efficientnet-lite0/model/blocks_5/Relu6", "op": "_FusedConv2D", "input": ["StatefulPartitionedCall/sequential_2/hub_keras_layer_v1v2_2/StatefulPartitionedCall/efficientnet-lite0/model/blocks_4/Add", "StatefulPartitionedCall/sequential_2/hub_keras_layer_v1v2_2/StatefulPartitionedCall/efficientnet-lite0/model/blocks_5/conv2d/Conv2D_weights", "StatefulPartitionedCall/sequential_2/hub_keras_layer_v1v2_2/StatefulPartitionedCall/efficientnet-lite0/model/blocks_5/conv2d/Conv2D_bn_offset"], "device": "/device:CPU:0", "attr": {"data_format": {"s": "TkhXQw=="}, "strides": {"list": {"i": ["1", "1", "1", "1"]}}, "padding": {"s": "U0FNRQ=="}, "explicit_paddings": {"list": {}}, "epsilon": {"f": 0.0}, "fused_ops": {"list": {"s": ["Qmlhc0FkZA==", "UmVsdTY="]}}, "num_args": {"i": "1"}, "dilations": {"list": {"i": ["1", "1", "1", "1"]}}, "use_cudnn_on_gpu": {"b": true}, "T": {"type": "DT_FLOAT"}}}, {"name": "StatefulPartitionedCall/sequential_2/hub_keras_layer_v1v2_2/StatefulPartitionedCall/efficientnet-lite0/model/blocks_5/depthwise_conv2d/depthwise", "op": "FusedDepthwiseConv2dNative", "input": ["StatefulPartitionedCall/sequential_2/hub_keras_layer_v1v2_2/StatefulPartitionedCall/efficientnet-lite0/model/blocks_5/Relu6", "StatefulPartitionedCall/sequential_2/hub_keras_layer_v1v2_2/StatefulPartitionedCall/efficientnet-lite0/model/blocks_5/depthwise_conv2d/depthwise_weights", "StatefulPartitionedCall/sequential_2/hub_keras_layer_v1v2_2/StatefulPartitionedCall/efficientnet-lite0/model/blocks_5/depthwise_conv2d/depthwise_bn_offset"], "attr": {"data_format": {"s": "TkhXQw=="}, "padding": {"s": "U0FNRQ=="}, "T": {"type": "DT_FLOAT"}, "explicit_paddings": {"list": {}}, "strides": {"list": {"i": ["1", "2", "2", "1"]}}, "dilations": {"list": {"i": ["1", "1", "1", "1"]}}, "fused_ops": {"list": {"s": ["Qmlhc0FkZA==", "UmVsdTY="]}}, "num_args": {"i": "1"}}}, {"name": "StatefulPartitionedCall/sequential_2/hub_keras_layer_v1v2_2/StatefulPartitionedCall/efficientnet-lite0/model/blocks_5/tpu_batch_normalization_2/FusedBatchNormV3", "op": "_FusedConv2D", "input": ["StatefulPartitionedCall/sequential_2/hub_keras_layer_v1v2_2/StatefulPartitionedCall/efficientnet-lite0/model/blocks_5/depthwise_conv2d/depthwise", "StatefulPartitionedCall/sequential_2/hub_keras_layer_v1v2_2/StatefulPartitionedCall/efficientnet-lite0/model/blocks_5/conv2d_1/Conv2D_weights", "StatefulPartitionedCall/sequential_2/hub_keras_layer_v1v2_2/StatefulPartitionedCall/efficientnet-lite0/model/blocks_5/conv2d_1/Conv2D_bn_offset"], "device": "/device:CPU:0", "attr": {"padding": {"s": "U0FNRQ=="}, "data_format": {"s": "TkhXQw=="}, "epsilon": {"f": 0.0}, "fused_ops": {"list": {"s": ["Qmlhc0FkZA=="]}}, "T": {"type": "DT_FLOAT"}, "num_args": {"i": "1"}, "dilations": {"list": {"i": ["1", "1", "1", "1"]}}, "use_cudnn_on_gpu": {"b": true}, "strides": {"list": {"i": ["1", "1", "1", "1"]}}, "explicit_paddings": {"list": {}}}}, {"name": "StatefulPartitionedCall/sequential_2/hub_keras_layer_v1v2_2/StatefulPartitionedCall/efficientnet-lite0/model/blocks_6/Relu6", "op": "_FusedConv2D", "input": ["StatefulPartitionedCall/sequential_2/hub_keras_layer_v1v2_2/StatefulPartitionedCall/efficientnet-lite0/model/blocks_5/tpu_batch_normalization_2/FusedBatchNormV3", "StatefulPartitionedCall/sequential_2/hub_keras_layer_v1v2_2/StatefulPartitionedCall/efficientnet-lite0/model/blocks_6/conv2d/Conv2D_weights", "StatefulPartitionedCall/sequential_2/hub_keras_layer_v1v2_2/StatefulPartitionedCall/efficientnet-lite0/model/blocks_6/conv2d/Conv2D_bn_offset"], "device": "/device:CPU:0", "attr": {"dilations": {"list": {"i": ["1", "1", "1", "1"]}}, "use_cudnn_on_gpu": {"b": true}, "padding": {"s": "U0FNRQ=="}, "strides": {"list": {"i": ["1", "1", "1", "1"]}}, "num_args": {"i": "1"}, "fused_ops": {"list": {"s": ["Qmlhc0FkZA==", "UmVsdTY="]}}, "T": {"type": "DT_FLOAT"}, "epsilon": {"f": 0.0}, "data_format": {"s": "TkhXQw=="}, "explicit_paddings": {"list": {}}}}, {"name": "StatefulPartitionedCall/sequential_2/hub_keras_layer_v1v2_2/StatefulPartitionedCall/efficientnet-lite0/model/blocks_6/depthwise_conv2d/depthwise", "op": "FusedDepthwiseConv2dNative", "input": ["StatefulPartitionedCall/sequential_2/hub_keras_layer_v1v2_2/StatefulPartitionedCall/efficientnet-lite0/model/blocks_6/Relu6", "StatefulPartitionedCall/sequential_2/hub_keras_layer_v1v2_2/StatefulPartitionedCall/efficientnet-lite0/model/blocks_6/depthwise_conv2d/depthwise_weights", "StatefulPartitionedCall/sequential_2/hub_keras_layer_v1v2_2/StatefulPartitionedCall/efficientnet-lite0/model/blocks_6/depthwise_conv2d/depthwise_bn_offset"], "attr": {"num_args": {"i": "1"}, "explicit_paddings": {"list": {}}, "T": {"type": "DT_FLOAT"}, "dilations": {"list": {"i": ["1", "1", "1", "1"]}}, "data_format": {"s": "TkhXQw=="}, "padding": {"s": "U0FNRQ=="}, "fused_ops": {"list": {"s": ["Qmlhc0FkZA==", "UmVsdTY="]}}, "strides": {"list": {"i": ["1", "1", "1", "1"]}}}}, {"name": "StatefulPartitionedCall/sequential_2/hub_keras_layer_v1v2_2/StatefulPartitionedCall/efficientnet-lite0/model/blocks_6/tpu_batch_normalization_2/FusedBatchNormV3", "op": "_FusedConv2D", "input": ["StatefulPartitionedCall/sequential_2/hub_keras_layer_v1v2_2/StatefulPartitionedCall/efficientnet-lite0/model/blocks_6/depthwise_conv2d/depthwise", "StatefulPartitionedCall/sequential_2/hub_keras_layer_v1v2_2/StatefulPartitionedCall/efficientnet-lite0/model/blocks_6/conv2d_1/Conv2D_weights", "StatefulPartitionedCall/sequential_2/hub_keras_layer_v1v2_2/StatefulPartitionedCall/efficientnet-lite0/model/blocks_6/conv2d_1/Conv2D_bn_offset"], "device": "/device:CPU:0", "attr": {"num_args": {"i": "1"}, "fused_ops": {"list": {"s": ["Qmlhc0FkZA=="]}}, "use_cudnn_on_gpu": {"b": true}, "padding": {"s": "U0FNRQ=="}, "data_format": {"s": "TkhXQw=="}, "explicit_paddings": {"list": {}}, "T": {"type": "DT_FLOAT"}, "epsilon": {"f": 0.0}, "strides": {"list": {"i": ["1", "1", "1", "1"]}}, "dilations": {"list": {"i": ["1", "1", "1", "1"]}}}}, {"name": "StatefulPartitionedCall/sequential_2/hub_keras_layer_v1v2_2/StatefulPartitionedCall/efficientnet-lite0/model/blocks_6/Add", "op": "Add", "input": ["StatefulPartitionedCall/sequential_2/hub_keras_layer_v1v2_2/StatefulPartitionedCall/efficientnet-lite0/model/blocks_6/tpu_batch_normalization_2/FusedBatchNormV3", "StatefulPartitionedCall/sequential_2/hub_keras_layer_v1v2_2/StatefulPartitionedCall/efficientnet-lite0/model/blocks_5/tpu_batch_normalization_2/FusedBatchNormV3"], "attr": {"T": {"type": "DT_FLOAT"}}}, {"name": "StatefulPartitionedCall/sequential_2/hub_keras_layer_v1v2_2/StatefulPartitionedCall/efficientnet-lite0/model/blocks_7/Relu6", "op": "_FusedConv2D", "input": ["StatefulPartitionedCall/sequential_2/hub_keras_layer_v1v2_2/StatefulPartitionedCall/efficientnet-lite0/model/blocks_6/Add", "StatefulPartitionedCall/sequential_2/hub_keras_layer_v1v2_2/StatefulPartitionedCall/efficientnet-lite0/model/blocks_7/conv2d/Conv2D_weights", "StatefulPartitionedCall/sequential_2/hub_keras_layer_v1v2_2/StatefulPartitionedCall/efficientnet-lite0/model/blocks_7/conv2d/Conv2D_bn_offset"], "device": "/device:CPU:0", "attr": {"dilations": {"list": {"i": ["1", "1", "1", "1"]}}, "data_format": {"s": "TkhXQw=="}, "T": {"type": "DT_FLOAT"}, "use_cudnn_on_gpu": {"b": true}, "fused_ops": {"list": {"s": ["Qmlhc0FkZA==", "UmVsdTY="]}}, "padding": {"s": "U0FNRQ=="}, "explicit_paddings": {"list": {}}, "num_args": {"i": "1"}, "strides": {"list": {"i": ["1", "1", "1", "1"]}}, "epsilon": {"f": 0.0}}}, {"name": "StatefulPartitionedCall/sequential_2/hub_keras_layer_v1v2_2/StatefulPartitionedCall/efficientnet-lite0/model/blocks_7/depthwise_conv2d/depthwise", "op": "FusedDepthwiseConv2dNative", "input": ["StatefulPartitionedCall/sequential_2/hub_keras_layer_v1v2_2/StatefulPartitionedCall/efficientnet-lite0/model/blocks_7/Relu6", "StatefulPartitionedCall/sequential_2/hub_keras_layer_v1v2_2/StatefulPartitionedCall/efficientnet-lite0/model/blocks_7/depthwise_conv2d/depthwise_weights", "StatefulPartitionedCall/sequential_2/hub_keras_layer_v1v2_2/StatefulPartitionedCall/efficientnet-lite0/model/blocks_7/depthwise_conv2d/depthwise_bn_offset"], "attr": {"strides": {"list": {"i": ["1", "1", "1", "1"]}}, "data_format": {"s": "TkhXQw=="}, "num_args": {"i": "1"}, "explicit_paddings": {"list": {}}, "T": {"type": "DT_FLOAT"}, "padding": {"s": "U0FNRQ=="}, "dilations": {"list": {"i": ["1", "1", "1", "1"]}}, "fused_ops": {"list": {"s": ["Qmlhc0FkZA==", "UmVsdTY="]}}}}, {"name": "StatefulPartitionedCall/sequential_2/hub_keras_layer_v1v2_2/StatefulPartitionedCall/efficientnet-lite0/model/blocks_7/tpu_batch_normalization_2/FusedBatchNormV3", "op": "_FusedConv2D", "input": ["StatefulPartitionedCall/sequential_2/hub_keras_layer_v1v2_2/StatefulPartitionedCall/efficientnet-lite0/model/blocks_7/depthwise_conv2d/depthwise", "StatefulPartitionedCall/sequential_2/hub_keras_layer_v1v2_2/StatefulPartitionedCall/efficientnet-lite0/model/blocks_7/conv2d_1/Conv2D_weights", "StatefulPartitionedCall/sequential_2/hub_keras_layer_v1v2_2/StatefulPartitionedCall/efficientnet-lite0/model/blocks_7/conv2d_1/Conv2D_bn_offset"], "device": "/device:CPU:0", "attr": {"dilations": {"list": {"i": ["1", "1", "1", "1"]}}, "T": {"type": "DT_FLOAT"}, "padding": {"s": "U0FNRQ=="}, "num_args": {"i": "1"}, "epsilon": {"f": 0.0}, "fused_ops": {"list": {"s": ["Qmlhc0FkZA=="]}}, "strides": {"list": {"i": ["1", "1", "1", "1"]}}, "use_cudnn_on_gpu": {"b": true}, "explicit_paddings": {"list": {}}, "data_format": {"s": "TkhXQw=="}}}, {"name": "StatefulPartitionedCall/sequential_2/hub_keras_layer_v1v2_2/StatefulPartitionedCall/efficientnet-lite0/model/blocks_7/Add", "op": "Add", "input": ["StatefulPartitionedCall/sequential_2/hub_keras_layer_v1v2_2/StatefulPartitionedCall/efficientnet-lite0/model/blocks_7/tpu_batch_normalization_2/FusedBatchNormV3", "StatefulPartitionedCall/sequential_2/hub_keras_layer_v1v2_2/StatefulPartitionedCall/efficientnet-lite0/model/blocks_6/Add"], "attr": {"T": {"type": "DT_FLOAT"}}}, {"name": "StatefulPartitionedCall/sequential_2/hub_keras_layer_v1v2_2/StatefulPartitionedCall/efficientnet-lite0/model/blocks_8/Relu6", "op": "_FusedConv2D", "input": ["StatefulPartitionedCall/sequential_2/hub_keras_layer_v1v2_2/StatefulPartitionedCall/efficientnet-lite0/model/blocks_7/Add", "StatefulPartitionedCall/sequential_2/hub_keras_layer_v1v2_2/StatefulPartitionedCall/efficientnet-lite0/model/blocks_8/conv2d/Conv2D_weights", "StatefulPartitionedCall/sequential_2/hub_keras_layer_v1v2_2/StatefulPartitionedCall/efficientnet-lite0/model/blocks_8/conv2d/Conv2D_bn_offset"], "device": "/device:CPU:0", "attr": {"padding": {"s": "U0FNRQ=="}, "data_format": {"s": "TkhXQw=="}, "dilations": {"list": {"i": ["1", "1", "1", "1"]}}, "epsilon": {"f": 0.0}, "num_args": {"i": "1"}, "explicit_paddings": {"list": {}}, "strides": {"list": {"i": ["1", "1", "1", "1"]}}, "fused_ops": {"list": {"s": ["Qmlhc0FkZA==", "UmVsdTY="]}}, "T": {"type": "DT_FLOAT"}, "use_cudnn_on_gpu": {"b": true}}}, {"name": "StatefulPartitionedCall/sequential_2/hub_keras_layer_v1v2_2/StatefulPartitionedCall/efficientnet-lite0/model/blocks_8/depthwise_conv2d/depthwise", "op": "FusedDepthwiseConv2dNative", "input": ["StatefulPartitionedCall/sequential_2/hub_keras_layer_v1v2_2/StatefulPartitionedCall/efficientnet-lite0/model/blocks_8/Relu6", "StatefulPartitionedCall/sequential_2/hub_keras_layer_v1v2_2/StatefulPartitionedCall/efficientnet-lite0/model/blocks_8/depthwise_conv2d/depthwise_weights", "StatefulPartitionedCall/sequential_2/hub_keras_layer_v1v2_2/StatefulPartitionedCall/efficientnet-lite0/model/blocks_8/depthwise_conv2d/depthwise_bn_offset"], "attr": {"strides": {"list": {"i": ["1", "1", "1", "1"]}}, "num_args": {"i": "1"}, "explicit_paddings": {"list": {}}, "dilations": {"list": {"i": ["1", "1", "1", "1"]}}, "fused_ops": {"list": {"s": ["Qmlhc0FkZA==", "UmVsdTY="]}}, "T": {"type": "DT_FLOAT"}, "padding": {"s": "U0FNRQ=="}, "data_format": {"s": "TkhXQw=="}}}, {"name": "StatefulPartitionedCall/sequential_2/hub_keras_layer_v1v2_2/StatefulPartitionedCall/efficientnet-lite0/model/blocks_8/tpu_batch_normalization_2/FusedBatchNormV3", "op": "_FusedConv2D", "input": ["StatefulPartitionedCall/sequential_2/hub_keras_layer_v1v2_2/StatefulPartitionedCall/efficientnet-lite0/model/blocks_8/depthwise_conv2d/depthwise", "StatefulPartitionedCall/sequential_2/hub_keras_layer_v1v2_2/StatefulPartitionedCall/efficientnet-lite0/model/blocks_8/conv2d_1/Conv2D_weights", "StatefulPartitionedCall/sequential_2/hub_keras_layer_v1v2_2/StatefulPartitionedCall/efficientnet-lite0/model/blocks_8/conv2d_1/Conv2D_bn_offset"], "device": "/device:CPU:0", "attr": {"num_args": {"i": "1"}, "explicit_paddings": {"list": {}}, "use_cudnn_on_gpu": {"b": true}, "T": {"type": "DT_FLOAT"}, "data_format": {"s": "TkhXQw=="}, "dilations": {"list": {"i": ["1", "1", "1", "1"]}}, "fused_ops": {"list": {"s": ["Qmlhc0FkZA=="]}}, "epsilon": {"f": 0.0}, "padding": {"s": "U0FNRQ=="}, "strides": {"list": {"i": ["1", "1", "1", "1"]}}}}, {"name": "StatefulPartitionedCall/sequential_2/hub_keras_layer_v1v2_2/StatefulPartitionedCall/efficientnet-lite0/model/blocks_9/Relu6", "op": "_FusedConv2D", "input": ["StatefulPartitionedCall/sequential_2/hub_keras_layer_v1v2_2/StatefulPartitionedCall/efficientnet-lite0/model/blocks_8/tpu_batch_normalization_2/FusedBatchNormV3", "StatefulPartitionedCall/sequential_2/hub_keras_layer_v1v2_2/StatefulPartitionedCall/efficientnet-lite0/model/blocks_9/conv2d/Conv2D_weights", "StatefulPartitionedCall/sequential_2/hub_keras_layer_v1v2_2/StatefulPartitionedCall/efficientnet-lite0/model/blocks_9/conv2d/Conv2D_bn_offset"], "device": "/device:CPU:0", "attr": {"num_args": {"i": "1"}, "strides": {"list": {"i": ["1", "1", "1", "1"]}}, "fused_ops": {"list": {"s": ["Qmlhc0FkZA==", "UmVsdTY="]}}, "data_format": {"s": "TkhXQw=="}, "padding": {"s": "U0FNRQ=="}, "use_cudnn_on_gpu": {"b": true}, "epsilon": {"f": 0.0}, "explicit_paddings": {"list": {}}, "dilations": {"list": {"i": ["1", "1", "1", "1"]}}, "T": {"type": "DT_FLOAT"}}}, {"name": "StatefulPartitionedCall/sequential_2/hub_keras_layer_v1v2_2/StatefulPartitionedCall/efficientnet-lite0/model/blocks_9/depthwise_conv2d/depthwise", "op": "FusedDepthwiseConv2dNative", "input": ["StatefulPartitionedCall/sequential_2/hub_keras_layer_v1v2_2/StatefulPartitionedCall/efficientnet-lite0/model/blocks_9/Relu6", "StatefulPartitionedCall/sequential_2/hub_keras_layer_v1v2_2/StatefulPartitionedCall/efficientnet-lite0/model/blocks_9/depthwise_conv2d/depthwise_weights", "StatefulPartitionedCall/sequential_2/hub_keras_layer_v1v2_2/StatefulPartitionedCall/efficientnet-lite0/model/blocks_9/depthwise_conv2d/depthwise_bn_offset"], "attr": {"explicit_paddings": {"list": {}}, "T": {"type": "DT_FLOAT"}, "strides": {"list": {"i": ["1", "1", "1", "1"]}}, "data_format": {"s": "TkhXQw=="}, "padding": {"s": "U0FNRQ=="}, "fused_ops": {"list": {"s": ["Qmlhc0FkZA==", "UmVsdTY="]}}, "num_args": {"i": "1"}, "dilations": {"list": {"i": ["1", "1", "1", "1"]}}}}, {"name": "StatefulPartitionedCall/sequential_2/hub_keras_layer_v1v2_2/StatefulPartitionedCall/efficientnet-lite0/model/blocks_9/tpu_batch_normalization_2/FusedBatchNormV3", "op": "_FusedConv2D", "input": ["StatefulPartitionedCall/sequential_2/hub_keras_layer_v1v2_2/StatefulPartitionedCall/efficientnet-lite0/model/blocks_9/depthwise_conv2d/depthwise", "StatefulPartitionedCall/sequential_2/hub_keras_layer_v1v2_2/StatefulPartitionedCall/efficientnet-lite0/model/blocks_9/conv2d_1/Conv2D_weights", "StatefulPartitionedCall/sequential_2/hub_keras_layer_v1v2_2/StatefulPartitionedCall/efficientnet-lite0/model/blocks_9/conv2d_1/Conv2D_bn_offset"], "device": "/device:CPU:0", "attr": {"use_cudnn_on_gpu": {"b": true}, "fused_ops": {"list": {"s": ["Qmlhc0FkZA=="]}}, "num_args": {"i": "1"}, "padding": {"s": "U0FNRQ=="}, "epsilon": {"f": 0.0}, "strides": {"list": {"i": ["1", "1", "1", "1"]}}, "data_format": {"s": "TkhXQw=="}, "T": {"type": "DT_FLOAT"}, "explicit_paddings": {"list": {}}, "dilations": {"list": {"i": ["1", "1", "1", "1"]}}}}, {"name": "StatefulPartitionedCall/sequential_2/hub_keras_layer_v1v2_2/StatefulPartitionedCall/efficientnet-lite0/model/blocks_9/Add", "op": "Add", "input": ["StatefulPartitionedCall/sequential_2/hub_keras_layer_v1v2_2/StatefulPartitionedCall/efficientnet-lite0/model/blocks_9/tpu_batch_normalization_2/FusedBatchNormV3", "StatefulPartitionedCall/sequential_2/hub_keras_layer_v1v2_2/StatefulPartitionedCall/efficientnet-lite0/model/blocks_8/tpu_batch_normalization_2/FusedBatchNormV3"], "attr": {"T": {"type": "DT_FLOAT"}}}, {"name": "StatefulPartitionedCall/sequential_2/hub_keras_layer_v1v2_2/StatefulPartitionedCall/efficientnet-lite0/model/blocks_10/Relu6", "op": "_FusedConv2D", "input": ["StatefulPartitionedCall/sequential_2/hub_keras_layer_v1v2_2/StatefulPartitionedCall/efficientnet-lite0/model/blocks_9/Add", "StatefulPartitionedCall/sequential_2/hub_keras_layer_v1v2_2/StatefulPartitionedCall/efficientnet-lite0/model/blocks_10/conv2d/Conv2D_weights", "StatefulPartitionedCall/sequential_2/hub_keras_layer_v1v2_2/StatefulPartitionedCall/efficientnet-lite0/model/blocks_10/conv2d/Conv2D_bn_offset"], "device": "/device:CPU:0", "attr": {"strides": {"list": {"i": ["1", "1", "1", "1"]}}, "data_format": {"s": "TkhXQw=="}, "explicit_paddings": {"list": {}}, "dilations": {"list": {"i": ["1", "1", "1", "1"]}}, "fused_ops": {"list": {"s": ["Qmlhc0FkZA==", "UmVsdTY="]}}, "padding": {"s": "U0FNRQ=="}, "T": {"type": "DT_FLOAT"}, "num_args": {"i": "1"}, "use_cudnn_on_gpu": {"b": true}, "epsilon": {"f": 0.0}}}, {"name": "StatefulPartitionedCall/sequential_2/hub_keras_layer_v1v2_2/StatefulPartitionedCall/efficientnet-lite0/model/blocks_10/depthwise_conv2d/depthwise", "op": "FusedDepthwiseConv2dNative", "input": ["StatefulPartitionedCall/sequential_2/hub_keras_layer_v1v2_2/StatefulPartitionedCall/efficientnet-lite0/model/blocks_10/Relu6", "StatefulPartitionedCall/sequential_2/hub_keras_layer_v1v2_2/StatefulPartitionedCall/efficientnet-lite0/model/blocks_10/depthwise_conv2d/depthwise_weights", "StatefulPartitionedCall/sequential_2/hub_keras_layer_v1v2_2/StatefulPartitionedCall/efficientnet-lite0/model/blocks_10/depthwise_conv2d/depthwise_bn_offset"], "attr": {"T": {"type": "DT_FLOAT"}, "num_args": {"i": "1"}, "padding": {"s": "U0FNRQ=="}, "fused_ops": {"list": {"s": ["Qmlhc0FkZA==", "UmVsdTY="]}}, "data_format": {"s": "TkhXQw=="}, "dilations": {"list": {"i": ["1", "1", "1", "1"]}}, "explicit_paddings": {"list": {}}, "strides": {"list": {"i": ["1", "1", "1", "1"]}}}}, {"name": "StatefulPartitionedCall/sequential_2/hub_keras_layer_v1v2_2/StatefulPartitionedCall/efficientnet-lite0/model/blocks_10/tpu_batch_normalization_2/FusedBatchNormV3", "op": "_FusedConv2D", "input": ["StatefulPartitionedCall/sequential_2/hub_keras_layer_v1v2_2/StatefulPartitionedCall/efficientnet-lite0/model/blocks_10/depthwise_conv2d/depthwise", "StatefulPartitionedCall/sequential_2/hub_keras_layer_v1v2_2/StatefulPartitionedCall/efficientnet-lite0/model/blocks_10/conv2d_1/Conv2D_weights", "StatefulPartitionedCall/sequential_2/hub_keras_layer_v1v2_2/StatefulPartitionedCall/efficientnet-lite0/model/blocks_10/conv2d_1/Conv2D_bn_offset"], "device": "/device:CPU:0", "attr": {"dilations": {"list": {"i": ["1", "1", "1", "1"]}}, "data_format": {"s": "TkhXQw=="}, "fused_ops": {"list": {"s": ["Qmlhc0FkZA=="]}}, "padding": {"s": "U0FNRQ=="}, "use_cudnn_on_gpu": {"b": true}, "num_args": {"i": "1"}, "strides": {"list": {"i": ["1", "1", "1", "1"]}}, "epsilon": {"f": 0.0}, "T": {"type": "DT_FLOAT"}, "explicit_paddings": {"list": {}}}}, {"name": "StatefulPartitionedCall/sequential_2/hub_keras_layer_v1v2_2/StatefulPartitionedCall/efficientnet-lite0/model/blocks_10/Add", "op": "Add", "input": ["StatefulPartitionedCall/sequential_2/hub_keras_layer_v1v2_2/StatefulPartitionedCall/efficientnet-lite0/model/blocks_10/tpu_batch_normalization_2/FusedBatchNormV3", "StatefulPartitionedCall/sequential_2/hub_keras_layer_v1v2_2/StatefulPartitionedCall/efficientnet-lite0/model/blocks_9/Add"], "attr": {"T": {"type": "DT_FLOAT"}}}, {"name": "StatefulPartitionedCall/sequential_2/hub_keras_layer_v1v2_2/StatefulPartitionedCall/efficientnet-lite0/model/blocks_11/Relu6", "op": "_FusedConv2D", "input": ["StatefulPartitionedCall/sequential_2/hub_keras_layer_v1v2_2/StatefulPartitionedCall/efficientnet-lite0/model/blocks_10/Add", "StatefulPartitionedCall/sequential_2/hub_keras_layer_v1v2_2/StatefulPartitionedCall/efficientnet-lite0/model/blocks_11/conv2d/Conv2D_weights", "StatefulPartitionedCall/sequential_2/hub_keras_layer_v1v2_2/StatefulPartitionedCall/efficientnet-lite0/model/blocks_11/conv2d/Conv2D_bn_offset"], "device": "/device:CPU:0", "attr": {"strides": {"list": {"i": ["1", "1", "1", "1"]}}, "explicit_paddings": {"list": {}}, "data_format": {"s": "TkhXQw=="}, "fused_ops": {"list": {"s": ["Qmlhc0FkZA==", "UmVsdTY="]}}, "use_cudnn_on_gpu": {"b": true}, "epsilon": {"f": 0.0}, "dilations": {"list": {"i": ["1", "1", "1", "1"]}}, "num_args": {"i": "1"}, "T": {"type": "DT_FLOAT"}, "padding": {"s": "U0FNRQ=="}}}, {"name": "StatefulPartitionedCall/sequential_2/hub_keras_layer_v1v2_2/StatefulPartitionedCall/efficientnet-lite0/model/blocks_11/depthwise_conv2d/depthwise", "op": "FusedDepthwiseConv2dNative", "input": ["StatefulPartitionedCall/sequential_2/hub_keras_layer_v1v2_2/StatefulPartitionedCall/efficientnet-lite0/model/blocks_11/Relu6", "StatefulPartitionedCall/sequential_2/hub_keras_layer_v1v2_2/StatefulPartitionedCall/efficientnet-lite0/model/blocks_11/depthwise_conv2d/depthwise_weights", "StatefulPartitionedCall/sequential_2/hub_keras_layer_v1v2_2/StatefulPartitionedCall/efficientnet-lite0/model/blocks_11/depthwise_conv2d/depthwise_bn_offset"], "attr": {"data_format": {"s": "TkhXQw=="}, "explicit_paddings": {"list": {}}, "num_args": {"i": "1"}, "dilations": {"list": {"i": ["1", "1", "1", "1"]}}, "strides": {"list": {"i": ["1", "2", "2", "1"]}}, "fused_ops": {"list": {"s": ["Qmlhc0FkZA==", "UmVsdTY="]}}, "T": {"type": "DT_FLOAT"}, "padding": {"s": "U0FNRQ=="}}}, {"name": "StatefulPartitionedCall/sequential_2/hub_keras_layer_v1v2_2/StatefulPartitionedCall/efficientnet-lite0/model/blocks_11/tpu_batch_normalization_2/FusedBatchNormV3", "op": "_FusedConv2D", "input": ["StatefulPartitionedCall/sequential_2/hub_keras_layer_v1v2_2/StatefulPartitionedCall/efficientnet-lite0/model/blocks_11/depthwise_conv2d/depthwise", "StatefulPartitionedCall/sequential_2/hub_keras_layer_v1v2_2/StatefulPartitionedCall/efficientnet-lite0/model/blocks_11/conv2d_1/Conv2D_weights", "StatefulPartitionedCall/sequential_2/hub_keras_layer_v1v2_2/StatefulPartitionedCall/efficientnet-lite0/model/blocks_11/conv2d_1/Conv2D_bn_offset"], "device": "/device:CPU:0", "attr": {"explicit_paddings": {"list": {}}, "use_cudnn_on_gpu": {"b": true}, "T": {"type": "DT_FLOAT"}, "data_format": {"s": "TkhXQw=="}, "strides": {"list": {"i": ["1", "1", "1", "1"]}}, "dilations": {"list": {"i": ["1", "1", "1", "1"]}}, "epsilon": {"f": 0.0}, "padding": {"s": "U0FNRQ=="}, "num_args": {"i": "1"}, "fused_ops": {"list": {"s": ["Qmlhc0FkZA=="]}}}}, {"name": "StatefulPartitionedCall/sequential_2/hub_keras_layer_v1v2_2/StatefulPartitionedCall/efficientnet-lite0/model/blocks_12/Relu6", "op": "_FusedConv2D", "input": ["StatefulPartitionedCall/sequential_2/hub_keras_layer_v1v2_2/StatefulPartitionedCall/efficientnet-lite0/model/blocks_11/tpu_batch_normalization_2/FusedBatchNormV3", "StatefulPartitionedCall/sequential_2/hub_keras_layer_v1v2_2/StatefulPartitionedCall/efficientnet-lite0/model/blocks_12/conv2d/Conv2D_weights", "StatefulPartitionedCall/sequential_2/hub_keras_layer_v1v2_2/StatefulPartitionedCall/efficientnet-lite0/model/blocks_12/conv2d/Conv2D_bn_offset"], "device": "/device:CPU:0", "attr": {"strides": {"list": {"i": ["1", "1", "1", "1"]}}, "T": {"type": "DT_FLOAT"}, "epsilon": {"f": 0.0}, "fused_ops": {"list": {"s": ["Qmlhc0FkZA==", "UmVsdTY="]}}, "dilations": {"list": {"i": ["1", "1", "1", "1"]}}, "use_cudnn_on_gpu": {"b": true}, "data_format": {"s": "TkhXQw=="}, "num_args": {"i": "1"}, "explicit_paddings": {"list": {}}, "padding": {"s": "U0FNRQ=="}}}, {"name": "StatefulPartitionedCall/sequential_2/hub_keras_layer_v1v2_2/StatefulPartitionedCall/efficientnet-lite0/model/blocks_12/depthwise_conv2d/depthwise", "op": "FusedDepthwiseConv2dNative", "input": ["StatefulPartitionedCall/sequential_2/hub_keras_layer_v1v2_2/StatefulPartitionedCall/efficientnet-lite0/model/blocks_12/Relu6", "StatefulPartitionedCall/sequential_2/hub_keras_layer_v1v2_2/StatefulPartitionedCall/efficientnet-lite0/model/blocks_12/depthwise_conv2d/depthwise_weights", "StatefulPartitionedCall/sequential_2/hub_keras_layer_v1v2_2/StatefulPartitionedCall/efficientnet-lite0/model/blocks_12/depthwise_conv2d/depthwise_bn_offset"], "attr": {"data_format": {"s": "TkhXQw=="}, "fused_ops": {"list": {"s": ["Qmlhc0FkZA==", "UmVsdTY="]}}, "padding": {"s": "U0FNRQ=="}, "strides": {"list": {"i": ["1", "1", "1", "1"]}}, "explicit_paddings": {"list": {}}, "dilations": {"list": {"i": ["1", "1", "1", "1"]}}, "T": {"type": "DT_FLOAT"}, "num_args": {"i": "1"}}}, {"name": "StatefulPartitionedCall/sequential_2/hub_keras_layer_v1v2_2/StatefulPartitionedCall/efficientnet-lite0/model/blocks_12/tpu_batch_normalization_2/FusedBatchNormV3", "op": "_FusedConv2D", "input": ["StatefulPartitionedCall/sequential_2/hub_keras_layer_v1v2_2/StatefulPartitionedCall/efficientnet-lite0/model/blocks_12/depthwise_conv2d/depthwise", "StatefulPartitionedCall/sequential_2/hub_keras_layer_v1v2_2/StatefulPartitionedCall/efficientnet-lite0/model/blocks_12/conv2d_1/Conv2D_weights", "StatefulPartitionedCall/sequential_2/hub_keras_layer_v1v2_2/StatefulPartitionedCall/efficientnet-lite0/model/blocks_12/conv2d_1/Conv2D_bn_offset"], "device": "/device:CPU:0", "attr": {"epsilon": {"f": 0.0}, "use_cudnn_on_gpu": {"b": true}, "fused_ops": {"list": {"s": ["Qmlhc0FkZA=="]}}, "num_args": {"i": "1"}, "strides": {"list": {"i": ["1", "1", "1", "1"]}}, "padding": {"s": "U0FNRQ=="}, "data_format": {"s": "TkhXQw=="}, "T": {"type": "DT_FLOAT"}, "dilations": {"list": {"i": ["1", "1", "1", "1"]}}, "explicit_paddings": {"list": {}}}}, {"name": "StatefulPartitionedCall/sequential_2/hub_keras_layer_v1v2_2/StatefulPartitionedCall/efficientnet-lite0/model/blocks_12/Add", "op": "Add", "input": ["StatefulPartitionedCall/sequential_2/hub_keras_layer_v1v2_2/StatefulPartitionedCall/efficientnet-lite0/model/blocks_12/tpu_batch_normalization_2/FusedBatchNormV3", "StatefulPartitionedCall/sequential_2/hub_keras_layer_v1v2_2/StatefulPartitionedCall/efficientnet-lite0/model/blocks_11/tpu_batch_normalization_2/FusedBatchNormV3"], "attr": {"T": {"type": "DT_FLOAT"}}}, {"name": "StatefulPartitionedCall/sequential_2/hub_keras_layer_v1v2_2/StatefulPartitionedCall/efficientnet-lite0/model/blocks_13/Relu6", "op": "_FusedConv2D", "input": ["StatefulPartitionedCall/sequential_2/hub_keras_layer_v1v2_2/StatefulPartitionedCall/efficientnet-lite0/model/blocks_12/Add", "StatefulPartitionedCall/sequential_2/hub_keras_layer_v1v2_2/StatefulPartitionedCall/efficientnet-lite0/model/blocks_13/conv2d/Conv2D_weights", "StatefulPartitionedCall/sequential_2/hub_keras_layer_v1v2_2/StatefulPartitionedCall/efficientnet-lite0/model/blocks_13/conv2d/Conv2D_bn_offset"], "device": "/device:CPU:0", "attr": {"T": {"type": "DT_FLOAT"}, "padding": {"s": "U0FNRQ=="}, "fused_ops": {"list": {"s": ["Qmlhc0FkZA==", "UmVsdTY="]}}, "data_format": {"s": "TkhXQw=="}, "explicit_paddings": {"list": {}}, "strides": {"list": {"i": ["1", "1", "1", "1"]}}, "use_cudnn_on_gpu": {"b": true}, "num_args": {"i": "1"}, "epsilon": {"f": 0.0}, "dilations": {"list": {"i": ["1", "1", "1", "1"]}}}}, {"name": "StatefulPartitionedCall/sequential_2/hub_keras_layer_v1v2_2/StatefulPartitionedCall/efficientnet-lite0/model/blocks_13/depthwise_conv2d/depthwise", "op": "FusedDepthwiseConv2dNative", "input": ["StatefulPartitionedCall/sequential_2/hub_keras_layer_v1v2_2/StatefulPartitionedCall/efficientnet-lite0/model/blocks_13/Relu6", "StatefulPartitionedCall/sequential_2/hub_keras_layer_v1v2_2/StatefulPartitionedCall/efficientnet-lite0/model/blocks_13/depthwise_conv2d/depthwise_weights", "StatefulPartitionedCall/sequential_2/hub_keras_layer_v1v2_2/StatefulPartitionedCall/efficientnet-lite0/model/blocks_13/depthwise_conv2d/depthwise_bn_offset"], "attr": {"fused_ops": {"list": {"s": ["Qmlhc0FkZA==", "UmVsdTY="]}}, "explicit_paddings": {"list": {}}, "padding": {"s": "U0FNRQ=="}, "dilations": {"list": {"i": ["1", "1", "1", "1"]}}, "num_args": {"i": "1"}, "T": {"type": "DT_FLOAT"}, "data_format": {"s": "TkhXQw=="}, "strides": {"list": {"i": ["1", "1", "1", "1"]}}}}, {"name": "StatefulPartitionedCall/sequential_2/hub_keras_layer_v1v2_2/StatefulPartitionedCall/efficientnet-lite0/model/blocks_13/tpu_batch_normalization_2/FusedBatchNormV3", "op": "_FusedConv2D", "input": ["StatefulPartitionedCall/sequential_2/hub_keras_layer_v1v2_2/StatefulPartitionedCall/efficientnet-lite0/model/blocks_13/depthwise_conv2d/depthwise", "StatefulPartitionedCall/sequential_2/hub_keras_layer_v1v2_2/StatefulPartitionedCall/efficientnet-lite0/model/blocks_13/conv2d_1/Conv2D_weights", "StatefulPartitionedCall/sequential_2/hub_keras_layer_v1v2_2/StatefulPartitionedCall/efficientnet-lite0/model/blocks_13/conv2d_1/Conv2D_bn_offset"], "device": "/device:CPU:0", "attr": {"T": {"type": "DT_FLOAT"}, "padding": {"s": "U0FNRQ=="}, "num_args": {"i": "1"}, "dilations": {"list": {"i": ["1", "1", "1", "1"]}}, "strides": {"list": {"i": ["1", "1", "1", "1"]}}, "epsilon": {"f": 0.0}, "explicit_paddings": {"list": {}}, "fused_ops": {"list": {"s": ["Qmlhc0FkZA=="]}}, "use_cudnn_on_gpu": {"b": true}, "data_format": {"s": "TkhXQw=="}}}, {"name": "StatefulPartitionedCall/sequential_2/hub_keras_layer_v1v2_2/StatefulPartitionedCall/efficientnet-lite0/model/blocks_13/Add", "op": "Add", "input": ["StatefulPartitionedCall/sequential_2/hub_keras_layer_v1v2_2/StatefulPartitionedCall/efficientnet-lite0/model/blocks_13/tpu_batch_normalization_2/FusedBatchNormV3", "StatefulPartitionedCall/sequential_2/hub_keras_layer_v1v2_2/StatefulPartitionedCall/efficientnet-lite0/model/blocks_12/Add"], "attr": {"T": {"type": "DT_FLOAT"}}}, {"name": "StatefulPartitionedCall/sequential_2/hub_keras_layer_v1v2_2/StatefulPartitionedCall/efficientnet-lite0/model/blocks_14/Relu6", "op": "_FusedConv2D", "input": ["StatefulPartitionedCall/sequential_2/hub_keras_layer_v1v2_2/StatefulPartitionedCall/efficientnet-lite0/model/blocks_13/Add", "StatefulPartitionedCall/sequential_2/hub_keras_layer_v1v2_2/StatefulPartitionedCall/efficientnet-lite0/model/blocks_14/conv2d/Conv2D_weights", "StatefulPartitionedCall/sequential_2/hub_keras_layer_v1v2_2/StatefulPartitionedCall/efficientnet-lite0/model/blocks_14/conv2d/Conv2D_bn_offset"], "device": "/device:CPU:0", "attr": {"T": {"type": "DT_FLOAT"}, "dilations": {"list": {"i": ["1", "1", "1", "1"]}}, "epsilon": {"f": 0.0}, "use_cudnn_on_gpu": {"b": true}, "num_args": {"i": "1"}, "fused_ops": {"list": {"s": ["Qmlhc0FkZA==", "UmVsdTY="]}}, "data_format": {"s": "TkhXQw=="}, "explicit_paddings": {"list": {}}, "padding": {"s": "U0FNRQ=="}, "strides": {"list": {"i": ["1", "1", "1", "1"]}}}}, {"name": "StatefulPartitionedCall/sequential_2/hub_keras_layer_v1v2_2/StatefulPartitionedCall/efficientnet-lite0/model/blocks_14/depthwise_conv2d/depthwise", "op": "FusedDepthwiseConv2dNative", "input": ["StatefulPartitionedCall/sequential_2/hub_keras_layer_v1v2_2/StatefulPartitionedCall/efficientnet-lite0/model/blocks_14/Relu6", "StatefulPartitionedCall/sequential_2/hub_keras_layer_v1v2_2/StatefulPartitionedCall/efficientnet-lite0/model/blocks_14/depthwise_conv2d/depthwise_weights", "StatefulPartitionedCall/sequential_2/hub_keras_layer_v1v2_2/StatefulPartitionedCall/efficientnet-lite0/model/blocks_14/depthwise_conv2d/depthwise_bn_offset"], "attr": {"strides": {"list": {"i": ["1", "1", "1", "1"]}}, "dilations": {"list": {"i": ["1", "1", "1", "1"]}}, "fused_ops": {"list": {"s": ["Qmlhc0FkZA==", "UmVsdTY="]}}, "num_args": {"i": "1"}, "explicit_paddings": {"list": {}}, "data_format": {"s": "TkhXQw=="}, "T": {"type": "DT_FLOAT"}, "padding": {"s": "U0FNRQ=="}}}, {"name": "StatefulPartitionedCall/sequential_2/hub_keras_layer_v1v2_2/StatefulPartitionedCall/efficientnet-lite0/model/blocks_14/tpu_batch_normalization_2/FusedBatchNormV3", "op": "_FusedConv2D", "input": ["StatefulPartitionedCall/sequential_2/hub_keras_layer_v1v2_2/StatefulPartitionedCall/efficientnet-lite0/model/blocks_14/depthwise_conv2d/depthwise", "StatefulPartitionedCall/sequential_2/hub_keras_layer_v1v2_2/StatefulPartitionedCall/efficientnet-lite0/model/blocks_14/conv2d_1/Conv2D_weights", "StatefulPartitionedCall/sequential_2/hub_keras_layer_v1v2_2/StatefulPartitionedCall/efficientnet-lite0/model/blocks_14/conv2d_1/Conv2D_bn_offset"], "device": "/device:CPU:0", "attr": {"explicit_paddings": {"list": {}}, "strides": {"list": {"i": ["1", "1", "1", "1"]}}, "fused_ops": {"list": {"s": ["Qmlhc0FkZA=="]}}, "num_args": {"i": "1"}, "use_cudnn_on_gpu": {"b": true}, "padding": {"s": "U0FNRQ=="}, "T": {"type": "DT_FLOAT"}, "dilations": {"list": {"i": ["1", "1", "1", "1"]}}, "data_format": {"s": "TkhXQw=="}, "epsilon": {"f": 0.0}}}, {"name": "StatefulPartitionedCall/sequential_2/hub_keras_layer_v1v2_2/StatefulPartitionedCall/efficientnet-lite0/model/blocks_14/Add", "op": "Add", "input": ["StatefulPartitionedCall/sequential_2/hub_keras_layer_v1v2_2/StatefulPartitionedCall/efficientnet-lite0/model/blocks_14/tpu_batch_normalization_2/FusedBatchNormV3", "StatefulPartitionedCall/sequential_2/hub_keras_layer_v1v2_2/StatefulPartitionedCall/efficientnet-lite0/model/blocks_13/Add"], "attr": {"T": {"type": "DT_FLOAT"}}}, {"name": "StatefulPartitionedCall/sequential_2/hub_keras_layer_v1v2_2/StatefulPartitionedCall/efficientnet-lite0/model/blocks_15/Relu6", "op": "_FusedConv2D", "input": ["StatefulPartitionedCall/sequential_2/hub_keras_layer_v1v2_2/StatefulPartitionedCall/efficientnet-lite0/model/blocks_14/Add", "StatefulPartitionedCall/sequential_2/hub_keras_layer_v1v2_2/StatefulPartitionedCall/efficientnet-lite0/model/blocks_15/conv2d/Conv2D_weights", "StatefulPartitionedCall/sequential_2/hub_keras_layer_v1v2_2/StatefulPartitionedCall/efficientnet-lite0/model/blocks_15/conv2d/Conv2D_bn_offset"], "device": "/device:CPU:0", "attr": {"strides": {"list": {"i": ["1", "1", "1", "1"]}}, "data_format": {"s": "TkhXQw=="}, "padding": {"s": "U0FNRQ=="}, "dilations": {"list": {"i": ["1", "1", "1", "1"]}}, "use_cudnn_on_gpu": {"b": true}, "num_args": {"i": "1"}, "epsilon": {"f": 0.0}, "explicit_paddings": {"list": {}}, "T": {"type": "DT_FLOAT"}, "fused_ops": {"list": {"s": ["Qmlhc0FkZA==", "UmVsdTY="]}}}}, {"name": "StatefulPartitionedCall/sequential_2/hub_keras_layer_v1v2_2/StatefulPartitionedCall/efficientnet-lite0/model/blocks_15/depthwise_conv2d/depthwise", "op": "FusedDepthwiseConv2dNative", "input": ["StatefulPartitionedCall/sequential_2/hub_keras_layer_v1v2_2/StatefulPartitionedCall/efficientnet-lite0/model/blocks_15/Relu6", "StatefulPartitionedCall/sequential_2/hub_keras_layer_v1v2_2/StatefulPartitionedCall/efficientnet-lite0/model/blocks_15/depthwise_conv2d/depthwise_weights", "StatefulPartitionedCall/sequential_2/hub_keras_layer_v1v2_2/StatefulPartitionedCall/efficientnet-lite0/model/blocks_15/depthwise_conv2d/depthwise_bn_offset"], "attr": {"num_args": {"i": "1"}, "strides": {"list": {"i": ["1", "1", "1", "1"]}}, "data_format": {"s": "TkhXQw=="}, "T": {"type": "DT_FLOAT"}, "dilations": {"list": {"i": ["1", "1", "1", "1"]}}, "explicit_paddings": {"list": {}}, "fused_ops": {"list": {"s": ["Qmlhc0FkZA==", "UmVsdTY="]}}, "padding": {"s": "U0FNRQ=="}}}, {"name": "StatefulPartitionedCall/sequential_2/hub_keras_layer_v1v2_2/StatefulPartitionedCall/efficientnet-lite0/model/blocks_15/tpu_batch_normalization_2/FusedBatchNormV3", "op": "_FusedConv2D", "input": ["StatefulPartitionedCall/sequential_2/hub_keras_layer_v1v2_2/StatefulPartitionedCall/efficientnet-lite0/model/blocks_15/depthwise_conv2d/depthwise", "StatefulPartitionedCall/sequential_2/hub_keras_layer_v1v2_2/StatefulPartitionedCall/efficientnet-lite0/model/blocks_15/conv2d_1/Conv2D_weights", "StatefulPartitionedCall/sequential_2/hub_keras_layer_v1v2_2/StatefulPartitionedCall/efficientnet-lite0/model/blocks_15/conv2d_1/Conv2D_bn_offset"], "device": "/device:CPU:0", "attr": {"padding": {"s": "U0FNRQ=="}, "data_format": {"s": "TkhXQw=="}, "use_cudnn_on_gpu": {"b": true}, "epsilon": {"f": 0.0}, "fused_ops": {"list": {"s": ["Qmlhc0FkZA=="]}}, "dilations": {"list": {"i": ["1", "1", "1", "1"]}}, "explicit_paddings": {"list": {}}, "T": {"type": "DT_FLOAT"}, "strides": {"list": {"i": ["1", "1", "1", "1"]}}, "num_args": {"i": "1"}}}, {"name": "StatefulPartitionedCall/sequential_2/hub_keras_layer_v1v2_2/StatefulPartitionedCall/efficientnet-lite0/model/head/Relu6", "op": "_FusedConv2D", "input": ["StatefulPartitionedCall/sequential_2/hub_keras_layer_v1v2_2/StatefulPartitionedCall/efficientnet-lite0/model/blocks_15/tpu_batch_normalization_2/FusedBatchNormV3", "StatefulPartitionedCall/sequential_2/hub_keras_layer_v1v2_2/StatefulPartitionedCall/efficientnet-lite0/model/head/conv2d/Conv2D_weights", "StatefulPartitionedCall/sequential_2/hub_keras_layer_v1v2_2/StatefulPartitionedCall/efficientnet-lite0/model/head/conv2d/Conv2D_bn_offset"], "device": "/device:CPU:0", "attr": {"fused_ops": {"list": {"s": ["Qmlhc0FkZA==", "UmVsdTY="]}}, "explicit_paddings": {"list": {}}, "data_format": {"s": "TkhXQw=="}, "dilations": {"list": {"i": ["1", "1", "1", "1"]}}, "strides": {"list": {"i": ["1", "1", "1", "1"]}}, "use_cudnn_on_gpu": {"b": true}, "num_args": {"i": "1"}, "T": {"type": "DT_FLOAT"}, "padding": {"s": "U0FNRQ=="}, "epsilon": {"f": 0.0}}}, {"name": "StatefulPartitionedCall/sequential_2/hub_keras_layer_v1v2_2/StatefulPartitionedCall/efficientnet-lite0/model/head/global_average_pooling2d/Mean", "op": "Mean", "input": ["StatefulPartitionedCall/sequential_2/hub_keras_layer_v1v2_2/StatefulPartitionedCall/efficientnet-lite0/model/head/Relu6", "StatefulPartitionedCall/sequential_2/hub_keras_layer_v1v2_2/StatefulPartitionedCall/efficientnet-lite0/model/head/global_average_pooling2d/Mean/reduction_indices"], "attr": {"Tidx": {"type": "DT_INT32"}, "T": {"type": "DT_FLOAT"}, "keep_dims": {"b": false}}}, {"name": "StatefulPartitionedCall/sequential_2/dense_2/BiasAdd", "op": "_FusedMatMul", "input": ["StatefulPartitionedCall/sequential_2/hub_keras_layer_v1v2_2/StatefulPartitionedCall/efficientnet-lite0/model/head/global_average_pooling2d/Mean", "StatefulPartitionedCall/sequential_2/dense_2/MatMul/ReadVariableOp", "StatefulPartitionedCall/sequential_2/dense_2/BiasAdd/ReadVariableOp"], "device": "/device:CPU:0", "attr": {"fused_ops": {"list": {"s": ["Qmlhc0FkZA=="]}}, "num_args": {"i": "1"}, "transpose_a": {"b": false}, "T": {"type": "DT_FLOAT"}, "epsilon": {"f": 0.0}, "transpose_b": {"b": false}}}, {"name": "StatefulPartitionedCall/sequential_2/dense_2/Softmax", "op": "Softmax", "input": ["StatefulPartitionedCall/sequential_2/dense_2/BiasAdd"], "attr": {"T": {"type": "DT_FLOAT"}}}, {"name": "Identity", "op": "Identity", "input": ["StatefulPartitionedCall/sequential_2/dense_2/Softmax"], "attr": {"T": {"type": "DT_FLOAT"}}}], "library": {}, "versions": {"producer": 898}}, "weightsManifest": [{"paths": ["group1-shard1of1.bin"], "weights": [{"name": "StatefulPartitionedCall/sequential_2/dense_2/MatMul/ReadVariableOp", "shape": [1280, 4], "dtype": "float32", "quantization": {"dtype": "uint8", "min": -0.12015817591957018, "scale": 0.0010448537036484363, "original_dtype": "float32"}}, {"name": "StatefulPartitionedCall/sequential_2/dense_2/BiasAdd/ReadVariableOp", "shape": [4], "dtype": "float32", "quantization": {"dtype": "uint8", "min": -0.05923264561330571, "scale": 0.0006581405068145079, "original_dtype": "float32"}}, {"name": "StatefulPartitionedCall/sequential_2/hub_keras_layer_v1v2_2/StatefulPartitionedCall/efficientnet-lite0/model/stem/conv2d/Conv2D_weights", "shape": [3, 3, 3, 32], "dtype": "float32", "quantization": {"dtype": "uint8", "min": -0.13768428423825432, "scale": 0.0010430627593807145, "original_dtype": "float32"}}, {"name": "StatefulPartitionedCall/sequential_2/hub_keras_layer_v1v2_2/StatefulPartitionedCall/efficientnet-lite0/model/stem/conv2d/Conv2D_bn_offset", "shape": [32], "dtype": "float32", "quantization": {"dtype": "uint8", "min": -7.057918552323883, "scale": 0.04251758164050532, "original_dtype": "float32"}}, {"name": "StatefulPartitionedCall/sequential_2/hub_keras_layer_v1v2_2/StatefulPartitionedCall/efficientnet-lite0/model/blocks_0/depthwise_conv2d/depthwise_weights", "shape": [3, 3, 32, 1], "dtype": "float32", "quantization": {"dtype": "uint8", "min": -16.37500134636374, "scale": 0.13313009224685968, "original_dtype": "float32"}}, {"name": "StatefulPartitionedCall/sequential_2/hub_keras_layer_v1v2_2/StatefulPartitionedCall/efficientnet-lite0/model/blocks_0/depthwise_conv2d/depthwise_bn_offset", "shape": [32], "dtype": "float32", "quantization": {"dtype": "uint8", "min": -3.736518587785609, "scale": 0.03852081018335679, "original_dtype": "float32"}}, {"name": "StatefulPartitionedCall/sequential_2/hub_keras_layer_v1v2_2/StatefulPartitionedCall/efficientnet-lite0/model/blocks_0/conv2d/Conv2D_weights", "shape": [1, 1, 32, 16], "dtype": "float32", "quantization": {"dtype": "uint8", "min": -3.7698569952272902, "scale": 0.04712321244034113, "original_dtype": "float32"}}, {"name": "StatefulPartitionedCall/sequential_2/hub_keras_layer_v1v2_2/StatefulPartitionedCall/efficientnet-lite0/model/blocks_13/depthwise_conv2d/depthwise_weights", "shape": [5, 5, 1152, 1], "dtype": "float32", "quantization": {"dtype": "uint8", "min": -4.5634096594417795, "scale": 0.037404997208539174, "original_dtype": "float32"}}, {"name": "StatefulPartitionedCall/sequential_2/hub_keras_layer_v1v2_2/StatefulPartitionedCall/efficientnet-lite0/model/blocks_0/conv2d/Conv2D_bn_offset", "shape": [16], "dtype": "float32", "quantization": {"dtype": "uint8", "min": -45.827698247572954, "scale": 0.2760704713709214, "original_dtype": "float32"}}, {"name": "StatefulPartitionedCall/sequential_2/hub_keras_layer_v1v2_2/StatefulPartitionedCall/efficientnet-lite0/model/blocks_1/conv2d/Conv2D_weights", "shape": [1, 1, 16, 96], "dtype": "float32", "quantization": {"dtype": "uint8", "min": -0.8238123052260454, "scale": 0.007041130813897825, "original_dtype": "float32"}}, {"name": "StatefulPartitionedCall/sequential_2/hub_keras_layer_v1v2_2/StatefulPartitionedCall/efficientnet-lite0/model/blocks_1/conv2d/Conv2D_bn_offset", "shape": [96], "dtype": "float32", "quantization": {"dtype": "uint8", "min": -7.590838600607479, "scale": 0.04628560122321634, "original_dtype": "float32"}}, {"name": "StatefulPartitionedCall/sequential_2/hub_keras_layer_v1v2_2/StatefulPartitionedCall/efficientnet-lite0/model/blocks_13/depthwise_conv2d/depthwise_bn_offset", "shape": [1152], "dtype": "float32", "quantization": {"dtype": "uint8", "min": -5.605952610689052, "scale": 0.037623843024758734, "original_dtype": "float32"}}, {"name": "StatefulPartitionedCall/sequential_2/hub_keras_layer_v1v2_2/StatefulPartitionedCall/efficientnet-lite0/model/blocks_1/depthwise_conv2d/depthwise_weights", "shape": [3, 3, 96, 1], "dtype": "float32", "quantization": {"dtype": "uint8", "min": -4.607913754968083, "scale": 0.032680239396936754, "original_dtype": "float32"}}, {"name": "StatefulPartitionedCall/sequential_2/hub_keras_layer_v1v2_2/StatefulPartitionedCall/efficientnet-lite0/model/blocks_1/depthwise_conv2d/depthwise_bn_offset", "shape": [96], "dtype": "float32", "quantization": {"dtype": "uint8", "min": -4.383228230943867, "scale": 0.04472681868310068, "original_dtype": "float32"}}, {"name": "StatefulPartitionedCall/sequential_2/hub_keras_layer_v1v2_2/StatefulPartitionedCall/efficientnet-lite0/model/blocks_1/conv2d_1/Conv2D_weights", "shape": [1, 1, 96, 24], "dtype": "float32", "quantization": {"dtype": "uint8", "min": -6.669817666446462, "scale": 0.046970546946806066, "original_dtype": "float32"}}, {"name": "StatefulPartitionedCall/sequential_2/hub_keras_layer_v1v2_2/StatefulPartitionedCall/efficientnet-lite0/model/blocks_1/conv2d_1/Conv2D_bn_offset", "shape": [24], "dtype": "float32", "quantization": {"dtype": "uint8", "min": -27.97538999669692, "scale": 0.22027866139131433, "original_dtype": "float32"}}, {"name": "StatefulPartitionedCall/sequential_2/hub_keras_layer_v1v2_2/StatefulPartitionedCall/efficientnet-lite0/model/blocks_2/conv2d/Conv2D_weights", "shape": [1, 1, 24, 144], "dtype": "float32", "quantization": {"dtype": "uint8", "min": -0.2664186296509761, "scale": 0.0020337299973356955, "original_dtype": "float32"}}, {"name": "StatefulPartitionedCall/sequential_2/hub_keras_layer_v1v2_2/StatefulPartitionedCall/efficientnet-lite0/model/blocks_2/conv2d/Conv2D_bn_offset", "shape": [144], "dtype": "float32", "quantization": {"dtype": "uint8", "min": -3.522478567385206, "scale": 0.029851513282925474, "original_dtype": "float32"}}, {"name": "StatefulPartitionedCall/sequential_2/hub_keras_layer_v1v2_2/StatefulPartitionedCall/efficientnet-lite0/model/blocks_13/conv2d_1/Conv2D_weights", "shape": [1, 1, 1152, 192], "dtype": "float32", "quantization": {"dtype": "uint8", "min": -2.385208133622712, "scale": 0.01955088634116977, "original_dtype": "float32"}}, {"name": "StatefulPartitionedCall/sequential_2/hub_keras_layer_v1v2_2/StatefulPartitionedCall/efficientnet-lite0/model/blocks_2/depthwise_conv2d/depthwise_weights", "shape": [3, 3, 144, 1], "dtype": "float32", "quantization": {"dtype": "uint8", "min": -7.105901022518382, "scale": 0.04934653487859988, "original_dtype": "float32"}}, {"name": "StatefulPartitionedCall/sequential_2/hub_keras_layer_v1v2_2/StatefulPartitionedCall/efficientnet-lite0/model/blocks_2/depthwise_conv2d/depthwise_bn_offset", "shape": [144], "dtype": "float32", "quantization": {"dtype": "uint8", "min": -17.963406574024873, "scale": 0.12561822779038373, "original_dtype": "float32"}}, {"name": "StatefulPartitionedCall/sequential_2/hub_keras_layer_v1v2_2/StatefulPartitionedCall/efficientnet-lite0/model/blocks_2/conv2d_1/Conv2D_weights", "shape": [1, 1, 144, 24], "dtype": "float32", "quantization": {"dtype": "uint8", "min": -4.106753573698156, "scale": 0.030420396842208562, "original_dtype": "float32"}}, {"name": "StatefulPartitionedCall/sequential_2/hub_keras_layer_v1v2_2/StatefulPartitionedCall/efficientnet-lite0/model/head/conv2d/Conv2D_weights", "shape": [1, 1, 320, 1280], "dtype": "float32", "quantization": {"dtype": "uint8", "min": -0.34029167680179373, "scale": 0.0027007275936650295, "original_dtype": "float32"}}, {"name": "StatefulPartitionedCall/sequential_2/hub_keras_layer_v1v2_2/StatefulPartitionedCall/efficientnet-lite0/model/blocks_2/conv2d_1/Conv2D_bn_offset", "shape": [24], "dtype": "float32", "quantization": {"dtype": "uint8", "min": -8.591397913764505, "scale": 0.0987517001582127, "original_dtype": "float32"}}, {"name": "StatefulPartitionedCall/sequential_2/hub_keras_layer_v1v2_2/StatefulPartitionedCall/efficientnet-lite0/model/blocks_3/conv2d/Conv2D_weights", "shape": [1, 1, 24, 144], "dtype": "float32", "quantization": {"dtype": "uint8", "min": -0.4249613239484675, "scale": 0.002971757510129143, "original_dtype": "float32"}}, {"name": "StatefulPartitionedCall/sequential_2/hub_keras_layer_v1v2_2/StatefulPartitionedCall/efficientnet-lite0/model/blocks_13/conv2d_1/Conv2D_bn_offset", "shape": [192], "dtype": "float32", "quantization": {"dtype": "uint8", "min": -8.132339529897653, "scale": 0.07460861954034544, "original_dtype": "float32"}}, {"name": "StatefulPartitionedCall/sequential_2/hub_keras_layer_v1v2_2/StatefulPartitionedCall/efficientnet-lite0/model/blocks_3/conv2d/Conv2D_bn_offset", "shape": [144], "dtype": "float32", "quantization": {"dtype": "uint8", "min": -6.986675786037071, "scale": 0.049904827043121935, "original_dtype": "float32"}}, {"name": "StatefulPartitionedCall/sequential_2/hub_keras_layer_v1v2_2/StatefulPartitionedCall/efficientnet-lite0/model/blocks_3/depthwise_conv2d/depthwise_weights", "shape": [5, 5, 144, 1], "dtype": "float32", "quantization": {"dtype": "uint8", "min": -1.8088642802892947, "scale": 0.0126494005614636, "original_dtype": "float32"}}, {"name": "StatefulPartitionedCall/sequential_2/hub_keras_layer_v1v2_2/StatefulPartitionedCall/efficientnet-lite0/model/blocks_3/depthwise_conv2d/depthwise_bn_offset", "shape": [144], "dtype": "float32", "quantization": {"dtype": "uint8", "min": -2.337177553363875, "scale": 0.05311767166736079, "original_dtype": "float32"}}, {"name": "StatefulPartitionedCall/sequential_2/hub_keras_layer_v1v2_2/StatefulPartitionedCall/efficientnet-lite0/model/blocks_3/conv2d_1/Conv2D_weights", "shape": [1, 1, 144, 40], "dtype": "float32", "quantization": {"dtype": "uint8", "min": -2.976297602933996, "scale": 0.025657737956327552, "original_dtype": "float32"}}, {"name": "StatefulPartitionedCall/sequential_2/hub_keras_layer_v1v2_2/StatefulPartitionedCall/efficientnet-lite0/model/blocks_3/conv2d_1/Conv2D_bn_offset", "shape": [40], "dtype": "float32", "quantization": {"dtype": "uint8", "min": -27.842806281295474, "scale": 0.2756713493197572, "original_dtype": "float32"}}, {"name": "StatefulPartitionedCall/sequential_2/hub_keras_layer_v1v2_2/StatefulPartitionedCall/efficientnet-lite0/model/blocks_4/conv2d/Conv2D_weights", "shape": [1, 1, 40, 240], "dtype": "float32", "quantization": {"dtype": "uint8", "min": -0.3501922951025121, "scale": 0.002537625326829798, "original_dtype": "float32"}}, {"name": "StatefulPartitionedCall/sequential_2/hub_keras_layer_v1v2_2/StatefulPartitionedCall/efficientnet-lite0/model/blocks_14/conv2d/Conv2D_weights", "shape": [1, 1, 192, 1152], "dtype": "float32", "quantization": {"dtype": "uint8", "min": -0.11235336299036063, "scale": 0.0009060755079867793, "original_dtype": "float32"}}, {"name": "StatefulPartitionedCall/sequential_2/hub_keras_layer_v1v2_2/StatefulPartitionedCall/efficientnet-lite0/model/blocks_4/conv2d/Conv2D_bn_offset", "shape": [240], "dtype": "float32", "quantization": {"dtype": "uint8", "min": -3.2632473235036814, "scale": 0.030785352108525295, "original_dtype": "float32"}}, {"name": "StatefulPartitionedCall/sequential_2/hub_keras_layer_v1v2_2/StatefulPartitionedCall/efficientnet-lite0/model/blocks_4/depthwise_conv2d/depthwise_weights", "shape": [5, 5, 240, 1], "dtype": "float32", "quantization": {"dtype": "uint8", "min": -3.7093269722134457, "scale": 0.03785027522666781, "original_dtype": "float32"}}, {"name": "StatefulPartitionedCall/sequential_2/hub_keras_layer_v1v2_2/StatefulPartitionedCall/efficientnet-lite0/model/blocks_4/depthwise_conv2d/depthwise_bn_offset", "shape": [240], "dtype": "float32", "quantization": {"dtype": "uint8", "min": -8.390440464019775, "scale": 0.054839480156992, "original_dtype": "float32"}}, {"name": "StatefulPartitionedCall/sequential_2/hub_keras_layer_v1v2_2/StatefulPartitionedCall/efficientnet-lite0/model/blocks_4/conv2d_1/Conv2D_weights", "shape": [1, 1, 240, 40], "dtype": "float32", "quantization": {"dtype": "uint8", "min": -2.9112672123254515, "scale": 0.018425741850161086, "original_dtype": "float32"}}, {"name": "StatefulPartitionedCall/sequential_2/hub_keras_layer_v1v2_2/StatefulPartitionedCall/efficientnet-lite0/model/blocks_14/conv2d/Conv2D_bn_offset", "shape": [1152], "dtype": "float32", "quantization": {"dtype": "uint8", "min": -2.534048938751221, "scale": 0.016562411364387065, "original_dtype": "float32"}}, {"name": "StatefulPartitionedCall/sequential_2/hub_keras_layer_v1v2_2/StatefulPartitionedCall/efficientnet-lite0/model/blocks_4/conv2d_1/Conv2D_bn_offset", "shape": [40], "dtype": "float32", "quantization": {"dtype": "uint8", "min": -6.343097249199363, "scale": 0.06280294306137983, "original_dtype": "float32"}}, {"name": "StatefulPartitionedCall/sequential_2/hub_keras_layer_v1v2_2/StatefulPartitionedCall/efficientnet-lite0/model/blocks_5/conv2d/Conv2D_weights", "shape": [1, 1, 40, 240], "dtype": "float32", "quantization": {"dtype": "uint8", "min": -0.1737528957572638, "scale": 0.0012966634011736104, "original_dtype": "float32"}}, {"name": "StatefulPartitionedCall/sequential_2/hub_keras_layer_v1v2_2/StatefulPartitionedCall/efficientnet-lite0/model/head/conv2d/Conv2D_bn_offset", "shape": [1280], "dtype": "float32", "quantization": {"dtype": "uint8", "min": -6.1741251945495605, "scale": 0.01634667807934331, "original_dtype": "float32"}}, {"name": "StatefulPartitionedCall/sequential_2/hub_keras_layer_v1v2_2/StatefulPartitionedCall/efficientnet-lite0/model/blocks_5/conv2d/Conv2D_bn_offset", "shape": [240], "dtype": "float32", "quantization": {"dtype": "uint8", "min": -4.0231022554285385, "scale": 0.03657365686753217, "original_dtype": "float32"}}, {"name": "StatefulPartitionedCall/sequential_2/hub_keras_layer_v1v2_2/StatefulPartitionedCall/efficientnet-lite0/model/blocks_5/depthwise_conv2d/depthwise_weights", "shape": [3, 3, 240, 1], "dtype": "float32", "quantization": {"dtype": "uint8", "min": -2.092087931726493, "scale": 0.014329369395386938, "original_dtype": "float32"}}, {"name": "StatefulPartitionedCall/sequential_2/hub_keras_layer_v1v2_2/StatefulPartitionedCall/efficientnet-lite0/model/blocks_5/depthwise_conv2d/depthwise_bn_offset", "shape": [240], "dtype": "float32", "quantization": {"dtype": "uint8", "min": -1.9906090287601246, "scale": 0.033176817146002076, "original_dtype": "float32"}}, {"name": "StatefulPartitionedCall/sequential_2/hub_keras_layer_v1v2_2/StatefulPartitionedCall/efficientnet-lite0/model/blocks_5/conv2d_1/Conv2D_weights", "shape": [1, 1, 240, 80], "dtype": "float32", "quantization": {"dtype": "uint8", "min": -2.2875577141256893, "scale": 0.019891806209788605, "original_dtype": "float32"}}, {"name": "StatefulPartitionedCall/sequential_2/hub_keras_layer_v1v2_2/StatefulPartitionedCall/efficientnet-lite0/model/blocks_14/depthwise_conv2d/depthwise_weights", "shape": [5, 5, 1152, 1], "dtype": "float32", "quantization": {"dtype": "uint8", "min": -6.78994639153574, "scale": 0.040903291515275546, "original_dtype": "float32"}}, {"name": "StatefulPartitionedCall/sequential_2/hub_keras_layer_v1v2_2/StatefulPartitionedCall/efficientnet-lite0/model/blocks_5/conv2d_1/Conv2D_bn_offset", "shape": [80], "dtype": "float32", "quantization": {"dtype": "uint8", "min": -25.376956625545727, "scale": 0.20465287601246554, "original_dtype": "float32"}}, {"name": "StatefulPartitionedCall/sequential_2/hub_keras_layer_v1v2_2/StatefulPartitionedCall/efficientnet-lite0/model/blocks_6/conv2d/Conv2D_weights", "shape": [1, 1, 80, 480], "dtype": "float32", "quantization": {"dtype": "uint8", "min": -0.14779547756793454, "scale": 0.0014211103612301397, "original_dtype": "float32"}}, {"name": "StatefulPartitionedCall/sequential_2/hub_keras_layer_v1v2_2/StatefulPartitionedCall/efficientnet-lite0/model/blocks_6/conv2d/Conv2D_bn_offset", "shape": [480], "dtype": "float32", "quantization": {"dtype": "uint8", "min": -3.7259285094691257, "scale": 0.02844220236235974, "original_dtype": "float32"}}, {"name": "StatefulPartitionedCall/sequential_2/hub_keras_layer_v1v2_2/StatefulPartitionedCall/efficientnet-lite0/model/blocks_14/depthwise_conv2d/depthwise_bn_offset", "shape": [1152], "dtype": "float32", "quantization": {"dtype": "uint8", "min": -5.118718495088466, "scale": 0.03505971571978401, "original_dtype": "float32"}}, {"name": "StatefulPartitionedCall/sequential_2/hub_keras_layer_v1v2_2/StatefulPartitionedCall/efficientnet-lite0/model/blocks_6/depthwise_conv2d/depthwise_weights", "shape": [3, 3, 480, 1], "dtype": "float32", "quantization": {"dtype": "uint8", "min": -6.473057084925035, "scale": 0.05220207326552447, "original_dtype": "float32"}}, {"name": "StatefulPartitionedCall/sequential_2/hub_keras_layer_v1v2_2/StatefulPartitionedCall/efficientnet-lite0/model/blocks_6/depthwise_conv2d/depthwise_bn_offset", "shape": [480], "dtype": "float32", "quantization": {"dtype": "uint8", "min": -11.781247067918965, "scale": 0.08069347306793812, "original_dtype": "float32"}}, {"name": "StatefulPartitionedCall/sequential_2/hub_keras_layer_v1v2_2/StatefulPartitionedCall/efficientnet-lite0/model/blocks_6/conv2d_1/Conv2D_weights", "shape": [1, 1, 480, 80], "dtype": "float32", "quantization": {"dtype": "uint8", "min": -2.6651496270123647, "scale": 0.0211519811667648, "original_dtype": "float32"}}, {"name": "StatefulPartitionedCall/sequential_2/hub_keras_layer_v1v2_2/StatefulPartitionedCall/efficientnet-lite0/model/blocks_6/conv2d_1/Conv2D_bn_offset", "shape": [80], "dtype": "float32", "quantization": {"dtype": "uint8", "min": -6.809534588982077, "scale": 0.06305124619427849, "original_dtype": "float32"}}, {"name": "StatefulPartitionedCall/sequential_2/hub_keras_layer_v1v2_2/StatefulPartitionedCall/efficientnet-lite0/model/blocks_7/conv2d/Conv2D_weights", "shape": [1, 1, 80, 480], "dtype": "float32", "quantization": {"dtype": "uint8", "min": -0.1837483402560739, "scale": 0.0014244057384191775, "original_dtype": "float32"}}, {"name": "StatefulPartitionedCall/sequential_2/hub_keras_layer_v1v2_2/StatefulPartitionedCall/efficientnet-lite0/model/blocks_7/conv2d/Conv2D_bn_offset", "shape": [480], "dtype": "float32", "quantization": {"dtype": "uint8", "min": -2.800753154006659, "scale": 0.022956993065628352, "original_dtype": "float32"}}, {"name": "StatefulPartitionedCall/sequential_2/hub_keras_layer_v1v2_2/StatefulPartitionedCall/efficientnet-lite0/model/blocks_14/conv2d_1/Conv2D_weights", "shape": [1, 1, 1152, 192], "dtype": "float32", "quantization": {"dtype": "uint8", "min": -2.3235926815107755, "scale": 0.02192068567462996, "original_dtype": "float32"}}, {"name": "StatefulPartitionedCall/sequential_2/hub_keras_layer_v1v2_2/StatefulPartitionedCall/efficientnet-lite0/model/blocks_7/depthwise_conv2d/depthwise_weights", "shape": [3, 3, 480, 1], "dtype": "float32", "quantization": {"dtype": "uint8", "min": -21.178968235090668, "scale": 0.09990079356174843, "original_dtype": "float32"}}, {"name": "StatefulPartitionedCall/sequential_2/hub_keras_layer_v1v2_2/StatefulPartitionedCall/efficientnet-lite0/model/blocks_7/depthwise_conv2d/depthwise_bn_offset", "shape": [480], "dtype": "float32", "quantization": {"dtype": "uint8", "min": -9.933818607704312, "scale": 0.06995646906834023, "original_dtype": "float32"}}, {"name": "StatefulPartitionedCall/sequential_2/hub_keras_layer_v1v2_2/StatefulPartitionedCall/efficientnet-lite0/model/blocks_7/conv2d_1/Conv2D_weights", "shape": [1, 1, 480, 80], "dtype": "float32", "quantization": {"dtype": "uint8", "min": -2.1024994513567754, "scale": 0.018442977643480487, "original_dtype": "float32"}}, {"name": "StatefulPartitionedCall/sequential_2/hub_keras_layer_v1v2_2/StatefulPartitionedCall/efficientnet-lite0/model/blocks_7/conv2d_1/Conv2D_bn_offset", "shape": [80], "dtype": "float32", "quantization": {"dtype": "uint8", "min": -6.69153299331665, "scale": 0.05187234878540039, "original_dtype": "float32"}}, {"name": "StatefulPartitionedCall/sequential_2/hub_keras_layer_v1v2_2/StatefulPartitionedCall/efficientnet-lite0/model/blocks_8/conv2d/Conv2D_weights", "shape": [1, 1, 80, 480], "dtype": "float32", "quantization": {"dtype": "uint8", "min": -0.2543756902217865, "scale": 0.0021376108421998865, "original_dtype": "float32"}}, {"name": "StatefulPartitionedCall/sequential_2/hub_keras_layer_v1v2_2/StatefulPartitionedCall/efficientnet-lite0/model/blocks_14/conv2d_1/Conv2D_bn_offset", "shape": [192], "dtype": "float32", "quantization": {"dtype": "uint8", "min": -15.726490488239364, "scale": 0.13675209120208143, "original_dtype": "float32"}}, {"name": "StatefulPartitionedCall/sequential_2/hub_keras_layer_v1v2_2/StatefulPartitionedCall/efficientnet-lite0/model/blocks_8/conv2d/Conv2D_bn_offset", "shape": [480], "dtype": "float32", "quantization": {"dtype": "uint8", "min": -2.601487553353403, "scale": 0.03134322353437835, "original_dtype": "float32"}}, {"name": "StatefulPartitionedCall/sequential_2/hub_keras_layer_v1v2_2/StatefulPartitionedCall/efficientnet-lite0/model/blocks_8/depthwise_conv2d/depthwise_weights", "shape": [5, 5, 480, 1], "dtype": "float32", "quantization": {"dtype": "uint8", "min": -6.222038269042969, "scale": 0.03840764363606771, "original_dtype": "float32"}}, {"name": "StatefulPartitionedCall/sequential_2/hub_keras_layer_v1v2_2/StatefulPartitionedCall/efficientnet-lite0/model/blocks_8/depthwise_conv2d/depthwise_bn_offset", "shape": [480], "dtype": "float32", "quantization": {"dtype": "uint8", "min": -4.905116889056037, "scale": 0.043027341132070504, "original_dtype": "float32"}}, {"name": "StatefulPartitionedCall/sequential_2/hub_keras_layer_v1v2_2/StatefulPartitionedCall/efficientnet-lite0/model/blocks_8/conv2d_1/Conv2D_weights", "shape": [1, 1, 480, 112], "dtype": "float32", "quantization": {"dtype": "uint8", "min": -2.183951390490812, "scale": 0.01594125102548038, "original_dtype": "float32"}}, {"name": "StatefulPartitionedCall/sequential_2/hub_keras_layer_v1v2_2/StatefulPartitionedCall/efficientnet-lite0/model/blocks_8/conv2d_1/Conv2D_bn_offset", "shape": [112], "dtype": "float32", "quantization": {"dtype": "uint8", "min": -28.547646152271945, "scale": 0.20686700110341988, "original_dtype": "float32"}}, {"name": "StatefulPartitionedCall/sequential_2/hub_keras_layer_v1v2_2/StatefulPartitionedCall/efficientnet-lite0/model/blocks_9/conv2d/Conv2D_weights", "shape": [1, 1, 112, 672], "dtype": "float32", "quantization": {"dtype": "uint8", "min": -0.18900113281081704, "scale": 0.0014651250605489693, "original_dtype": "float32"}}, {"name": "StatefulPartitionedCall/sequential_2/hub_keras_layer_v1v2_2/StatefulPartitionedCall/efficientnet-lite0/model/blocks_15/conv2d/Conv2D_weights", "shape": [1, 1, 192, 1152], "dtype": "float32", "quantization": {"dtype": "uint8", "min": -0.21569463856079998, "scale": 0.0016340502921272726, "original_dtype": "float32"}}, {"name": "StatefulPartitionedCall/sequential_2/hub_keras_layer_v1v2_2/StatefulPartitionedCall/efficientnet-lite0/model/blocks_9/conv2d/Conv2D_bn_offset", "shape": [672], "dtype": "float32", "quantization": {"dtype": "uint8", "min": -4.133100051505893, "scale": 0.026158861085480333, "original_dtype": "float32"}}, {"name": "StatefulPartitionedCall/sequential_2/hub_keras_layer_v1v2_2/StatefulPartitionedCall/efficientnet-lite0/model/blocks_9/depthwise_conv2d/depthwise_weights", "shape": [5, 5, 672, 1], "dtype": "float32", "quantization": {"dtype": "uint8", "min": -4.434283275230259, "scale": 0.03167345196593042, "original_dtype": "float32"}}, {"name": "StatefulPartitionedCall/sequential_2/hub_keras_layer_v1v2_2/StatefulPartitionedCall/efficientnet-lite0/model/blocks_9/depthwise_conv2d/depthwise_bn_offset", "shape": [672], "dtype": "float32", "quantization": {"dtype": "uint8", "min": -5.95544600019268, "scale": 0.06076985714482326, "original_dtype": "float32"}}, {"name": "StatefulPartitionedCall/sequential_2/hub_keras_layer_v1v2_2/StatefulPartitionedCall/efficientnet-lite0/model/blocks_9/conv2d_1/Conv2D_weights", "shape": [1, 1, 672, 112], "dtype": "float32", "quantization": {"dtype": "uint8", "min": -1.6023223091574275, "scale": 0.011695783278521369, "original_dtype": "float32"}}, {"name": "StatefulPartitionedCall/sequential_2/hub_keras_layer_v1v2_2/StatefulPartitionedCall/efficientnet-lite0/model/blocks_15/conv2d/Conv2D_bn_offset", "shape": [1152], "dtype": "float32", "quantization": {"dtype": "uint8", "min": -2.3591238769830443, "scale": 0.019496891545314414, "original_dtype": "float32"}}, {"name": "StatefulPartitionedCall/sequential_2/hub_keras_layer_v1v2_2/StatefulPartitionedCall/efficientnet-lite0/model/blocks_9/conv2d_1/Conv2D_bn_offset", "shape": [112], "dtype": "float32", "quantization": {"dtype": "uint8", "min": -8.830320560230929, "scale": 0.06953008315142463, "original_dtype": "float32"}}, {"name": "StatefulPartitionedCall/sequential_2/hub_keras_layer_v1v2_2/StatefulPartitionedCall/efficientnet-lite0/model/blocks_10/conv2d/Conv2D_weights", "shape": [1, 1, 112, 672], "dtype": "float32", "quantization": {"dtype": "uint8", "min": -0.13734135347254137, "scale": 0.0010729793240042294, "original_dtype": "float32"}}, {"name": "StatefulPartitionedCall/sequential_2/hub_keras_layer_v1v2_2/StatefulPartitionedCall/efficientnet-lite0/model/blocks_10/conv2d/Conv2D_bn_offset", "shape": [672], "dtype": "float32", "quantization": {"dtype": "uint8", "min": -2.8301472084195005, "scale": 0.022284623688342525, "original_dtype": "float32"}}, {"name": "StatefulPartitionedCall/sequential_2/hub_keras_layer_v1v2_2/StatefulPartitionedCall/efficientnet-lite0/model/blocks_10/depthwise_conv2d/depthwise_weights", "shape": [5, 5, 672, 1], "dtype": "float32", "quantization": {"dtype": "uint8", "min": -5.559003368078493, "scale": 0.0345279712303012, "original_dtype": "float32"}}, {"name": "StatefulPartitionedCall/sequential_2/hub_keras_layer_v1v2_2/StatefulPartitionedCall/efficientnet-lite0/model/blocks_10/depthwise_conv2d/depthwise_bn_offset", "shape": [672], "dtype": "float32", "quantization": {"dtype": "uint8", "min": -6.054241595548742, "scale": 0.04621558469884536, "original_dtype": "float32"}}, {"name": "StatefulPartitionedCall/sequential_2/hub_keras_layer_v1v2_2/StatefulPartitionedCall/efficientnet-lite0/model/blocks_10/conv2d_1/Conv2D_weights", "shape": [1, 1, 672, 112], "dtype": "float32", "quantization": {"dtype": "uint8", "min": -1.9780796457739438, "scale": 0.013832724795621984, "original_dtype": "float32"}}, {"name": "StatefulPartitionedCall/sequential_2/hub_keras_layer_v1v2_2/StatefulPartitionedCall/efficientnet-lite0/model/blocks_15/depthwise_conv2d/depthwise_weights", "shape": [3, 3, 1152, 1], "dtype": "float32", "quantization": {"dtype": "uint8", "min": -8.632929776696598, "scale": 0.044730206096873566, "original_dtype": "float32"}}, {"name": "StatefulPartitionedCall/sequential_2/hub_keras_layer_v1v2_2/StatefulPartitionedCall/efficientnet-lite0/model/blocks_10/conv2d_1/Conv2D_bn_offset", "shape": [112], "dtype": "float32", "quantization": {"dtype": "uint8", "min": -20.078782631369197, "scale": 0.12095652187571806, "original_dtype": "float32"}}, {"name": "StatefulPartitionedCall/sequential_2/hub_keras_layer_v1v2_2/StatefulPartitionedCall/efficientnet-lite0/model/blocks_11/conv2d/Conv2D_weights", "shape": [1, 1, 112, 672], "dtype": "float32", "quantization": {"dtype": "uint8", "min": -0.2761661080168743, "scale": 0.001781716825915318, "original_dtype": "float32"}}, {"name": "StatefulPartitionedCall/sequential_2/hub_keras_layer_v1v2_2/StatefulPartitionedCall/efficientnet-lite0/model/blocks_11/conv2d/Conv2D_bn_offset", "shape": [672], "dtype": "float32", "quantization": {"dtype": "uint8", "min": -3.227133087083405, "scale": 0.029337573518940046, "original_dtype": "float32"}}, {"name": "StatefulPartitionedCall/sequential_2/hub_keras_layer_v1v2_2/StatefulPartitionedCall/efficientnet-lite0/model/blocks_15/depthwise_conv2d/depthwise_bn_offset", "shape": [1152], "dtype": "float32", "quantization": {"dtype": "uint8", "min": -7.592521489835254, "scale": 0.048984009611840344, "original_dtype": "float32"}}, {"name": "StatefulPartitionedCall/sequential_2/hub_keras_layer_v1v2_2/StatefulPartitionedCall/efficientnet-lite0/model/blocks_11/depthwise_conv2d/depthwise_weights", "shape": [5, 5, 672, 1], "dtype": "float32", "quantization": {"dtype": "uint8", "min": -0.9430645143284516, "scale": 0.00898156680312811, "original_dtype": "float32"}}, {"name": "StatefulPartitionedCall/sequential_2/hub_keras_layer_v1v2_2/StatefulPartitionedCall/efficientnet-lite0/model/blocks_11/depthwise_conv2d/depthwise_bn_offset", "shape": [672], "dtype": "float32", "quantization": {"dtype": "uint8", "min": -5.062716876759248, "scale": 0.04149767931769876, "original_dtype": "float32"}}, {"name": "StatefulPartitionedCall/sequential_2/hub_keras_layer_v1v2_2/StatefulPartitionedCall/efficientnet-lite0/model/blocks_11/conv2d_1/Conv2D_weights", "shape": [1, 1, 672, 192], "dtype": "float32", "quantization": {"dtype": "uint8", "min": -1.3585097743015662, "scale": 0.010450075186935125, "original_dtype": "float32"}}, {"name": "StatefulPartitionedCall/sequential_2/hub_keras_layer_v1v2_2/StatefulPartitionedCall/efficientnet-lite0/model/blocks_11/conv2d_1/Conv2D_bn_offset", "shape": [192], "dtype": "float32", "quantization": {"dtype": "uint8", "min": -23.203452914368874, "scale": 0.17848809934129903, "original_dtype": "float32"}}, {"name": "StatefulPartitionedCall/sequential_2/hub_keras_layer_v1v2_2/StatefulPartitionedCall/efficientnet-lite0/model/blocks_12/conv2d/Conv2D_weights", "shape": [1, 1, 192, 1152], "dtype": "float32", "quantization": {"dtype": "uint8", "min": -0.23245160077132432, "scale": 0.0016031144880780987, "original_dtype": "float32"}}, {"name": "StatefulPartitionedCall/sequential_2/hub_keras_layer_v1v2_2/StatefulPartitionedCall/efficientnet-lite0/model/blocks_12/conv2d/Conv2D_bn_offset", "shape": [1152], "dtype": "float32", "quantization": {"dtype": "uint8", "min": -3.1957907620598287, "scale": 0.021593180824728574, "original_dtype": "float32"}}, {"name": "StatefulPartitionedCall/sequential_2/hub_keras_layer_v1v2_2/StatefulPartitionedCall/efficientnet-lite0/model/blocks_15/conv2d_1/Conv2D_weights", "shape": [1, 1, 1152, 320], "dtype": "float32", "quantization": {"dtype": "uint8", "min": -0.8167286199681899, "scale": 0.006806071833068249, "original_dtype": "float32"}}, {"name": "StatefulPartitionedCall/sequential_2/hub_keras_layer_v1v2_2/StatefulPartitionedCall/efficientnet-lite0/model/blocks_12/depthwise_conv2d/depthwise_weights", "shape": [5, 5, 1152, 1], "dtype": "float32", "quantization": {"dtype": "uint8", "min": -6.18130366007487, "scale": 0.036360609765146296, "original_dtype": "float32"}}, {"name": "StatefulPartitionedCall/sequential_2/hub_keras_layer_v1v2_2/StatefulPartitionedCall/efficientnet-lite0/model/blocks_12/depthwise_conv2d/depthwise_bn_offset", "shape": [1152], "dtype": "float32", "quantization": {"dtype": "uint8", "min": -5.2149282904232255, "scale": 0.04534720252541935, "original_dtype": "float32"}}, {"name": "StatefulPartitionedCall/sequential_2/hub_keras_layer_v1v2_2/StatefulPartitionedCall/efficientnet-lite0/model/blocks_12/conv2d_1/Conv2D_weights", "shape": [1, 1, 1152, 192], "dtype": "float32", "quantization": {"dtype": "uint8", "min": -1.2240242116591509, "scale": 0.010737054488238166, "original_dtype": "float32"}}, {"name": "StatefulPartitionedCall/sequential_2/hub_keras_layer_v1v2_2/StatefulPartitionedCall/efficientnet-lite0/model/blocks_12/conv2d_1/Conv2D_bn_offset", "shape": [192], "dtype": "float32", "quantization": {"dtype": "uint8", "min": -7.03802557552562, "scale": 0.06516690347708907, "original_dtype": "float32"}}, {"name": "StatefulPartitionedCall/sequential_2/hub_keras_layer_v1v2_2/StatefulPartitionedCall/efficientnet-lite0/model/blocks_13/conv2d/Conv2D_weights", "shape": [1, 1, 192, 1152], "dtype": "float32", "quantization": {"dtype": "uint8", "min": -0.14402097860972088, "scale": 0.0010589777838950064, "original_dtype": "float32"}}, {"name": "StatefulPartitionedCall/sequential_2/hub_keras_layer_v1v2_2/StatefulPartitionedCall/efficientnet-lite0/model/blocks_15/conv2d_1/Conv2D_bn_offset", "shape": [320], "dtype": "float32", "quantization": {"dtype": "uint8", "min": -14.726547046736174, "scale": 0.14297618491976868, "original_dtype": "float32"}}, {"name": "StatefulPartitionedCall/sequential_2/hub_keras_layer_v1v2_2/StatefulPartitionedCall/efficientnet-lite0/model/blocks_13/conv2d/Conv2D_bn_offset", "shape": [1152], "dtype": "float32", "quantization": {"dtype": "uint8", "min": -2.5074418311025584, "scale": 0.018039149864047182, "original_dtype": "float32"}}, {"name": "StatefulPartitionedCall/sequential_2/hub_keras_layer_v1v2_2/StatefulPartitionedCall/Const", "shape": [], "dtype": "float32", "quantization": {"dtype": "uint8", "min": 255.0, "scale": 1.0, "original_dtype": "float32"}}, {"name": "StatefulPartitionedCall/sequential_2/hub_keras_layer_v1v2_2/StatefulPartitionedCall/Const_1", "shape": [], "dtype": "float32", "quantization": {"dtype": "uint8", "min": -127.0, "scale": 1.0, "original_dtype": "float32"}}, {"name": "StatefulPartitionedCall/sequential_2/hub_keras_layer_v1v2_2/StatefulPartitionedCall/efficientnet-lite0/model/head/global_average_pooling2d/Mean/reduction_indices", "shape": [2], "dtype": "int32"}]}]}