{"format": "graph-model", "generatedBy": "2.6.0", "convertedBy": "TensorFlow.js Converter v3.11.0", "signature": {"inputs": {"input_3": {"name": "input_3:0", "dtype": "DT_FLOAT", "tensorShape": {"dim": [{"size": "-1"}, {"size": "224"}, {"size": "224"}, {"size": "3"}]}}}, "outputs": {"dense_2": {"name": "Identity:0", "dtype": "DT_FLOAT", "tensorShape": {"dim": [{"size": "-1"}, {"size": "4"}]}}}}, "modelTopology": {"node": [{"name": "StatefulPartitionedCall/sequential_2/dense_2/MatMul/ReadVariableOp", "op": "Const", "attr": {"dtype": {"type": "DT_FLOAT"}, "value": {"tensor": {"dtype": "DT_FLOAT", "tensorShape": {"dim": [{"size": "1280"}, {"size": "4"}]}}}}}, {"name": "StatefulPartitionedCall/sequential_2/dense_2/BiasAdd/ReadVariableOp", "op": "Const", "attr": {"value": {"tensor": {"dtype": "DT_FLOAT", "tensorShape": {"dim": [{"size": "4"}]}}}, "dtype": {"type": "DT_FLOAT"}}}, {"name": "input_3", "op": "Placeholder", "attr": {"dtype": {"type": "DT_FLOAT"}, "shape": {"shape": {"dim": [{"size": "-1"}, {"size": "224"}, {"size": "224"}, {"size": "3"}]}}}}, {"name": "StatefulPartitionedCall/sequential_2/hub_keras_layer_v1v2_2/StatefulPartitionedCall/efficientnet-lite0/model/stem/conv2d/Conv2D_weights", "op": "Const", "attr": {"value": {"tensor": {"dtype": "DT_FLOAT", "tensorShape": {"dim": [{"size": "3"}, {"size": "3"}, {"size": "3"}, {"size": "32"}]}}}, "dtype": {"type": "DT_FLOAT"}}}, {"name": "StatefulPartitionedCall/sequential_2/hub_keras_layer_v1v2_2/StatefulPartitionedCall/efficientnet-lite0/model/stem/conv2d/Conv2D_bn_offset", "op": "Const", "attr": {"dtype": {"type": "DT_FLOAT"}, "value": {"tensor": {"dtype": "DT_FLOAT", "tensorShape": {"dim": [{"size": "32"}]}}}}}, {"name": "StatefulPartitionedCall/sequential_2/hub_keras_layer_v1v2_2/StatefulPartitionedCall/efficientnet-lite0/model/blocks_0/depthwise_conv2d/depthwise_weights", "op": "Const", "attr": {"dtype": {"type": "DT_FLOAT"}, "value": {"tensor": {"dtype": "DT_FLOAT", "tensorShape": {"dim": [{"size": "3"}, {"size": "3"}, {"size": "32"}, {"size": "1"}]}}}}}, {"name": "StatefulPartitionedCall/sequential_2/hub_keras_layer_v1v2_2/StatefulPartitionedCall/efficientnet-lite0/model/blocks_0/depthwise_conv2d/depthwise_bn_offset", "op": "Const", "attr": {"dtype": {"type": "DT_FLOAT"}, "value": {"tensor": {"dtype": "DT_FLOAT", "tensorShape": {"dim": [{"size": "32"}]}}}}}, {"name": "StatefulPartitionedCall/sequential_2/hub_keras_layer_v1v2_2/StatefulPartitionedCall/efficientnet-lite0/model/blocks_0/conv2d/Conv2D_weights", "op": "Const", "attr": {"value": {"tensor": {"dtype": "DT_FLOAT", "tensorShape": {"dim": [{"size": "1"}, {"size": "1"}, {"size": "32"}, {"size": "16"}]}}}, "dtype": {"type": "DT_FLOAT"}}}, {"name": "StatefulPartitionedCall/sequential_2/hub_keras_layer_v1v2_2/StatefulPartitionedCall/efficientnet-lite0/model/blocks_13/depthwise_conv2d/depthwise_weights", "op": "Const", "attr": {"value": {"tensor": {"dtype": "DT_FLOAT", "tensorShape": {"dim": [{"size": "5"}, {"size": "5"}, {"size": "1152"}, {"size": "1"}]}}}, "dtype": {"type": "DT_FLOAT"}}}, {"name": "StatefulPartitionedCall/sequential_2/hub_keras_layer_v1v2_2/StatefulPartitionedCall/efficientnet-lite0/model/blocks_0/conv2d/Conv2D_bn_offset", "op": "Const", "attr": {"value": {"tensor": {"dtype": "DT_FLOAT", "tensorShape": {"dim": [{"size": "16"}]}}}, "dtype": {"type": "DT_FLOAT"}}}, {"name": "StatefulPartitionedCall/sequential_2/hub_keras_layer_v1v2_2/StatefulPartitionedCall/efficientnet-lite0/model/blocks_1/conv2d/Conv2D_weights", "op": "Const", "attr": {"dtype": {"type": "DT_FLOAT"}, "value": {"tensor": {"dtype": "DT_FLOAT", "tensorShape": {"dim": [{"size": "1"}, {"size": "1"}, {"size": "16"}, {"size": "96"}]}}}}}, {"name": "StatefulPartitionedCall/sequential_2/hub_keras_layer_v1v2_2/StatefulPartitionedCall/efficientnet-lite0/model/blocks_1/conv2d/Conv2D_bn_offset", "op": "Const", "attr": {"value": {"tensor": {"dtype": "DT_FLOAT", "tensorShape": {"dim": [{"size": "96"}]}}}, "dtype": {"type": "DT_FLOAT"}}}, {"name": "StatefulPartitionedCall/sequential_2/hub_keras_layer_v1v2_2/StatefulPartitionedCall/efficientnet-lite0/model/blocks_13/depthwise_conv2d/depthwise_bn_offset", "op": "Const", "attr": {"dtype": {"type": "DT_FLOAT"}, "value": {"tensor": {"dtype": "DT_FLOAT", "tensorShape": {"dim": [{"size": "1152"}]}}}}}, {"name": "StatefulPartitionedCall/sequential_2/hub_keras_layer_v1v2_2/StatefulPartitionedCall/efficientnet-lite0/model/blocks_1/depthwise_conv2d/depthwise_weights", "op": "Const", "attr": {"dtype": {"type": "DT_FLOAT"}, "value": {"tensor": {"dtype": "DT_FLOAT", "tensorShape": {"dim": [{"size": "3"}, {"size": "3"}, {"size": "96"}, {"size": "1"}]}}}}}, {"name": "StatefulPartitionedCall/sequential_2/hub_keras_layer_v1v2_2/StatefulPartitionedCall/efficientnet-lite0/model/blocks_1/depthwise_conv2d/depthwise_bn_offset", "op": "Const", "attr": {"dtype": {"type": "DT_FLOAT"}, "value": {"tensor": {"dtype": "DT_FLOAT", "tensorShape": {"dim": [{"size": "96"}]}}}}}, {"name": "StatefulPartitionedCall/sequential_2/hub_keras_layer_v1v2_2/StatefulPartitionedCall/efficientnet-lite0/model/blocks_1/conv2d_1/Conv2D_weights", "op": "Const", "attr": {"value": {"tensor": {"dtype": "DT_FLOAT", "tensorShape": {"dim": [{"size": "1"}, {"size": "1"}, {"size": "96"}, {"size": "24"}]}}}, "dtype": {"type": "DT_FLOAT"}}}, {"name": "StatefulPartitionedCall/sequential_2/hub_keras_layer_v1v2_2/StatefulPartitionedCall/efficientnet-lite0/model/blocks_1/conv2d_1/Conv2D_bn_offset", "op": "Const", "attr": {"value": {"tensor": {"dtype": "DT_FLOAT", "tensorShape": {"dim": [{"size": "24"}]}}}, "dtype": {"type": "DT_FLOAT"}}}, {"name": "StatefulPartitionedCall/sequential_2/hub_keras_layer_v1v2_2/StatefulPartitionedCall/efficientnet-lite0/model/blocks_2/conv2d/Conv2D_weights", "op": "Const", "attr": {"value": {"tensor": {"dtype": "DT_FLOAT", "tensorShape": {"dim": [{"size": "1"}, {"size": "1"}, {"size": "24"}, {"size": "144"}]}}}, "dtype": {"type": "DT_FLOAT"}}}, {"name": "StatefulPartitionedCall/sequential_2/hub_keras_layer_v1v2_2/StatefulPartitionedCall/efficientnet-lite0/model/blocks_2/conv2d/Conv2D_bn_offset", "op": "Const", "attr": {"value": {"tensor": {"dtype": "DT_FLOAT", "tensorShape": {"dim": [{"size": "144"}]}}}, "dtype": {"type": "DT_FLOAT"}}}, {"name": "StatefulPartitionedCall/sequential_2/hub_keras_layer_v1v2_2/StatefulPartitionedCall/efficientnet-lite0/model/blocks_13/conv2d_1/Conv2D_weights", "op": "Const", "attr": {"value": {"tensor": {"dtype": "DT_FLOAT", "tensorShape": {"dim": [{"size": "1"}, {"size": "1"}, {"size": "1152"}, {"size": "192"}]}}}, "dtype": {"type": "DT_FLOAT"}}}, {"name": "StatefulPartitionedCall/sequential_2/hub_keras_layer_v1v2_2/StatefulPartitionedCall/efficientnet-lite0/model/blocks_2/depthwise_conv2d/depthwise_weights", "op": "Const", "attr": {"value": {"tensor": {"dtype": "DT_FLOAT", "tensorShape": {"dim": [{"size": "3"}, {"size": "3"}, {"size": "144"}, {"size": "1"}]}}}, "dtype": {"type": "DT_FLOAT"}}}, {"name": "StatefulPartitionedCall/sequential_2/hub_keras_layer_v1v2_2/StatefulPartitionedCall/efficientnet-lite0/model/blocks_2/depthwise_conv2d/depthwise_bn_offset", "op": "Const", "attr": {"value": {"tensor": {"dtype": "DT_FLOAT", "tensorShape": {"dim": [{"size": "144"}]}}}, "dtype": {"type": "DT_FLOAT"}}}, {"name": "StatefulPartitionedCall/sequential_2/hub_keras_layer_v1v2_2/StatefulPartitionedCall/efficientnet-lite0/model/blocks_2/conv2d_1/Conv2D_weights", "op": "Const", "attr": {"dtype": {"type": "DT_FLOAT"}, "value": {"tensor": {"dtype": "DT_FLOAT", "tensorShape": {"dim": [{"size": "1"}, {"size": "1"}, {"size": "144"}, {"size": "24"}]}}}}}, {"name": "StatefulPartitionedCall/sequential_2/hub_keras_layer_v1v2_2/StatefulPartitionedCall/efficientnet-lite0/model/head/conv2d/Conv2D_weights", "op": "Const", "attr": {"value": {"tensor": {"dtype": "DT_FLOAT", "tensorShape": {"dim": [{"size": "1"}, {"size": "1"}, {"size": "320"}, {"size": "1280"}]}}}, "dtype": {"type": "DT_FLOAT"}}}, {"name": "StatefulPartitionedCall/sequential_2/hub_keras_layer_v1v2_2/StatefulPartitionedCall/efficientnet-lite0/model/blocks_2/conv2d_1/Conv2D_bn_offset", "op": "Const", "attr": {"dtype": {"type": "DT_FLOAT"}, "value": {"tensor": {"dtype": "DT_FLOAT", "tensorShape": {"dim": [{"size": "24"}]}}}}}, {"name": "StatefulPartitionedCall/sequential_2/hub_keras_layer_v1v2_2/StatefulPartitionedCall/efficientnet-lite0/model/blocks_3/conv2d/Conv2D_weights", "op": "Const", "attr": {"dtype": {"type": "DT_FLOAT"}, "value": {"tensor": {"dtype": "DT_FLOAT", "tensorShape": {"dim": [{"size": "1"}, {"size": "1"}, {"size": "24"}, {"size": "144"}]}}}}}, {"name": "StatefulPartitionedCall/sequential_2/hub_keras_layer_v1v2_2/StatefulPartitionedCall/efficientnet-lite0/model/blocks_13/conv2d_1/Conv2D_bn_offset", "op": "Const", "attr": {"dtype": {"type": "DT_FLOAT"}, "value": {"tensor": {"dtype": "DT_FLOAT", "tensorShape": {"dim": [{"size": "192"}]}}}}}, {"name": "StatefulPartitionedCall/sequential_2/hub_keras_layer_v1v2_2/StatefulPartitionedCall/efficientnet-lite0/model/blocks_3/conv2d/Conv2D_bn_offset", "op": "Const", "attr": {"value": {"tensor": {"dtype": "DT_FLOAT", "tensorShape": {"dim": [{"size": "144"}]}}}, "dtype": {"type": "DT_FLOAT"}}}, {"name": "StatefulPartitionedCall/sequential_2/hub_keras_layer_v1v2_2/StatefulPartitionedCall/efficientnet-lite0/model/blocks_3/depthwise_conv2d/depthwise_weights", "op": "Const", "attr": {"dtype": {"type": "DT_FLOAT"}, "value": {"tensor": {"dtype": "DT_FLOAT", "tensorShape": {"dim": [{"size": "5"}, {"size": "5"}, {"size": "144"}, {"size": "1"}]}}}}}, {"name": "StatefulPartitionedCall/sequential_2/hub_keras_layer_v1v2_2/StatefulPartitionedCall/efficientnet-lite0/model/blocks_3/depthwise_conv2d/depthwise_bn_offset", "op": "Const", "attr": {"dtype": {"type": "DT_FLOAT"}, "value": {"tensor": {"dtype": "DT_FLOAT", "tensorShape": {"dim": [{"size": "144"}]}}}}}, {"name": "StatefulPartitionedCall/sequential_2/hub_keras_layer_v1v2_2/StatefulPartitionedCall/efficientnet-lite0/model/blocks_3/conv2d_1/Conv2D_weights", "op": "Const", "attr": {"value": {"tensor": {"dtype": "DT_FLOAT", "tensorShape": {"dim": [{"size": "1"}, {"size": "1"}, {"size": "144"}, {"size": "40"}]}}}, "dtype": {"type": "DT_FLOAT"}}}, {"name": "StatefulPartitionedCall/sequential_2/hub_keras_layer_v1v2_2/StatefulPartitionedCall/efficientnet-lite0/model/blocks_3/conv2d_1/Conv2D_bn_offset", "op": "Const", "attr": {"value": {"tensor": {"dtype": "DT_FLOAT", "tensorShape": {"dim": [{"size": "40"}]}}}, "dtype": {"type": "DT_FLOAT"}}}, {"name": "StatefulPartitionedCall/sequential_2/hub_keras_layer_v1v2_2/StatefulPartitionedCall/efficientnet-lite0/model/blocks_4/conv2d/Conv2D_weights", "op": "Const", "attr": {"dtype": {"type": "DT_FLOAT"}, "value": {"tensor": {"dtype": "DT_FLOAT", "tensorShape": {"dim": [{"size": "1"}, {"size": "1"}, {"size": "40"}, {"size": "240"}]}}}}}, {"name": "StatefulPartitionedCall/sequential_2/hub_keras_layer_v1v2_2/StatefulPartitionedCall/efficientnet-lite0/model/blocks_14/conv2d/Conv2D_weights", "op": "Const", "attr": {"dtype": {"type": "DT_FLOAT"}, "value": {"tensor": {"dtype": "DT_FLOAT", "tensorShape": {"dim": [{"size": "1"}, {"size": "1"}, {"size": "192"}, {"size": "1152"}]}}}}}, {"name": "StatefulPartitionedCall/sequential_2/hub_keras_layer_v1v2_2/StatefulPartitionedCall/efficientnet-lite0/model/blocks_4/conv2d/Conv2D_bn_offset", "op": "Const", "attr": {"dtype": {"type": "DT_FLOAT"}, "value": {"tensor": {"dtype": "DT_FLOAT", "tensorShape": {"dim": [{"size": "240"}]}}}}}, {"name": "StatefulPartitionedCall/sequential_2/hub_keras_layer_v1v2_2/StatefulPartitionedCall/efficientnet-lite0/model/blocks_4/depthwise_conv2d/depthwise_weights", "op": "Const", "attr": {"value": {"tensor": {"dtype": "DT_FLOAT", "tensorShape": {"dim": [{"size": "5"}, {"size": "5"}, {"size": "240"}, {"size": "1"}]}}}, "dtype": {"type": "DT_FLOAT"}}}, {"name": "StatefulPartitionedCall/sequential_2/hub_keras_layer_v1v2_2/StatefulPartitionedCall/efficientnet-lite0/model/blocks_4/depthwise_conv2d/depthwise_bn_offset", "op": "Const", "attr": {"dtype": {"type": "DT_FLOAT"}, "value": {"tensor": {"dtype": "DT_FLOAT", "tensorShape": {"dim": [{"size": "240"}]}}}}}, {"name": "StatefulPartitionedCall/sequential_2/hub_keras_layer_v1v2_2/StatefulPartitionedCall/efficientnet-lite0/model/blocks_4/conv2d_1/Conv2D_weights", "op": "Const", "attr": {"dtype": {"type": "DT_FLOAT"}, "value": {"tensor": {"dtype": "DT_FLOAT", "tensorShape": {"dim": [{"size": "1"}, {"size": "1"}, {"size": "240"}, {"size": "40"}]}}}}}, {"name": "StatefulPartitionedCall/sequential_2/hub_keras_layer_v1v2_2/StatefulPartitionedCall/efficientnet-lite0/model/blocks_14/conv2d/Conv2D_bn_offset", "op": "Const", "attr": {"value": {"tensor": {"dtype": "DT_FLOAT", "tensorShape": {"dim": [{"size": "1152"}]}}}, "dtype": {"type": "DT_FLOAT"}}}, {"name": "StatefulPartitionedCall/sequential_2/hub_keras_layer_v1v2_2/StatefulPartitionedCall/efficientnet-lite0/model/blocks_4/conv2d_1/Conv2D_bn_offset", "op": "Const", "attr": {"dtype": {"type": "DT_FLOAT"}, "value": {"tensor": {"dtype": "DT_FLOAT", "tensorShape": {"dim": [{"size": "40"}]}}}}}, {"name": "StatefulPartitionedCall/sequential_2/hub_keras_layer_v1v2_2/StatefulPartitionedCall/efficientnet-lite0/model/blocks_5/conv2d/Conv2D_weights", "op": "Const", "attr": {"value": {"tensor": {"dtype": "DT_FLOAT", "tensorShape": {"dim": [{"size": "1"}, {"size": "1"}, {"size": "40"}, {"size": "240"}]}}}, "dtype": {"type": "DT_FLOAT"}}}, {"name": "StatefulPartitionedCall/sequential_2/hub_keras_layer_v1v2_2/StatefulPartitionedCall/efficientnet-lite0/model/head/conv2d/Conv2D_bn_offset", "op": "Const", "attr": {"value": {"tensor": {"dtype": "DT_FLOAT", "tensorShape": {"dim": [{"size": "1280"}]}}}, "dtype": {"type": "DT_FLOAT"}}}, {"name": "StatefulPartitionedCall/sequential_2/hub_keras_layer_v1v2_2/StatefulPartitionedCall/efficientnet-lite0/model/blocks_5/conv2d/Conv2D_bn_offset", "op": "Const", "attr": {"dtype": {"type": "DT_FLOAT"}, "value": {"tensor": {"dtype": "DT_FLOAT", "tensorShape": {"dim": [{"size": "240"}]}}}}}, {"name": "StatefulPartitionedCall/sequential_2/hub_keras_layer_v1v2_2/StatefulPartitionedCall/efficientnet-lite0/model/blocks_5/depthwise_conv2d/depthwise_weights", "op": "Const", "attr": {"dtype": {"type": "DT_FLOAT"}, "value": {"tensor": {"dtype": "DT_FLOAT", "tensorShape": {"dim": [{"size": "3"}, {"size": "3"}, {"size": "240"}, {"size": "1"}]}}}}}, {"name": "StatefulPartitionedCall/sequential_2/hub_keras_layer_v1v2_2/StatefulPartitionedCall/efficientnet-lite0/model/blocks_5/depthwise_conv2d/depthwise_bn_offset", "op": "Const", "attr": {"value": {"tensor": {"dtype": "DT_FLOAT", "tensorShape": {"dim": [{"size": "240"}]}}}, "dtype": {"type": "DT_FLOAT"}}}, {"name": "StatefulPartitionedCall/sequential_2/hub_keras_layer_v1v2_2/StatefulPartitionedCall/efficientnet-lite0/model/blocks_5/conv2d_1/Conv2D_weights", "op": "Const", "attr": {"value": {"tensor": {"dtype": "DT_FLOAT", "tensorShape": {"dim": [{"size": "1"}, {"size": "1"}, {"size": "240"}, {"size": "80"}]}}}, "dtype": {"type": "DT_FLOAT"}}}, {"name": "StatefulPartitionedCall/sequential_2/hub_keras_layer_v1v2_2/StatefulPartitionedCall/efficientnet-lite0/model/blocks_14/depthwise_conv2d/depthwise_weights", "op": "Const", "attr": {"dtype": {"type": "DT_FLOAT"}, "value": {"tensor": {"dtype": "DT_FLOAT", "tensorShape": {"dim": [{"size": "5"}, {"size": "5"}, {"size": "1152"}, {"size": "1"}]}}}}}, {"name": "StatefulPartitionedCall/sequential_2/hub_keras_layer_v1v2_2/StatefulPartitionedCall/efficientnet-lite0/model/blocks_5/conv2d_1/Conv2D_bn_offset", "op": "Const", "attr": {"dtype": {"type": "DT_FLOAT"}, "value": {"tensor": {"dtype": "DT_FLOAT", "tensorShape": {"dim": [{"size": "80"}]}}}}}, {"name": "StatefulPartitionedCall/sequential_2/hub_keras_layer_v1v2_2/StatefulPartitionedCall/efficientnet-lite0/model/blocks_6/conv2d/Conv2D_weights", "op": "Const", "attr": {"dtype": {"type": "DT_FLOAT"}, "value": {"tensor": {"dtype": "DT_FLOAT", "tensorShape": {"dim": [{"size": "1"}, {"size": "1"}, {"size": "80"}, {"size": "480"}]}}}}}, {"name": "StatefulPartitionedCall/sequential_2/hub_keras_layer_v1v2_2/StatefulPartitionedCall/efficientnet-lite0/model/blocks_6/conv2d/Conv2D_bn_offset", "op": "Const", "attr": {"dtype": {"type": "DT_FLOAT"}, "value": {"tensor": {"dtype": "DT_FLOAT", "tensorShape": {"dim": [{"size": "480"}]}}}}}, {"name": "StatefulPartitionedCall/sequential_2/hub_keras_layer_v1v2_2/StatefulPartitionedCall/efficientnet-lite0/model/blocks_14/depthwise_conv2d/depthwise_bn_offset", "op": "Const", "attr": {"dtype": {"type": "DT_FLOAT"}, "value": {"tensor": {"dtype": "DT_FLOAT", "tensorShape": {"dim": [{"size": "1152"}]}}}}}, {"name": "StatefulPartitionedCall/sequential_2/hub_keras_layer_v1v2_2/StatefulPartitionedCall/efficientnet-lite0/model/blocks_6/depthwise_conv2d/depthwise_weights", "op": "Const", "attr": {"dtype": {"type": "DT_FLOAT"}, "value": {"tensor": {"dtype": "DT_FLOAT", "tensorShape": {"dim": [{"size": "3"}, {"size": "3"}, {"size": "480"}, {"size": "1"}]}}}}}, {"name": "StatefulPartitionedCall/sequential_2/hub_keras_layer_v1v2_2/StatefulPartitionedCall/efficientnet-lite0/model/blocks_6/depthwise_conv2d/depthwise_bn_offset", "op": "Const", "attr": {"value": {"tensor": {"dtype": "DT_FLOAT", "tensorShape": {"dim": [{"size": "480"}]}}}, "dtype": {"type": "DT_FLOAT"}}}, {"name": "StatefulPartitionedCall/sequential_2/hub_keras_layer_v1v2_2/StatefulPartitionedCall/efficientnet-lite0/model/blocks_6/conv2d_1/Conv2D_weights", "op": "Const", "attr": {"dtype": {"type": "DT_FLOAT"}, "value": {"tensor": {"dtype": "DT_FLOAT", "tensorShape": {"dim": [{"size": "1"}, {"size": "1"}, {"size": "480"}, {"size": "80"}]}}}}}, {"name": "StatefulPartitionedCall/sequential_2/hub_keras_layer_v1v2_2/StatefulPartitionedCall/efficientnet-lite0/model/blocks_6/conv2d_1/Conv2D_bn_offset", "op": "Const", "attr": {"value": {"tensor": {"dtype": "DT_FLOAT", "tensorShape": {"dim": [{"size": "80"}]}}}, "dtype": {"type": "DT_FLOAT"}}}, {"name": "StatefulPartitionedCall/sequential_2/hub_keras_layer_v1v2_2/StatefulPartitionedCall/efficientnet-lite0/model/blocks_7/conv2d/Conv2D_weights", "op": "Const", "attr": {"value": {"tensor": {"dtype": "DT_FLOAT", "tensorShape": {"dim": [{"size": "1"}, {"size": "1"}, {"size": "80"}, {"size": "480"}]}}}, "dtype": {"type": "DT_FLOAT"}}}, {"name": "StatefulPartitionedCall/sequential_2/hub_keras_layer_v1v2_2/StatefulPartitionedCall/efficientnet-lite0/model/blocks_7/conv2d/Conv2D_bn_offset", "op": "Const", "attr": {"dtype": {"type": "DT_FLOAT"}, "value": {"tensor": {"dtype": "DT_FLOAT", "tensorShape": {"dim": [{"size": "480"}]}}}}}, {"name": "StatefulPartitionedCall/sequential_2/hub_keras_layer_v1v2_2/StatefulPartitionedCall/efficientnet-lite0/model/blocks_14/conv2d_1/Conv2D_weights", "op": "Const", "attr": {"value": {"tensor": {"dtype": "DT_FLOAT", "tensorShape": {"dim": [{"size": "1"}, {"size": "1"}, {"size": "1152"}, {"size": "192"}]}}}, "dtype": {"type": "DT_FLOAT"}}}, {"name": "StatefulPartitionedCall/sequential_2/hub_keras_layer_v1v2_2/StatefulPartitionedCall/efficientnet-lite0/model/blocks_7/depthwise_conv2d/depthwise_weights", "op": "Const", "attr": {"dtype": {"type": "DT_FLOAT"}, "value": {"tensor": {"dtype": "DT_FLOAT", "tensorShape": {"dim": [{"size": "3"}, {"size": "3"}, {"size": "480"}, {"size": "1"}]}}}}}, {"name": "StatefulPartitionedCall/sequential_2/hub_keras_layer_v1v2_2/StatefulPartitionedCall/efficientnet-lite0/model/blocks_7/depthwise_conv2d/depthwise_bn_offset", "op": "Const", "attr": {"dtype": {"type": "DT_FLOAT"}, "value": {"tensor": {"dtype": "DT_FLOAT", "tensorShape": {"dim": [{"size": "480"}]}}}}}, {"name": "StatefulPartitionedCall/sequential_2/hub_keras_layer_v1v2_2/StatefulPartitionedCall/efficientnet-lite0/model/blocks_7/conv2d_1/Conv2D_weights", "op": "Const", "attr": {"value": {"tensor": {"dtype": "DT_FLOAT", "tensorShape": {"dim": [{"size": "1"}, {"size": "1"}, {"size": "480"}, {"size": "80"}]}}}, "dtype": {"type": "DT_FLOAT"}}}, {"name": "StatefulPartitionedCall/sequential_2/hub_keras_layer_v1v2_2/StatefulPartitionedCall/efficientnet-lite0/model/blocks_7/conv2d_1/Conv2D_bn_offset", "op": "Const", "attr": {"value": {"tensor": {"dtype": "DT_FLOAT", "tensorShape": {"dim": [{"size": "80"}]}}}, "dtype": {"type": "DT_FLOAT"}}}, {"name": "StatefulPartitionedCall/sequential_2/hub_keras_layer_v1v2_2/StatefulPartitionedCall/efficientnet-lite0/model/blocks_8/conv2d/Conv2D_weights", "op": "Const", "attr": {"dtype": {"type": "DT_FLOAT"}, "value": {"tensor": {"dtype": "DT_FLOAT", "tensorShape": {"dim": [{"size": "1"}, {"size": "1"}, {"size": "80"}, {"size": "480"}]}}}}}, {"name": "StatefulPartitionedCall/sequential_2/hub_keras_layer_v1v2_2/StatefulPartitionedCall/efficientnet-lite0/model/blocks_14/conv2d_1/Conv2D_bn_offset", "op": "Const", "attr": {"value": {"tensor": {"dtype": "DT_FLOAT", "tensorShape": {"dim": [{"size": "192"}]}}}, "dtype": {"type": "DT_FLOAT"}}}, {"name": "StatefulPartitionedCall/sequential_2/hub_keras_layer_v1v2_2/StatefulPartitionedCall/efficientnet-lite0/model/blocks_8/conv2d/Conv2D_bn_offset", "op": "Const", "attr": {"dtype": {"type": "DT_FLOAT"}, "value": {"tensor": {"dtype": "DT_FLOAT", "tensorShape": {"dim": [{"size": "480"}]}}}}}, {"name": "StatefulPartitionedCall/sequential_2/hub_keras_layer_v1v2_2/StatefulPartitionedCall/efficientnet-lite0/model/blocks_8/depthwise_conv2d/depthwise_weights", "op": "Const", "attr": {"dtype": {"type": "DT_FLOAT"}, "value": {"tensor": {"dtype": "DT_FLOAT", "tensorShape": {"dim": [{"size": "5"}, {"size": "5"}, {"size": "480"}, {"size": "1"}]}}}}}, {"name": "StatefulPartitionedCall/sequential_2/hub_keras_layer_v1v2_2/StatefulPartitionedCall/efficientnet-lite0/model/blocks_8/depthwise_conv2d/depthwise_bn_offset", "op": "Const", "attr": {"dtype": {"type": "DT_FLOAT"}, "value": {"tensor": {"dtype": "DT_FLOAT", "tensorShape": {"dim": [{"size": "480"}]}}}}}, {"name": "StatefulPartitionedCall/sequential_2/hub_keras_layer_v1v2_2/StatefulPartitionedCall/efficientnet-lite0/model/blocks_8/conv2d_1/Conv2D_weights", "op": "Const", "attr": {"value": {"tensor": {"dtype": "DT_FLOAT", "tensorShape": {"dim": [{"size": "1"}, {"size": "1"}, {"size": "480"}, {"size": "112"}]}}}, "dtype": {"type": "DT_FLOAT"}}}, {"name": "StatefulPartitionedCall/sequential_2/hub_keras_layer_v1v2_2/StatefulPartitionedCall/efficientnet-lite0/model/blocks_8/conv2d_1/Conv2D_bn_offset", "op": "Const", "attr": {"dtype": {"type": "DT_FLOAT"}, "value": {"tensor": {"dtype": "DT_FLOAT", "tensorShape": {"dim": [{"size": "112"}]}}}}}, {"name": "StatefulPartitionedCall/sequential_2/hub_keras_layer_v1v2_2/StatefulPartitionedCall/efficientnet-lite0/model/blocks_9/conv2d/Conv2D_weights", "op": "Const", "attr": {"value": {"tensor": {"dtype": "DT_FLOAT", "tensorShape": {"dim": [{"size": "1"}, {"size": "1"}, {"size": "112"}, {"size": "672"}]}}}, "dtype": {"type": "DT_FLOAT"}}}, {"name": "StatefulPartitionedCall/sequential_2/hub_keras_layer_v1v2_2/StatefulPartitionedCall/efficientnet-lite0/model/blocks_15/conv2d/Conv2D_weights", "op": "Const", "attr": {"value": {"tensor": {"dtype": "DT_FLOAT", "tensorShape": {"dim": [{"size": "1"}, {"size": "1"}, {"size": "192"}, {"size": "1152"}]}}}, "dtype": {"type": "DT_FLOAT"}}}, {"name": "StatefulPartitionedCall/sequential_2/hub_keras_layer_v1v2_2/StatefulPartitionedCall/efficientnet-lite0/model/blocks_9/conv2d/Conv2D_bn_offset", "op": "Const", "attr": {"dtype": {"type": "DT_FLOAT"}, "value": {"tensor": {"dtype": "DT_FLOAT", "tensorShape": {"dim": [{"size": "672"}]}}}}}, {"name": "StatefulPartitionedCall/sequential_2/hub_keras_layer_v1v2_2/StatefulPartitionedCall/efficientnet-lite0/model/blocks_9/depthwise_conv2d/depthwise_weights", "op": "Const", "attr": {"value": {"tensor": {"dtype": "DT_FLOAT", "tensorShape": {"dim": [{"size": "5"}, {"size": "5"}, {"size": "672"}, {"size": "1"}]}}}, "dtype": {"type": "DT_FLOAT"}}}, {"name": "StatefulPartitionedCall/sequential_2/hub_keras_layer_v1v2_2/StatefulPartitionedCall/efficientnet-lite0/model/blocks_9/depthwise_conv2d/depthwise_bn_offset", "op": "Const", "attr": {"value": {"tensor": {"dtype": "DT_FLOAT", "tensorShape": {"dim": [{"size": "672"}]}}}, "dtype": {"type": "DT_FLOAT"}}}, {"name": "StatefulPartitionedCall/sequential_2/hub_keras_layer_v1v2_2/StatefulPartitionedCall/efficientnet-lite0/model/blocks_9/conv2d_1/Conv2D_weights", "op": "Const", "attr": {"dtype": {"type": "DT_FLOAT"}, "value": {"tensor": {"dtype": "DT_FLOAT", "tensorShape": {"dim": [{"size": "1"}, {"size": "1"}, {"size": "672"}, {"size": "112"}]}}}}}, {"name": "StatefulPartitionedCall/sequential_2/hub_keras_layer_v1v2_2/StatefulPartitionedCall/efficientnet-lite0/model/blocks_15/conv2d/Conv2D_bn_offset", "op": "Const", "attr": {"value": {"tensor": {"dtype": "DT_FLOAT", "tensorShape": {"dim": [{"size": "1152"}]}}}, "dtype": {"type": "DT_FLOAT"}}}, {"name": "StatefulPartitionedCall/sequential_2/hub_keras_layer_v1v2_2/StatefulPartitionedCall/efficientnet-lite0/model/blocks_9/conv2d_1/Conv2D_bn_offset", "op": "Const", "attr": {"value": {"tensor": {"dtype": "DT_FLOAT", "tensorShape": {"dim": [{"size": "112"}]}}}, "dtype": {"type": "DT_FLOAT"}}}, {"name": "StatefulPartitionedCall/sequential_2/hub_keras_layer_v1v2_2/StatefulPartitionedCall/efficientnet-lite0/model/blocks_10/conv2d/Conv2D_weights", "op": "Const", "attr": {"value": {"tensor": {"dtype": "DT_FLOAT", "tensorShape": {"dim": [{"size": "1"}, {"size": "1"}, {"size": "112"}, {"size": "672"}]}}}, "dtype": {"type": "DT_FLOAT"}}}, {"name": "StatefulPartitionedCall/sequential_2/hub_keras_layer_v1v2_2/StatefulPartitionedCall/efficientnet-lite0/model/blocks_10/conv2d/Conv2D_bn_offset", "op": "Const", "attr": {"value": {"tensor": {"dtype": "DT_FLOAT", "tensorShape": {"dim": [{"size": "672"}]}}}, "dtype": {"type": "DT_FLOAT"}}}, {"name": "StatefulPartitionedCall/sequential_2/hub_keras_layer_v1v2_2/StatefulPartitionedCall/efficientnet-lite0/model/blocks_10/depthwise_conv2d/depthwise_weights", "op": "Const", "attr": {"value": {"tensor": {"dtype": "DT_FLOAT", "tensorShape": {"dim": [{"size": "5"}, {"size": "5"}, {"size": "672"}, {"size": "1"}]}}}, "dtype": {"type": "DT_FLOAT"}}}, {"name": "StatefulPartitionedCall/sequential_2/hub_keras_layer_v1v2_2/StatefulPartitionedCall/efficientnet-lite0/model/blocks_10/depthwise_conv2d/depthwise_bn_offset", "op": "Const", "attr": {"value": {"tensor": {"dtype": "DT_FLOAT", "tensorShape": {"dim": [{"size": "672"}]}}}, "dtype": {"type": "DT_FLOAT"}}}, {"name": "StatefulPartitionedCall/sequential_2/hub_keras_layer_v1v2_2/StatefulPartitionedCall/efficientnet-lite0/model/blocks_10/conv2d_1/Conv2D_weights", "op": "Const", "attr": {"dtype": {"type": "DT_FLOAT"}, "value": {"tensor": {"dtype": "DT_FLOAT", "tensorShape": {"dim": [{"size": "1"}, {"size": "1"}, {"size": "672"}, {"size": "112"}]}}}}}, {"name": "StatefulPartitionedCall/sequential_2/hub_keras_layer_v1v2_2/StatefulPartitionedCall/efficientnet-lite0/model/blocks_15/depthwise_conv2d/depthwise_weights", "op": "Const", "attr": {"dtype": {"type": "DT_FLOAT"}, "value": {"tensor": {"dtype": "DT_FLOAT", "tensorShape": {"dim": [{"size": "3"}, {"size": "3"}, {"size": "1152"}, {"size": "1"}]}}}}}, {"name": "StatefulPartitionedCall/sequential_2/hub_keras_layer_v1v2_2/StatefulPartitionedCall/efficientnet-lite0/model/blocks_10/conv2d_1/Conv2D_bn_offset", "op": "Const", "attr": {"value": {"tensor": {"dtype": "DT_FLOAT", "tensorShape": {"dim": [{"size": "112"}]}}}, "dtype": {"type": "DT_FLOAT"}}}, {"name": "StatefulPartitionedCall/sequential_2/hub_keras_layer_v1v2_2/StatefulPartitionedCall/efficientnet-lite0/model/blocks_11/conv2d/Conv2D_weights", "op": "Const", "attr": {"dtype": {"type": "DT_FLOAT"}, "value": {"tensor": {"dtype": "DT_FLOAT", "tensorShape": {"dim": [{"size": "1"}, {"size": "1"}, {"size": "112"}, {"size": "672"}]}}}}}, {"name": "StatefulPartitionedCall/sequential_2/hub_keras_layer_v1v2_2/StatefulPartitionedCall/efficientnet-lite0/model/blocks_11/conv2d/Conv2D_bn_offset", "op": "Const", "attr": {"dtype": {"type": "DT_FLOAT"}, "value": {"tensor": {"dtype": "DT_FLOAT", "tensorShape": {"dim": [{"size": "672"}]}}}}}, {"name": "StatefulPartitionedCall/sequential_2/hub_keras_layer_v1v2_2/StatefulPartitionedCall/efficientnet-lite0/model/blocks_15/depthwise_conv2d/depthwise_bn_offset", "op": "Const", "attr": {"value": {"tensor": {"dtype": "DT_FLOAT", "tensorShape": {"dim": [{"size": "1152"}]}}}, "dtype": {"type": "DT_FLOAT"}}}, {"name": "StatefulPartitionedCall/sequential_2/hub_keras_layer_v1v2_2/StatefulPartitionedCall/efficientnet-lite0/model/blocks_11/depthwise_conv2d/depthwise_weights", "op": "Const", "attr": {"dtype": {"type": "DT_FLOAT"}, "value": {"tensor": {"dtype": "DT_FLOAT", "tensorShape": {"dim": [{"size": "5"}, {"size": "5"}, {"size": "672"}, {"size": "1"}]}}}}}, {"name": "StatefulPartitionedCall/sequential_2/hub_keras_layer_v1v2_2/StatefulPartitionedCall/efficientnet-lite0/model/blocks_11/depthwise_conv2d/depthwise_bn_offset", "op": "Const", "attr": {"dtype": {"type": "DT_FLOAT"}, "value": {"tensor": {"dtype": "DT_FLOAT", "tensorShape": {"dim": [{"size": "672"}]}}}}}, {"name": "StatefulPartitionedCall/sequential_2/hub_keras_layer_v1v2_2/StatefulPartitionedCall/efficientnet-lite0/model/blocks_11/conv2d_1/Conv2D_weights", "op": "Const", "attr": {"value": {"tensor": {"dtype": "DT_FLOAT", "tensorShape": {"dim": [{"size": "1"}, {"size": "1"}, {"size": "672"}, {"size": "192"}]}}}, "dtype": {"type": "DT_FLOAT"}}}, {"name": "StatefulPartitionedCall/sequential_2/hub_keras_layer_v1v2_2/StatefulPartitionedCall/efficientnet-lite0/model/blocks_11/conv2d_1/Conv2D_bn_offset", "op": "Const", "attr": {"value": {"tensor": {"dtype": "DT_FLOAT", "tensorShape": {"dim": [{"size": "192"}]}}}, "dtype": {"type": "DT_FLOAT"}}}, {"name": "StatefulPartitionedCall/sequential_2/hub_keras_layer_v1v2_2/StatefulPartitionedCall/efficientnet-lite0/model/blocks_12/conv2d/Conv2D_weights", "op": "Const", "attr": {"value": {"tensor": {"dtype": "DT_FLOAT", "tensorShape": {"dim": [{"size": "1"}, {"size": "1"}, {"size": "192"}, {"size": "1152"}]}}}, "dtype": {"type": "DT_FLOAT"}}}, {"name": "StatefulPartitionedCall/sequential_2/hub_keras_layer_v1v2_2/StatefulPartitionedCall/efficientnet-lite0/model/blocks_12/conv2d/Conv2D_bn_offset", "op": "Const", "attr": {"value": {"tensor": {"dtype": "DT_FLOAT", "tensorShape": {"dim": [{"size": "1152"}]}}}, "dtype": {"type": "DT_FLOAT"}}}, {"name": "StatefulPartitionedCall/sequential_2/hub_keras_layer_v1v2_2/StatefulPartitionedCall/efficientnet-lite0/model/blocks_15/conv2d_1/Conv2D_weights", "op": "Const", "attr": {"value": {"tensor": {"dtype": "DT_FLOAT", "tensorShape": {"dim": [{"size": "1"}, {"size": "1"}, {"size": "1152"}, {"size": "320"}]}}}, "dtype": {"type": "DT_FLOAT"}}}, {"name": "StatefulPartitionedCall/sequential_2/hub_keras_layer_v1v2_2/StatefulPartitionedCall/efficientnet-lite0/model/blocks_12/depthwise_conv2d/depthwise_weights", "op": "Const", "attr": {"value": {"tensor": {"dtype": "DT_FLOAT", "tensorShape": {"dim": [{"size": "5"}, {"size": "5"}, {"size": "1152"}, {"size": "1"}]}}}, "dtype": {"type": "DT_FLOAT"}}}, {"name": "StatefulPartitionedCall/sequential_2/hub_keras_layer_v1v2_2/StatefulPartitionedCall/efficientnet-lite0/model/blocks_12/depthwise_conv2d/depthwise_bn_offset", "op": "Const", "attr": {"dtype": {"type": "DT_FLOAT"}, "value": {"tensor": {"dtype": "DT_FLOAT", "tensorShape": {"dim": [{"size": "1152"}]}}}}}, {"name": "StatefulPartitionedCall/sequential_2/hub_keras_layer_v1v2_2/StatefulPartitionedCall/efficientnet-lite0/model/blocks_12/conv2d_1/Conv2D_weights", "op": "Const", "attr": {"value": {"tensor": {"dtype": "DT_FLOAT", "tensorShape": {"dim": [{"size": "1"}, {"size": "1"}, {"size": "1152"}, {"size": "192"}]}}}, "dtype": {"type": "DT_FLOAT"}}}, {"name": "StatefulPartitionedCall/sequential_2/hub_keras_layer_v1v2_2/StatefulPartitionedCall/efficientnet-lite0/model/blocks_12/conv2d_1/Conv2D_bn_offset", "op": "Const", "attr": {"value": {"tensor": {"dtype": "DT_FLOAT", "tensorShape": {"dim": [{"size": "192"}]}}}, "dtype": {"type": "DT_FLOAT"}}}, {"name": "StatefulPartitionedCall/sequential_2/hub_keras_layer_v1v2_2/StatefulPartitionedCall/efficientnet-lite0/model/blocks_13/conv2d/Conv2D_weights", "op": "Const", "attr": {"value": {"tensor": {"dtype": "DT_FLOAT", "tensorShape": {"dim": [{"size": "1"}, {"size": "1"}, {"size": "192"}, {"size": "1152"}]}}}, "dtype": {"type": "DT_FLOAT"}}}, {"name": "StatefulPartitionedCall/sequential_2/hub_keras_layer_v1v2_2/StatefulPartitionedCall/efficientnet-lite0/model/blocks_15/conv2d_1/Conv2D_bn_offset", "op": "Const", "attr": {"value": {"tensor": {"dtype": "DT_FLOAT", "tensorShape": {"dim": [{"size": "320"}]}}}, "dtype": {"type": "DT_FLOAT"}}}, {"name": "StatefulPartitionedCall/sequential_2/hub_keras_layer_v1v2_2/StatefulPartitionedCall/efficientnet-lite0/model/blocks_13/conv2d/Conv2D_bn_offset", "op": "Const", "attr": {"dtype": {"type": "DT_FLOAT"}, "value": {"tensor": {"dtype": "DT_FLOAT", "tensorShape": {"dim": [{"size": "1152"}]}}}}}, {"name": "StatefulPartitionedCall/sequential_2/hub_keras_layer_v1v2_2/StatefulPartitionedCall/Const", "op": "Const", "input": ["^input_3"], "attr": {"dtype": {"type": "DT_FLOAT"}, "value": {"tensor": {"dtype": "DT_FLOAT", "tensorShape": {}}}}}, {"name": "StatefulPartitionedCall/sequential_2/hub_keras_layer_v1v2_2/StatefulPartitionedCall/Const_1", "op": "Const", "input": ["^input_3"], "attr": {"value": {"tensor": {"dtype": "DT_FLOAT", "tensorShape": {}}}, "dtype": {"type": "DT_FLOAT"}}}, {"name": "StatefulPartitionedCall/sequential_2/hub_keras_layer_v1v2_2/StatefulPartitionedCall/efficientnet-lite0/model/head/global_average_pooling2d/Mean/reduction_indices", "op": "Const", "input": ["^input_3"], "attr": {"dtype": {"type": "DT_INT32"}, "value": {"tensor": {"dtype": "DT_INT32", "tensorShape": {"dim": [{"size": "2"}]}}}}}, {"name": "StatefulPartitionedCall/sequential_2/hub_keras_layer_v1v2_2/StatefulPartitionedCall/mul", "op": "Mul", "input": ["input_3", "StatefulPartitionedCall/sequential_2/hub_keras_layer_v1v2_2/StatefulPartitionedCall/Const"], "attr": {"T": {"type": "DT_FLOAT"}}}, {"name": "StatefulPartitionedCall/sequential_2/hub_keras_layer_v1v2_2/StatefulPartitionedCall/add", "op": "AddV2", "input": ["StatefulPartitionedCall/sequential_2/hub_keras_layer_v1v2_2/StatefulPartitionedCall/mul", "StatefulPartitionedCall/sequential_2/hub_keras_layer_v1v2_2/StatefulPartitionedCall/Const_1"], "attr": {"T": {"type": "DT_FLOAT"}}}, {"name": "StatefulPartitionedCall/sequential_2/hub_keras_layer_v1v2_2/StatefulPartitionedCall/efficientnet-lite0/model/stem/Relu6", "op": "_FusedConv2D", "input": ["StatefulPartitionedCall/sequential_2/hub_keras_layer_v1v2_2/StatefulPartitionedCall/add", "StatefulPartitionedCall/sequential_2/hub_keras_layer_v1v2_2/StatefulPartitionedCall/efficientnet-lite0/model/stem/conv2d/Conv2D_weights", "StatefulPartitionedCall/sequential_2/hub_keras_layer_v1v2_2/StatefulPartitionedCall/efficientnet-lite0/model/stem/conv2d/Conv2D_bn_offset"], "device": "/device:CPU:0", "attr": {"fused_ops": {"list": {"s": ["Qmlhc0FkZA==", "UmVsdTY="]}}, "epsilon": {"f": 0.0}, "padding": {"s": "U0FNRQ=="}, "dilations": {"list": {"i": ["1", "1", "1", "1"]}}, "use_cudnn_on_gpu": {"b": true}, "strides": {"list": {"i": ["1", "2", "2", "1"]}}, "data_format": {"s": "TkhXQw=="}, "explicit_paddings": {"list": {}}, "num_args": {"i": "1"}, "T": {"type": "DT_FLOAT"}}}, {"name": "StatefulPartitionedCall/sequential_2/hub_keras_layer_v1v2_2/StatefulPartitionedCall/efficientnet-lite0/model/blocks_0/depthwise_conv2d/depthwise", "op": "FusedDepthwiseConv2dNative", "input": ["StatefulPartitionedCall/sequential_2/hub_keras_layer_v1v2_2/StatefulPartitionedCall/efficientnet-lite0/model/stem/Relu6", "StatefulPartitionedCall/sequential_2/hub_keras_layer_v1v2_2/StatefulPartitionedCall/efficientnet-lite0/model/blocks_0/depthwise_conv2d/depthwise_weights", "StatefulPartitionedCall/sequential_2/hub_keras_layer_v1v2_2/StatefulPartitionedCall/efficientnet-lite0/model/blocks_0/depthwise_conv2d/depthwise_bn_offset"], "attr": {"fused_ops": {"list": {"s": ["Qmlhc0FkZA==", "UmVsdTY="]}}, "strides": {"list": {"i": ["1", "1", "1", "1"]}}, "num_args": {"i": "1"}, "data_format": {"s": "TkhXQw=="}, "padding": {"s": "U0FNRQ=="}, "T": {"type": "DT_FLOAT"}, "explicit_paddings": {"list": {}}, "dilations": {"list": {"i": ["1", "1", "1", "1"]}}}}, {"name": "StatefulPartitionedCall/sequential_2/hub_keras_layer_v1v2_2/StatefulPartitionedCall/efficientnet-lite0/model/blocks_0/tpu_batch_normalization_1/FusedBatchNormV3", "op": "_FusedConv2D", "input": ["StatefulPartitionedCall/sequential_2/hub_keras_layer_v1v2_2/StatefulPartitionedCall/efficientnet-lite0/model/blocks_0/depthwise_conv2d/depthwise", "StatefulPartitionedCall/sequential_2/hub_keras_layer_v1v2_2/StatefulPartitionedCall/efficientnet-lite0/model/blocks_0/conv2d/Conv2D_weights", "StatefulPartitionedCall/sequential_2/hub_keras_layer_v1v2_2/StatefulPartitionedCall/efficientnet-lite0/model/blocks_0/conv2d/Conv2D_bn_offset"], "device": "/device:CPU:0", "attr": {"padding": {"s": "U0FNRQ=="}, "explicit_paddings": {"list": {}}, "fused_ops": {"list": {"s": ["Qmlhc0FkZA=="]}}, "data_format": {"s": "TkhXQw=="}, "use_cudnn_on_gpu": {"b": true}, "num_args": {"i": "1"}, "epsilon": {"f": 0.0}, "dilations": {"list": {"i": ["1", "1", "1", "1"]}}, "strides": {"list": {"i": ["1", "1", "1", "1"]}}, "T": {"type": "DT_FLOAT"}}}, {"name": "StatefulPartitionedCall/sequential_2/hub_keras_layer_v1v2_2/StatefulPartitionedCall/efficientnet-lite0/model/blocks_1/Relu6", "op": "_FusedConv2D", "input": ["StatefulPartitionedCall/sequential_2/hub_keras_layer_v1v2_2/StatefulPartitionedCall/efficientnet-lite0/model/blocks_0/tpu_batch_normalization_1/FusedBatchNormV3", "StatefulPartitionedCall/sequential_2/hub_keras_layer_v1v2_2/StatefulPartitionedCall/efficientnet-lite0/model/blocks_1/conv2d/Conv2D_weights", "StatefulPartitionedCall/sequential_2/hub_keras_layer_v1v2_2/StatefulPartitionedCall/efficientnet-lite0/model/blocks_1/conv2d/Conv2D_bn_offset"], "device": "/device:CPU:0", "attr": {"fused_ops": {"list": {"s": ["Qmlhc0FkZA==", "UmVsdTY="]}}, "data_format": {"s": "TkhXQw=="}, "padding": {"s": "U0FNRQ=="}, "dilations": {"list": {"i": ["1", "1", "1", "1"]}}, "T": {"type": "DT_FLOAT"}, "use_cudnn_on_gpu": {"b": true}, "explicit_paddings": {"list": {}}, "num_args": {"i": "1"}, "strides": {"list": {"i": ["1", "1", "1", "1"]}}, "epsilon": {"f": 0.0}}}, {"name": "StatefulPartitionedCall/sequential_2/hub_keras_layer_v1v2_2/StatefulPartitionedCall/efficientnet-lite0/model/blocks_1/depthwise_conv2d/depthwise", "op": "FusedDepthwiseConv2dNative", "input": ["StatefulPartitionedCall/sequential_2/hub_keras_layer_v1v2_2/StatefulPartitionedCall/efficientnet-lite0/model/blocks_1/Relu6", "StatefulPartitionedCall/sequential_2/hub_keras_layer_v1v2_2/StatefulPartitionedCall/efficientnet-lite0/model/blocks_1/depthwise_conv2d/depthwise_weights", "StatefulPartitionedCall/sequential_2/hub_keras_layer_v1v2_2/StatefulPartitionedCall/efficientnet-lite0/model/blocks_1/depthwise_conv2d/depthwise_bn_offset"], "attr": {"explicit_paddings": {"list": {}}, "padding": {"s": "U0FNRQ=="}, "dilations": {"list": {"i": ["1", "1", "1", "1"]}}, "fused_ops": {"list": {"s": ["Qmlhc0FkZA==", "UmVsdTY="]}}, "num_args": {"i": "1"}, "data_format": {"s": "TkhXQw=="}, "T": {"type": "DT_FLOAT"}, "strides": {"list": {"i": ["1", "2", "2", "1"]}}}}, {"name": "StatefulPartitionedCall/sequential_2/hub_keras_layer_v1v2_2/StatefulPartitionedCall/efficientnet-lite0/model/blocks_1/tpu_batch_normalization_2/FusedBatchNormV3", "op": "_FusedConv2D", "input": ["StatefulPartitionedCall/sequential_2/hub_keras_layer_v1v2_2/StatefulPartitionedCall/efficientnet-lite0/model/blocks_1/depthwise_conv2d/depthwise", "StatefulPartitionedCall/sequential_2/hub_keras_layer_v1v2_2/StatefulPartitionedCall/efficientnet-lite0/model/blocks_1/conv2d_1/Conv2D_weights", "StatefulPartitionedCall/sequential_2/hub_keras_layer_v1v2_2/StatefulPartitionedCall/efficientnet-lite0/model/blocks_1/conv2d_1/Conv2D_bn_offset"], "device": "/device:CPU:0", "attr": {"data_format": {"s": "TkhXQw=="}, "padding": {"s": "U0FNRQ=="}, "fused_ops": {"list": {"s": ["Qmlhc0FkZA=="]}}, "dilations": {"list": {"i": ["1", "1", "1", "1"]}}, "explicit_paddings": {"list": {}}, "T": {"type": "DT_FLOAT"}, "use_cudnn_on_gpu": {"b": true}, "num_args": {"i": "1"}, "epsilon": {"f": 0.0}, "strides": {"list": {"i": ["1", "1", "1", "1"]}}}}, {"name": "StatefulPartitionedCall/sequential_2/hub_keras_layer_v1v2_2/StatefulPartitionedCall/efficientnet-lite0/model/blocks_2/Relu6", "op": "_FusedConv2D", "input": ["StatefulPartitionedCall/sequential_2/hub_keras_layer_v1v2_2/StatefulPartitionedCall/efficientnet-lite0/model/blocks_1/tpu_batch_normalization_2/FusedBatchNormV3", "StatefulPartitionedCall/sequential_2/hub_keras_layer_v1v2_2/StatefulPartitionedCall/efficientnet-lite0/model/blocks_2/conv2d/Conv2D_weights", "StatefulPartitionedCall/sequential_2/hub_keras_layer_v1v2_2/StatefulPartitionedCall/efficientnet-lite0/model/blocks_2/conv2d/Conv2D_bn_offset"], "device": "/device:CPU:0", "attr": {"T": {"type": "DT_FLOAT"}, "strides": {"list": {"i": ["1", "1", "1", "1"]}}, "epsilon": {"f": 0.0}, "data_format": {"s": "TkhXQw=="}, "padding": {"s": "U0FNRQ=="}, "fused_ops": {"list": {"s": ["Qmlhc0FkZA==", "UmVsdTY="]}}, "dilations": {"list": {"i": ["1", "1", "1", "1"]}}, "num_args": {"i": "1"}, "explicit_paddings": {"list": {}}, "use_cudnn_on_gpu": {"b": true}}}, {"name": "StatefulPartitionedCall/sequential_2/hub_keras_layer_v1v2_2/StatefulPartitionedCall/efficientnet-lite0/model/blocks_2/depthwise_conv2d/depthwise", "op": "FusedDepthwiseConv2dNative", "input": ["StatefulPartitionedCall/sequential_2/hub_keras_layer_v1v2_2/StatefulPartitionedCall/efficientnet-lite0/model/blocks_2/Relu6", "StatefulPartitionedCall/sequential_2/hub_keras_layer_v1v2_2/StatefulPartitionedCall/efficientnet-lite0/model/blocks_2/depthwise_conv2d/depthwise_weights", "StatefulPartitionedCall/sequential_2/hub_keras_layer_v1v2_2/StatefulPartitionedCall/efficientnet-lite0/model/blocks_2/depthwise_conv2d/depthwise_bn_offset"], "attr": {"num_args": {"i": "1"}, "explicit_paddings": {"list": {}}, "fused_ops": {"list": {"s": ["Qmlhc0FkZA==", "UmVsdTY="]}}, "padding": {"s": "U0FNRQ=="}, "data_format": {"s": "TkhXQw=="}, "T": {"type": "DT_FLOAT"}, "strides": {"list": {"i": ["1", "1", "1", "1"]}}, "dilations": {"list": {"i": ["1", "1", "1", "1"]}}}}, {"name": "StatefulPartitionedCall/sequential_2/hub_keras_layer_v1v2_2/StatefulPartitionedCall/efficientnet-lite0/model/blocks_2/tpu_batch_normalization_2/FusedBatchNormV3", "op": "_FusedConv2D", "input": ["StatefulPartitionedCall/sequential_2/hub_keras_layer_v1v2_2/StatefulPartitionedCall/efficientnet-lite0/model/blocks_2/depthwise_conv2d/depthwise", "StatefulPartitionedCall/sequential_2/hub_keras_layer_v1v2_2/StatefulPartitionedCall/efficientnet-lite0/model/blocks_2/conv2d_1/Conv2D_weights", "StatefulPartitionedCall/sequential_2/hub_keras_layer_v1v2_2/StatefulPartitionedCall/efficientnet-lite0/model/blocks_2/conv2d_1/Conv2D_bn_offset"], "device": "/device:CPU:0", "attr": {"dilations": {"list": {"i": ["1", "1", "1", "1"]}}, "strides": {"list": {"i": ["1", "1", "1", "1"]}}, "use_cudnn_on_gpu": {"b": true}, "epsilon": {"f": 0.0}, "explicit_paddings": {"list": {}}, "num_args": {"i": "1"}, "T": {"type": "DT_FLOAT"}, "padding": {"s": "U0FNRQ=="}, "fused_ops": {"list": {"s": ["Qmlhc0FkZA=="]}}, "data_format": {"s": "TkhXQw=="}}}, {"name": "StatefulPartitionedCall/sequential_2/hub_keras_layer_v1v2_2/StatefulPartitionedCall/efficientnet-lite0/model/blocks_2/Add", "op": "Add", "input": ["StatefulPartitionedCall/sequential_2/hub_keras_layer_v1v2_2/StatefulPartitionedCall/efficientnet-lite0/model/blocks_2/tpu_batch_normalization_2/FusedBatchNormV3", "StatefulPartitionedCall/sequential_2/hub_keras_layer_v1v2_2/StatefulPartitionedCall/efficientnet-lite0/model/blocks_1/tpu_batch_normalization_2/FusedBatchNormV3"], "attr": {"T": {"type": "DT_FLOAT"}}}, {"name": "StatefulPartitionedCall/sequential_2/hub_keras_layer_v1v2_2/StatefulPartitionedCall/efficientnet-lite0/model/blocks_3/Relu6", "op": "_FusedConv2D", "input": ["StatefulPartitionedCall/sequential_2/hub_keras_layer_v1v2_2/StatefulPartitionedCall/efficientnet-lite0/model/blocks_2/Add", "StatefulPartitionedCall/sequential_2/hub_keras_layer_v1v2_2/StatefulPartitionedCall/efficientnet-lite0/model/blocks_3/conv2d/Conv2D_weights", "StatefulPartitionedCall/sequential_2/hub_keras_layer_v1v2_2/StatefulPartitionedCall/efficientnet-lite0/model/blocks_3/conv2d/Conv2D_bn_offset"], "device": "/device:CPU:0", "attr": {"epsilon": {"f": 0.0}, "explicit_paddings": {"list": {}}, "dilations": {"list": {"i": ["1", "1", "1", "1"]}}, "T": {"type": "DT_FLOAT"}, "strides": {"list": {"i": ["1", "1", "1", "1"]}}, "num_args": {"i": "1"}, "fused_ops": {"list": {"s": ["Qmlhc0FkZA==", "UmVsdTY="]}}, "data_format": {"s": "TkhXQw=="}, "padding": {"s": "U0FNRQ=="}, "use_cudnn_on_gpu": {"b": true}}}, {"name": "StatefulPartitionedCall/sequential_2/hub_keras_layer_v1v2_2/StatefulPartitionedCall/efficientnet-lite0/model/blocks_3/depthwise_conv2d/depthwise", "op": "FusedDepthwiseConv2dNative", "input": ["StatefulPartitionedCall/sequential_2/hub_keras_layer_v1v2_2/StatefulPartitionedCall/efficientnet-lite0/model/blocks_3/Relu6", "StatefulPartitionedCall/sequential_2/hub_keras_layer_v1v2_2/StatefulPartitionedCall/efficientnet-lite0/model/blocks_3/depthwise_conv2d/depthwise_weights", "StatefulPartitionedCall/sequential_2/hub_keras_layer_v1v2_2/StatefulPartitionedCall/efficientnet-lite0/model/blocks_3/depthwise_conv2d/depthwise_bn_offset"], "attr": {"dilations": {"list": {"i": ["1", "1", "1", "1"]}}, "T": {"type": "DT_FLOAT"}, "data_format": {"s": "TkhXQw=="}, "explicit_paddings": {"list": {}}, "num_args": {"i": "1"}, "strides": {"list": {"i": ["1", "2", "2", "1"]}}, "fused_ops": {"list": {"s": ["Qmlhc0FkZA==", "UmVsdTY="]}}, "padding": {"s": "U0FNRQ=="}}}, {"name": "StatefulPartitionedCall/sequential_2/hub_keras_layer_v1v2_2/StatefulPartitionedCall/efficientnet-lite0/model/blocks_3/tpu_batch_normalization_2/FusedBatchNormV3", "op": "_FusedConv2D", "input": ["StatefulPartitionedCall/sequential_2/hub_keras_layer_v1v2_2/StatefulPartitionedCall/efficientnet-lite0/model/blocks_3/depthwise_conv2d/depthwise", "StatefulPartitionedCall/sequential_2/hub_keras_layer_v1v2_2/StatefulPartitionedCall/efficientnet-lite0/model/blocks_3/conv2d_1/Conv2D_weights", "StatefulPartitionedCall/sequential_2/hub_keras_layer_v1v2_2/StatefulPartitionedCall/efficientnet-lite0/model/blocks_3/conv2d_1/Conv2D_bn_offset"], "device": "/device:CPU:0", "attr": {"epsilon": {"f": 0.0}, "padding": {"s": "U0FNRQ=="}, "num_args": {"i": "1"}, "fused_ops": {"list": {"s": ["Qmlhc0FkZA=="]}}, "explicit_paddings": {"list": {}}, "dilations": {"list": {"i": ["1", "1", "1", "1"]}}, "strides": {"list": {"i": ["1", "1", "1", "1"]}}, "data_format": {"s": "TkhXQw=="}, "T": {"type": "DT_FLOAT"}, "use_cudnn_on_gpu": {"b": true}}}, {"name": "StatefulPartitionedCall/sequential_2/hub_keras_layer_v1v2_2/StatefulPartitionedCall/efficientnet-lite0/model/blocks_4/Relu6", "op": "_FusedConv2D", "input": ["StatefulPartitionedCall/sequential_2/hub_keras_layer_v1v2_2/StatefulPartitionedCall/efficientnet-lite0/model/blocks_3/tpu_batch_normalization_2/FusedBatchNormV3", "StatefulPartitionedCall/sequential_2/hub_keras_layer_v1v2_2/StatefulPartitionedCall/efficientnet-lite0/model/blocks_4/conv2d/Conv2D_weights", "StatefulPartitionedCall/sequential_2/hub_keras_layer_v1v2_2/StatefulPartitionedCall/efficientnet-lite0/model/blocks_4/conv2d/Conv2D_bn_offset"], "device": "/device:CPU:0", "attr": {"use_cudnn_on_gpu": {"b": true}, "epsilon": {"f": 0.0}, "num_args": {"i": "1"}, "T": {"type": "DT_FLOAT"}, "strides": {"list": {"i": ["1", "1", "1", "1"]}}, "dilations": {"list": {"i": ["1", "1", "1", "1"]}}, "fused_ops": {"list": {"s": ["Qmlhc0FkZA==", "UmVsdTY="]}}, "padding": {"s": "U0FNRQ=="}, "data_format": {"s": "TkhXQw=="}, "explicit_paddings": {"list": {}}}}, {"name": "StatefulPartitionedCall/sequential_2/hub_keras_layer_v1v2_2/StatefulPartitionedCall/efficientnet-lite0/model/blocks_4/depthwise_conv2d/depthwise", "op": "FusedDepthwiseConv2dNative", "input": ["StatefulPartitionedCall/sequential_2/hub_keras_layer_v1v2_2/StatefulPartitionedCall/efficientnet-lite0/model/blocks_4/Relu6", "StatefulPartitionedCall/sequential_2/hub_keras_layer_v1v2_2/StatefulPartitionedCall/efficientnet-lite0/model/blocks_4/depthwise_conv2d/depthwise_weights", "StatefulPartitionedCall/sequential_2/hub_keras_layer_v1v2_2/StatefulPartitionedCall/efficientnet-lite0/model/blocks_4/depthwise_conv2d/depthwise_bn_offset"], "attr": {"padding": {"s": "U0FNRQ=="}, "data_format": {"s": "TkhXQw=="}, "T": {"type": "DT_FLOAT"}, "num_args": {"i": "1"}, "dilations": {"list": {"i": ["1", "1", "1", "1"]}}, "explicit_paddings": {"list": {}}, "fused_ops": {"list": {"s": ["Qmlhc0FkZA==", "UmVsdTY="]}}, "strides": {"list": {"i": ["1", "1", "1", "1"]}}}}, {"name": "StatefulPartitionedCall/sequential_2/hub_keras_layer_v1v2_2/StatefulPartitionedCall/efficientnet-lite0/model/blocks_4/tpu_batch_normalization_2/FusedBatchNormV3", "op": "_FusedConv2D", "input": ["StatefulPartitionedCall/sequential_2/hub_keras_layer_v1v2_2/StatefulPartitionedCall/efficientnet-lite0/model/blocks_4/depthwise_conv2d/depthwise", "StatefulPartitionedCall/sequential_2/hub_keras_layer_v1v2_2/StatefulPartitionedCall/efficientnet-lite0/model/blocks_4/conv2d_1/Conv2D_weights", "StatefulPartitionedCall/sequential_2/hub_keras_layer_v1v2_2/StatefulPartitionedCall/efficientnet-lite0/model/blocks_4/conv2d_1/Conv2D_bn_offset"], "device": "/device:CPU:0", "attr": {"data_format": {"s": "TkhXQw=="}, "padding": {"s": "U0FNRQ=="}, "T": {"type": "DT_FLOAT"}, "strides": {"list": {"i": ["1", "1", "1", "1"]}}, "dilations": {"list": {"i": ["1", "1", "1", "1"]}}, "fused_ops": {"list": {"s": ["Qmlhc0FkZA=="]}}, "explicit_paddings": {"list": {}}, "use_cudnn_on_gpu": {"b": true}, "num_args": {"i": "1"}, "epsilon": {"f": 0.0}}}, {"name": "StatefulPartitionedCall/sequential_2/hub_keras_layer_v1v2_2/StatefulPartitionedCall/efficientnet-lite0/model/blocks_4/Add", "op": "Add", "input": ["StatefulPartitionedCall/sequential_2/hub_keras_layer_v1v2_2/StatefulPartitionedCall/efficientnet-lite0/model/blocks_4/tpu_batch_normalization_2/FusedBatchNormV3", "StatefulPartitionedCall/sequential_2/hub_keras_layer_v1v2_2/StatefulPartitionedCall/efficientnet-lite0/model/blocks_3/tpu_batch_normalization_2/FusedBatchNormV3"], "attr": {"T": {"type": "DT_FLOAT"}}}, {"name": "StatefulPartitionedCall/sequential_2/hub_keras_layer_v1v2_2/StatefulPartitionedCall/efficientnet-lite0/model/blocks_5/Relu6", "op": "_FusedConv2D", "input": ["StatefulPartitionedCall/sequential_2/hub_keras_layer_v1v2_2/StatefulPartitionedCall/efficientnet-lite0/model/blocks_4/Add", "StatefulPartitionedCall/sequential_2/hub_keras_layer_v1v2_2/StatefulPartitionedCall/efficientnet-lite0/model/blocks_5/conv2d/Conv2D_weights", "StatefulPartitionedCall/sequential_2/hub_keras_layer_v1v2_2/StatefulPartitionedCall/efficientnet-lite0/model/blocks_5/conv2d/Conv2D_bn_offset"], "device": "/device:CPU:0", "attr": {"dilations": {"list": {"i": ["1", "1", "1", "1"]}}, "num_args": {"i": "1"}, "T": {"type": "DT_FLOAT"}, "fused_ops": {"list": {"s": ["Qmlhc0FkZA==", "UmVsdTY="]}}, "explicit_paddings": {"list": {}}, "use_cudnn_on_gpu": {"b": true}, "padding": {"s": "U0FNRQ=="}, "data_format": {"s": "TkhXQw=="}, "epsilon": {"f": 0.0}, "strides": {"list": {"i": ["1", "1", "1", "1"]}}}}, {"name": "StatefulPartitionedCall/sequential_2/hub_keras_layer_v1v2_2/StatefulPartitionedCall/efficientnet-lite0/model/blocks_5/depthwise_conv2d/depthwise", "op": "FusedDepthwiseConv2dNative", "input": ["StatefulPartitionedCall/sequential_2/hub_keras_layer_v1v2_2/StatefulPartitionedCall/efficientnet-lite0/model/blocks_5/Relu6", "StatefulPartitionedCall/sequential_2/hub_keras_layer_v1v2_2/StatefulPartitionedCall/efficientnet-lite0/model/blocks_5/depthwise_conv2d/depthwise_weights", "StatefulPartitionedCall/sequential_2/hub_keras_layer_v1v2_2/StatefulPartitionedCall/efficientnet-lite0/model/blocks_5/depthwise_conv2d/depthwise_bn_offset"], "attr": {"T": {"type": "DT_FLOAT"}, "fused_ops": {"list": {"s": ["Qmlhc0FkZA==", "UmVsdTY="]}}, "dilations": {"list": {"i": ["1", "1", "1", "1"]}}, "explicit_paddings": {"list": {}}, "data_format": {"s": "TkhXQw=="}, "strides": {"list": {"i": ["1", "2", "2", "1"]}}, "padding": {"s": "U0FNRQ=="}, "num_args": {"i": "1"}}}, {"name": "StatefulPartitionedCall/sequential_2/hub_keras_layer_v1v2_2/StatefulPartitionedCall/efficientnet-lite0/model/blocks_5/tpu_batch_normalization_2/FusedBatchNormV3", "op": "_FusedConv2D", "input": ["StatefulPartitionedCall/sequential_2/hub_keras_layer_v1v2_2/StatefulPartitionedCall/efficientnet-lite0/model/blocks_5/depthwise_conv2d/depthwise", "StatefulPartitionedCall/sequential_2/hub_keras_layer_v1v2_2/StatefulPartitionedCall/efficientnet-lite0/model/blocks_5/conv2d_1/Conv2D_weights", "StatefulPartitionedCall/sequential_2/hub_keras_layer_v1v2_2/StatefulPartitionedCall/efficientnet-lite0/model/blocks_5/conv2d_1/Conv2D_bn_offset"], "device": "/device:CPU:0", "attr": {"strides": {"list": {"i": ["1", "1", "1", "1"]}}, "dilations": {"list": {"i": ["1", "1", "1", "1"]}}, "epsilon": {"f": 0.0}, "padding": {"s": "U0FNRQ=="}, "fused_ops": {"list": {"s": ["Qmlhc0FkZA=="]}}, "T": {"type": "DT_FLOAT"}, "use_cudnn_on_gpu": {"b": true}, "data_format": {"s": "TkhXQw=="}, "explicit_paddings": {"list": {}}, "num_args": {"i": "1"}}}, {"name": "StatefulPartitionedCall/sequential_2/hub_keras_layer_v1v2_2/StatefulPartitionedCall/efficientnet-lite0/model/blocks_6/Relu6", "op": "_FusedConv2D", "input": ["StatefulPartitionedCall/sequential_2/hub_keras_layer_v1v2_2/StatefulPartitionedCall/efficientnet-lite0/model/blocks_5/tpu_batch_normalization_2/FusedBatchNormV3", "StatefulPartitionedCall/sequential_2/hub_keras_layer_v1v2_2/StatefulPartitionedCall/efficientnet-lite0/model/blocks_6/conv2d/Conv2D_weights", "StatefulPartitionedCall/sequential_2/hub_keras_layer_v1v2_2/StatefulPartitionedCall/efficientnet-lite0/model/blocks_6/conv2d/Conv2D_bn_offset"], "device": "/device:CPU:0", "attr": {"use_cudnn_on_gpu": {"b": true}, "T": {"type": "DT_FLOAT"}, "dilations": {"list": {"i": ["1", "1", "1", "1"]}}, "padding": {"s": "U0FNRQ=="}, "num_args": {"i": "1"}, "data_format": {"s": "TkhXQw=="}, "epsilon": {"f": 0.0}, "explicit_paddings": {"list": {}}, "strides": {"list": {"i": ["1", "1", "1", "1"]}}, "fused_ops": {"list": {"s": ["Qmlhc0FkZA==", "UmVsdTY="]}}}}, {"name": "StatefulPartitionedCall/sequential_2/hub_keras_layer_v1v2_2/StatefulPartitionedCall/efficientnet-lite0/model/blocks_6/depthwise_conv2d/depthwise", "op": "FusedDepthwiseConv2dNative", "input": ["StatefulPartitionedCall/sequential_2/hub_keras_layer_v1v2_2/StatefulPartitionedCall/efficientnet-lite0/model/blocks_6/Relu6", "StatefulPartitionedCall/sequential_2/hub_keras_layer_v1v2_2/StatefulPartitionedCall/efficientnet-lite0/model/blocks_6/depthwise_conv2d/depthwise_weights", "StatefulPartitionedCall/sequential_2/hub_keras_layer_v1v2_2/StatefulPartitionedCall/efficientnet-lite0/model/blocks_6/depthwise_conv2d/depthwise_bn_offset"], "attr": {"strides": {"list": {"i": ["1", "1", "1", "1"]}}, "T": {"type": "DT_FLOAT"}, "fused_ops": {"list": {"s": ["Qmlhc0FkZA==", "UmVsdTY="]}}, "dilations": {"list": {"i": ["1", "1", "1", "1"]}}, "data_format": {"s": "TkhXQw=="}, "explicit_paddings": {"list": {}}, "num_args": {"i": "1"}, "padding": {"s": "U0FNRQ=="}}}, {"name": "StatefulPartitionedCall/sequential_2/hub_keras_layer_v1v2_2/StatefulPartitionedCall/efficientnet-lite0/model/blocks_6/tpu_batch_normalization_2/FusedBatchNormV3", "op": "_FusedConv2D", "input": ["StatefulPartitionedCall/sequential_2/hub_keras_layer_v1v2_2/StatefulPartitionedCall/efficientnet-lite0/model/blocks_6/depthwise_conv2d/depthwise", "StatefulPartitionedCall/sequential_2/hub_keras_layer_v1v2_2/StatefulPartitionedCall/efficientnet-lite0/model/blocks_6/conv2d_1/Conv2D_weights", "StatefulPartitionedCall/sequential_2/hub_keras_layer_v1v2_2/StatefulPartitionedCall/efficientnet-lite0/model/blocks_6/conv2d_1/Conv2D_bn_offset"], "device": "/device:CPU:0", "attr": {"num_args": {"i": "1"}, "epsilon": {"f": 0.0}, "data_format": {"s": "TkhXQw=="}, "strides": {"list": {"i": ["1", "1", "1", "1"]}}, "fused_ops": {"list": {"s": ["Qmlhc0FkZA=="]}}, "dilations": {"list": {"i": ["1", "1", "1", "1"]}}, "use_cudnn_on_gpu": {"b": true}, "padding": {"s": "U0FNRQ=="}, "explicit_paddings": {"list": {}}, "T": {"type": "DT_FLOAT"}}}, {"name": "StatefulPartitionedCall/sequential_2/hub_keras_layer_v1v2_2/StatefulPartitionedCall/efficientnet-lite0/model/blocks_6/Add", "op": "Add", "input": ["StatefulPartitionedCall/sequential_2/hub_keras_layer_v1v2_2/StatefulPartitionedCall/efficientnet-lite0/model/blocks_6/tpu_batch_normalization_2/FusedBatchNormV3", "StatefulPartitionedCall/sequential_2/hub_keras_layer_v1v2_2/StatefulPartitionedCall/efficientnet-lite0/model/blocks_5/tpu_batch_normalization_2/FusedBatchNormV3"], "attr": {"T": {"type": "DT_FLOAT"}}}, {"name": "StatefulPartitionedCall/sequential_2/hub_keras_layer_v1v2_2/StatefulPartitionedCall/efficientnet-lite0/model/blocks_7/Relu6", "op": "_FusedConv2D", "input": ["StatefulPartitionedCall/sequential_2/hub_keras_layer_v1v2_2/StatefulPartitionedCall/efficientnet-lite0/model/blocks_6/Add", "StatefulPartitionedCall/sequential_2/hub_keras_layer_v1v2_2/StatefulPartitionedCall/efficientnet-lite0/model/blocks_7/conv2d/Conv2D_weights", "StatefulPartitionedCall/sequential_2/hub_keras_layer_v1v2_2/StatefulPartitionedCall/efficientnet-lite0/model/blocks_7/conv2d/Conv2D_bn_offset"], "device": "/device:CPU:0", "attr": {"fused_ops": {"list": {"s": ["Qmlhc0FkZA==", "UmVsdTY="]}}, "epsilon": {"f": 0.0}, "T": {"type": "DT_FLOAT"}, "padding": {"s": "U0FNRQ=="}, "num_args": {"i": "1"}, "data_format": {"s": "TkhXQw=="}, "use_cudnn_on_gpu": {"b": true}, "dilations": {"list": {"i": ["1", "1", "1", "1"]}}, "strides": {"list": {"i": ["1", "1", "1", "1"]}}, "explicit_paddings": {"list": {}}}}, {"name": "StatefulPartitionedCall/sequential_2/hub_keras_layer_v1v2_2/StatefulPartitionedCall/efficientnet-lite0/model/blocks_7/depthwise_conv2d/depthwise", "op": "FusedDepthwiseConv2dNative", "input": ["StatefulPartitionedCall/sequential_2/hub_keras_layer_v1v2_2/StatefulPartitionedCall/efficientnet-lite0/model/blocks_7/Relu6", "StatefulPartitionedCall/sequential_2/hub_keras_layer_v1v2_2/StatefulPartitionedCall/efficientnet-lite0/model/blocks_7/depthwise_conv2d/depthwise_weights", "StatefulPartitionedCall/sequential_2/hub_keras_layer_v1v2_2/StatefulPartitionedCall/efficientnet-lite0/model/blocks_7/depthwise_conv2d/depthwise_bn_offset"], "attr": {"padding": {"s": "U0FNRQ=="}, "fused_ops": {"list": {"s": ["Qmlhc0FkZA==", "UmVsdTY="]}}, "data_format": {"s": "TkhXQw=="}, "strides": {"list": {"i": ["1", "1", "1", "1"]}}, "num_args": {"i": "1"}, "T": {"type": "DT_FLOAT"}, "dilations": {"list": {"i": ["1", "1", "1", "1"]}}, "explicit_paddings": {"list": {}}}}, {"name": "StatefulPartitionedCall/sequential_2/hub_keras_layer_v1v2_2/StatefulPartitionedCall/efficientnet-lite0/model/blocks_7/tpu_batch_normalization_2/FusedBatchNormV3", "op": "_FusedConv2D", "input": ["StatefulPartitionedCall/sequential_2/hub_keras_layer_v1v2_2/StatefulPartitionedCall/efficientnet-lite0/model/blocks_7/depthwise_conv2d/depthwise", "StatefulPartitionedCall/sequential_2/hub_keras_layer_v1v2_2/StatefulPartitionedCall/efficientnet-lite0/model/blocks_7/conv2d_1/Conv2D_weights", "StatefulPartitionedCall/sequential_2/hub_keras_layer_v1v2_2/StatefulPartitionedCall/efficientnet-lite0/model/blocks_7/conv2d_1/Conv2D_bn_offset"], "device": "/device:CPU:0", "attr": {"strides": {"list": {"i": ["1", "1", "1", "1"]}}, "T": {"type": "DT_FLOAT"}, "use_cudnn_on_gpu": {"b": true}, "num_args": {"i": "1"}, "padding": {"s": "U0FNRQ=="}, "data_format": {"s": "TkhXQw=="}, "epsilon": {"f": 0.0}, "fused_ops": {"list": {"s": ["Qmlhc0FkZA=="]}}, "explicit_paddings": {"list": {}}, "dilations": {"list": {"i": ["1", "1", "1", "1"]}}}}, {"name": "StatefulPartitionedCall/sequential_2/hub_keras_layer_v1v2_2/StatefulPartitionedCall/efficientnet-lite0/model/blocks_7/Add", "op": "Add", "input": ["StatefulPartitionedCall/sequential_2/hub_keras_layer_v1v2_2/StatefulPartitionedCall/efficientnet-lite0/model/blocks_7/tpu_batch_normalization_2/FusedBatchNormV3", "StatefulPartitionedCall/sequential_2/hub_keras_layer_v1v2_2/StatefulPartitionedCall/efficientnet-lite0/model/blocks_6/Add"], "attr": {"T": {"type": "DT_FLOAT"}}}, {"name": "StatefulPartitionedCall/sequential_2/hub_keras_layer_v1v2_2/StatefulPartitionedCall/efficientnet-lite0/model/blocks_8/Relu6", "op": "_FusedConv2D", "input": ["StatefulPartitionedCall/sequential_2/hub_keras_layer_v1v2_2/StatefulPartitionedCall/efficientnet-lite0/model/blocks_7/Add", "StatefulPartitionedCall/sequential_2/hub_keras_layer_v1v2_2/StatefulPartitionedCall/efficientnet-lite0/model/blocks_8/conv2d/Conv2D_weights", "StatefulPartitionedCall/sequential_2/hub_keras_layer_v1v2_2/StatefulPartitionedCall/efficientnet-lite0/model/blocks_8/conv2d/Conv2D_bn_offset"], "device": "/device:CPU:0", "attr": {"epsilon": {"f": 0.0}, "T": {"type": "DT_FLOAT"}, "data_format": {"s": "TkhXQw=="}, "strides": {"list": {"i": ["1", "1", "1", "1"]}}, "num_args": {"i": "1"}, "use_cudnn_on_gpu": {"b": true}, "padding": {"s": "U0FNRQ=="}, "dilations": {"list": {"i": ["1", "1", "1", "1"]}}, "explicit_paddings": {"list": {}}, "fused_ops": {"list": {"s": ["Qmlhc0FkZA==", "UmVsdTY="]}}}}, {"name": "StatefulPartitionedCall/sequential_2/hub_keras_layer_v1v2_2/StatefulPartitionedCall/efficientnet-lite0/model/blocks_8/depthwise_conv2d/depthwise", "op": "FusedDepthwiseConv2dNative", "input": ["StatefulPartitionedCall/sequential_2/hub_keras_layer_v1v2_2/StatefulPartitionedCall/efficientnet-lite0/model/blocks_8/Relu6", "StatefulPartitionedCall/sequential_2/hub_keras_layer_v1v2_2/StatefulPartitionedCall/efficientnet-lite0/model/blocks_8/depthwise_conv2d/depthwise_weights", "StatefulPartitionedCall/sequential_2/hub_keras_layer_v1v2_2/StatefulPartitionedCall/efficientnet-lite0/model/blocks_8/depthwise_conv2d/depthwise_bn_offset"], "attr": {"num_args": {"i": "1"}, "padding": {"s": "U0FNRQ=="}, "fused_ops": {"list": {"s": ["Qmlhc0FkZA==", "UmVsdTY="]}}, "strides": {"list": {"i": ["1", "1", "1", "1"]}}, "data_format": {"s": "TkhXQw=="}, "dilations": {"list": {"i": ["1", "1", "1", "1"]}}, "T": {"type": "DT_FLOAT"}, "explicit_paddings": {"list": {}}}}, {"name": "StatefulPartitionedCall/sequential_2/hub_keras_layer_v1v2_2/StatefulPartitionedCall/efficientnet-lite0/model/blocks_8/tpu_batch_normalization_2/FusedBatchNormV3", "op": "_FusedConv2D", "input": ["StatefulPartitionedCall/sequential_2/hub_keras_layer_v1v2_2/StatefulPartitionedCall/efficientnet-lite0/model/blocks_8/depthwise_conv2d/depthwise", "StatefulPartitionedCall/sequential_2/hub_keras_layer_v1v2_2/StatefulPartitionedCall/efficientnet-lite0/model/blocks_8/conv2d_1/Conv2D_weights", "StatefulPartitionedCall/sequential_2/hub_keras_layer_v1v2_2/StatefulPartitionedCall/efficientnet-lite0/model/blocks_8/conv2d_1/Conv2D_bn_offset"], "device": "/device:CPU:0", "attr": {"data_format": {"s": "TkhXQw=="}, "strides": {"list": {"i": ["1", "1", "1", "1"]}}, "fused_ops": {"list": {"s": ["Qmlhc0FkZA=="]}}, "explicit_paddings": {"list": {}}, "dilations": {"list": {"i": ["1", "1", "1", "1"]}}, "epsilon": {"f": 0.0}, "T": {"type": "DT_FLOAT"}, "num_args": {"i": "1"}, "use_cudnn_on_gpu": {"b": true}, "padding": {"s": "U0FNRQ=="}}}, {"name": "StatefulPartitionedCall/sequential_2/hub_keras_layer_v1v2_2/StatefulPartitionedCall/efficientnet-lite0/model/blocks_9/Relu6", "op": "_FusedConv2D", "input": ["StatefulPartitionedCall/sequential_2/hub_keras_layer_v1v2_2/StatefulPartitionedCall/efficientnet-lite0/model/blocks_8/tpu_batch_normalization_2/FusedBatchNormV3", "StatefulPartitionedCall/sequential_2/hub_keras_layer_v1v2_2/StatefulPartitionedCall/efficientnet-lite0/model/blocks_9/conv2d/Conv2D_weights", "StatefulPartitionedCall/sequential_2/hub_keras_layer_v1v2_2/StatefulPartitionedCall/efficientnet-lite0/model/blocks_9/conv2d/Conv2D_bn_offset"], "device": "/device:CPU:0", "attr": {"T": {"type": "DT_FLOAT"}, "epsilon": {"f": 0.0}, "data_format": {"s": "TkhXQw=="}, "fused_ops": {"list": {"s": ["Qmlhc0FkZA==", "UmVsdTY="]}}, "use_cudnn_on_gpu": {"b": true}, "num_args": {"i": "1"}, "explicit_paddings": {"list": {}}, "dilations": {"list": {"i": ["1", "1", "1", "1"]}}, "strides": {"list": {"i": ["1", "1", "1", "1"]}}, "padding": {"s": "U0FNRQ=="}}}, {"name": "StatefulPartitionedCall/sequential_2/hub_keras_layer_v1v2_2/StatefulPartitionedCall/efficientnet-lite0/model/blocks_9/depthwise_conv2d/depthwise", "op": "FusedDepthwiseConv2dNative", "input": ["StatefulPartitionedCall/sequential_2/hub_keras_layer_v1v2_2/StatefulPartitionedCall/efficientnet-lite0/model/blocks_9/Relu6", "StatefulPartitionedCall/sequential_2/hub_keras_layer_v1v2_2/StatefulPartitionedCall/efficientnet-lite0/model/blocks_9/depthwise_conv2d/depthwise_weights", "StatefulPartitionedCall/sequential_2/hub_keras_layer_v1v2_2/StatefulPartitionedCall/efficientnet-lite0/model/blocks_9/depthwise_conv2d/depthwise_bn_offset"], "attr": {"num_args": {"i": "1"}, "dilations": {"list": {"i": ["1", "1", "1", "1"]}}, "padding": {"s": "U0FNRQ=="}, "fused_ops": {"list": {"s": ["Qmlhc0FkZA==", "UmVsdTY="]}}, "data_format": {"s": "TkhXQw=="}, "strides": {"list": {"i": ["1", "1", "1", "1"]}}, "explicit_paddings": {"list": {}}, "T": {"type": "DT_FLOAT"}}}, {"name": "StatefulPartitionedCall/sequential_2/hub_keras_layer_v1v2_2/StatefulPartitionedCall/efficientnet-lite0/model/blocks_9/tpu_batch_normalization_2/FusedBatchNormV3", "op": "_FusedConv2D", "input": ["StatefulPartitionedCall/sequential_2/hub_keras_layer_v1v2_2/StatefulPartitionedCall/efficientnet-lite0/model/blocks_9/depthwise_conv2d/depthwise", "StatefulPartitionedCall/sequential_2/hub_keras_layer_v1v2_2/StatefulPartitionedCall/efficientnet-lite0/model/blocks_9/conv2d_1/Conv2D_weights", "StatefulPartitionedCall/sequential_2/hub_keras_layer_v1v2_2/StatefulPartitionedCall/efficientnet-lite0/model/blocks_9/conv2d_1/Conv2D_bn_offset"], "device": "/device:CPU:0", "attr": {"use_cudnn_on_gpu": {"b": true}, "epsilon": {"f": 0.0}, "padding": {"s": "U0FNRQ=="}, "num_args": {"i": "1"}, "T": {"type": "DT_FLOAT"}, "dilations": {"list": {"i": ["1", "1", "1", "1"]}}, "explicit_paddings": {"list": {}}, "strides": {"list": {"i": ["1", "1", "1", "1"]}}, "fused_ops": {"list": {"s": ["Qmlhc0FkZA=="]}}, "data_format": {"s": "TkhXQw=="}}}, {"name": "StatefulPartitionedCall/sequential_2/hub_keras_layer_v1v2_2/StatefulPartitionedCall/efficientnet-lite0/model/blocks_9/Add", "op": "Add", "input": ["StatefulPartitionedCall/sequential_2/hub_keras_layer_v1v2_2/StatefulPartitionedCall/efficientnet-lite0/model/blocks_9/tpu_batch_normalization_2/FusedBatchNormV3", "StatefulPartitionedCall/sequential_2/hub_keras_layer_v1v2_2/StatefulPartitionedCall/efficientnet-lite0/model/blocks_8/tpu_batch_normalization_2/FusedBatchNormV3"], "attr": {"T": {"type": "DT_FLOAT"}}}, {"name": "StatefulPartitionedCall/sequential_2/hub_keras_layer_v1v2_2/StatefulPartitionedCall/efficientnet-lite0/model/blocks_10/Relu6", "op": "_FusedConv2D", "input": ["StatefulPartitionedCall/sequential_2/hub_keras_layer_v1v2_2/StatefulPartitionedCall/efficientnet-lite0/model/blocks_9/Add", "StatefulPartitionedCall/sequential_2/hub_keras_layer_v1v2_2/StatefulPartitionedCall/efficientnet-lite0/model/blocks_10/conv2d/Conv2D_weights", "StatefulPartitionedCall/sequential_2/hub_keras_layer_v1v2_2/StatefulPartitionedCall/efficientnet-lite0/model/blocks_10/conv2d/Conv2D_bn_offset"], "device": "/device:CPU:0", "attr": {"T": {"type": "DT_FLOAT"}, "data_format": {"s": "TkhXQw=="}, "dilations": {"list": {"i": ["1", "1", "1", "1"]}}, "epsilon": {"f": 0.0}, "use_cudnn_on_gpu": {"b": true}, "padding": {"s": "U0FNRQ=="}, "strides": {"list": {"i": ["1", "1", "1", "1"]}}, "explicit_paddings": {"list": {}}, "fused_ops": {"list": {"s": ["Qmlhc0FkZA==", "UmVsdTY="]}}, "num_args": {"i": "1"}}}, {"name": "StatefulPartitionedCall/sequential_2/hub_keras_layer_v1v2_2/StatefulPartitionedCall/efficientnet-lite0/model/blocks_10/depthwise_conv2d/depthwise", "op": "FusedDepthwiseConv2dNative", "input": ["StatefulPartitionedCall/sequential_2/hub_keras_layer_v1v2_2/StatefulPartitionedCall/efficientnet-lite0/model/blocks_10/Relu6", "StatefulPartitionedCall/sequential_2/hub_keras_layer_v1v2_2/StatefulPartitionedCall/efficientnet-lite0/model/blocks_10/depthwise_conv2d/depthwise_weights", "StatefulPartitionedCall/sequential_2/hub_keras_layer_v1v2_2/StatefulPartitionedCall/efficientnet-lite0/model/blocks_10/depthwise_conv2d/depthwise_bn_offset"], "attr": {"padding": {"s": "U0FNRQ=="}, "dilations": {"list": {"i": ["1", "1", "1", "1"]}}, "strides": {"list": {"i": ["1", "1", "1", "1"]}}, "num_args": {"i": "1"}, "explicit_paddings": {"list": {}}, "data_format": {"s": "TkhXQw=="}, "T": {"type": "DT_FLOAT"}, "fused_ops": {"list": {"s": ["Qmlhc0FkZA==", "UmVsdTY="]}}}}, {"name": "StatefulPartitionedCall/sequential_2/hub_keras_layer_v1v2_2/StatefulPartitionedCall/efficientnet-lite0/model/blocks_10/tpu_batch_normalization_2/FusedBatchNormV3", "op": "_FusedConv2D", "input": ["StatefulPartitionedCall/sequential_2/hub_keras_layer_v1v2_2/StatefulPartitionedCall/efficientnet-lite0/model/blocks_10/depthwise_conv2d/depthwise", "StatefulPartitionedCall/sequential_2/hub_keras_layer_v1v2_2/StatefulPartitionedCall/efficientnet-lite0/model/blocks_10/conv2d_1/Conv2D_weights", "StatefulPartitionedCall/sequential_2/hub_keras_layer_v1v2_2/StatefulPartitionedCall/efficientnet-lite0/model/blocks_10/conv2d_1/Conv2D_bn_offset"], "device": "/device:CPU:0", "attr": {"epsilon": {"f": 0.0}, "dilations": {"list": {"i": ["1", "1", "1", "1"]}}, "explicit_paddings": {"list": {}}, "use_cudnn_on_gpu": {"b": true}, "data_format": {"s": "TkhXQw=="}, "padding": {"s": "U0FNRQ=="}, "T": {"type": "DT_FLOAT"}, "strides": {"list": {"i": ["1", "1", "1", "1"]}}, "fused_ops": {"list": {"s": ["Qmlhc0FkZA=="]}}, "num_args": {"i": "1"}}}, {"name": "StatefulPartitionedCall/sequential_2/hub_keras_layer_v1v2_2/StatefulPartitionedCall/efficientnet-lite0/model/blocks_10/Add", "op": "Add", "input": ["StatefulPartitionedCall/sequential_2/hub_keras_layer_v1v2_2/StatefulPartitionedCall/efficientnet-lite0/model/blocks_10/tpu_batch_normalization_2/FusedBatchNormV3", "StatefulPartitionedCall/sequential_2/hub_keras_layer_v1v2_2/StatefulPartitionedCall/efficientnet-lite0/model/blocks_9/Add"], "attr": {"T": {"type": "DT_FLOAT"}}}, {"name": "StatefulPartitionedCall/sequential_2/hub_keras_layer_v1v2_2/StatefulPartitionedCall/efficientnet-lite0/model/blocks_11/Relu6", "op": "_FusedConv2D", "input": ["StatefulPartitionedCall/sequential_2/hub_keras_layer_v1v2_2/StatefulPartitionedCall/efficientnet-lite0/model/blocks_10/Add", "StatefulPartitionedCall/sequential_2/hub_keras_layer_v1v2_2/StatefulPartitionedCall/efficientnet-lite0/model/blocks_11/conv2d/Conv2D_weights", "StatefulPartitionedCall/sequential_2/hub_keras_layer_v1v2_2/StatefulPartitionedCall/efficientnet-lite0/model/blocks_11/conv2d/Conv2D_bn_offset"], "device": "/device:CPU:0", "attr": {"use_cudnn_on_gpu": {"b": true}, "num_args": {"i": "1"}, "data_format": {"s": "TkhXQw=="}, "padding": {"s": "U0FNRQ=="}, "explicit_paddings": {"list": {}}, "epsilon": {"f": 0.0}, "strides": {"list": {"i": ["1", "1", "1", "1"]}}, "fused_ops": {"list": {"s": ["Qmlhc0FkZA==", "UmVsdTY="]}}, "dilations": {"list": {"i": ["1", "1", "1", "1"]}}, "T": {"type": "DT_FLOAT"}}}, {"name": "StatefulPartitionedCall/sequential_2/hub_keras_layer_v1v2_2/StatefulPartitionedCall/efficientnet-lite0/model/blocks_11/depthwise_conv2d/depthwise", "op": "FusedDepthwiseConv2dNative", "input": ["StatefulPartitionedCall/sequential_2/hub_keras_layer_v1v2_2/StatefulPartitionedCall/efficientnet-lite0/model/blocks_11/Relu6", "StatefulPartitionedCall/sequential_2/hub_keras_layer_v1v2_2/StatefulPartitionedCall/efficientnet-lite0/model/blocks_11/depthwise_conv2d/depthwise_weights", "StatefulPartitionedCall/sequential_2/hub_keras_layer_v1v2_2/StatefulPartitionedCall/efficientnet-lite0/model/blocks_11/depthwise_conv2d/depthwise_bn_offset"], "attr": {"num_args": {"i": "1"}, "padding": {"s": "U0FNRQ=="}, "fused_ops": {"list": {"s": ["Qmlhc0FkZA==", "UmVsdTY="]}}, "data_format": {"s": "TkhXQw=="}, "T": {"type": "DT_FLOAT"}, "dilations": {"list": {"i": ["1", "1", "1", "1"]}}, "strides": {"list": {"i": ["1", "2", "2", "1"]}}, "explicit_paddings": {"list": {}}}}, {"name": "StatefulPartitionedCall/sequential_2/hub_keras_layer_v1v2_2/StatefulPartitionedCall/efficientnet-lite0/model/blocks_11/tpu_batch_normalization_2/FusedBatchNormV3", "op": "_FusedConv2D", "input": ["StatefulPartitionedCall/sequential_2/hub_keras_layer_v1v2_2/StatefulPartitionedCall/efficientnet-lite0/model/blocks_11/depthwise_conv2d/depthwise", "StatefulPartitionedCall/sequential_2/hub_keras_layer_v1v2_2/StatefulPartitionedCall/efficientnet-lite0/model/blocks_11/conv2d_1/Conv2D_weights", "StatefulPartitionedCall/sequential_2/hub_keras_layer_v1v2_2/StatefulPartitionedCall/efficientnet-lite0/model/blocks_11/conv2d_1/Conv2D_bn_offset"], "device": "/device:CPU:0", "attr": {"explicit_paddings": {"list": {}}, "epsilon": {"f": 0.0}, "data_format": {"s": "TkhXQw=="}, "strides": {"list": {"i": ["1", "1", "1", "1"]}}, "num_args": {"i": "1"}, "dilations": {"list": {"i": ["1", "1", "1", "1"]}}, "padding": {"s": "U0FNRQ=="}, "T": {"type": "DT_FLOAT"}, "fused_ops": {"list": {"s": ["Qmlhc0FkZA=="]}}, "use_cudnn_on_gpu": {"b": true}}}, {"name": "StatefulPartitionedCall/sequential_2/hub_keras_layer_v1v2_2/StatefulPartitionedCall/efficientnet-lite0/model/blocks_12/Relu6", "op": "_FusedConv2D", "input": ["StatefulPartitionedCall/sequential_2/hub_keras_layer_v1v2_2/StatefulPartitionedCall/efficientnet-lite0/model/blocks_11/tpu_batch_normalization_2/FusedBatchNormV3", "StatefulPartitionedCall/sequential_2/hub_keras_layer_v1v2_2/StatefulPartitionedCall/efficientnet-lite0/model/blocks_12/conv2d/Conv2D_weights", "StatefulPartitionedCall/sequential_2/hub_keras_layer_v1v2_2/StatefulPartitionedCall/efficientnet-lite0/model/blocks_12/conv2d/Conv2D_bn_offset"], "device": "/device:CPU:0", "attr": {"T": {"type": "DT_FLOAT"}, "fused_ops": {"list": {"s": ["Qmlhc0FkZA==", "UmVsdTY="]}}, "epsilon": {"f": 0.0}, "use_cudnn_on_gpu": {"b": true}, "padding": {"s": "U0FNRQ=="}, "dilations": {"list": {"i": ["1", "1", "1", "1"]}}, "explicit_paddings": {"list": {}}, "num_args": {"i": "1"}, "data_format": {"s": "TkhXQw=="}, "strides": {"list": {"i": ["1", "1", "1", "1"]}}}}, {"name": "StatefulPartitionedCall/sequential_2/hub_keras_layer_v1v2_2/StatefulPartitionedCall/efficientnet-lite0/model/blocks_12/depthwise_conv2d/depthwise", "op": "FusedDepthwiseConv2dNative", "input": ["StatefulPartitionedCall/sequential_2/hub_keras_layer_v1v2_2/StatefulPartitionedCall/efficientnet-lite0/model/blocks_12/Relu6", "StatefulPartitionedCall/sequential_2/hub_keras_layer_v1v2_2/StatefulPartitionedCall/efficientnet-lite0/model/blocks_12/depthwise_conv2d/depthwise_weights", "StatefulPartitionedCall/sequential_2/hub_keras_layer_v1v2_2/StatefulPartitionedCall/efficientnet-lite0/model/blocks_12/depthwise_conv2d/depthwise_bn_offset"], "attr": {"padding": {"s": "U0FNRQ=="}, "T": {"type": "DT_FLOAT"}, "explicit_paddings": {"list": {}}, "fused_ops": {"list": {"s": ["Qmlhc0FkZA==", "UmVsdTY="]}}, "num_args": {"i": "1"}, "data_format": {"s": "TkhXQw=="}, "strides": {"list": {"i": ["1", "1", "1", "1"]}}, "dilations": {"list": {"i": ["1", "1", "1", "1"]}}}}, {"name": "StatefulPartitionedCall/sequential_2/hub_keras_layer_v1v2_2/StatefulPartitionedCall/efficientnet-lite0/model/blocks_12/tpu_batch_normalization_2/FusedBatchNormV3", "op": "_FusedConv2D", "input": ["StatefulPartitionedCall/sequential_2/hub_keras_layer_v1v2_2/StatefulPartitionedCall/efficientnet-lite0/model/blocks_12/depthwise_conv2d/depthwise", "StatefulPartitionedCall/sequential_2/hub_keras_layer_v1v2_2/StatefulPartitionedCall/efficientnet-lite0/model/blocks_12/conv2d_1/Conv2D_weights", "StatefulPartitionedCall/sequential_2/hub_keras_layer_v1v2_2/StatefulPartitionedCall/efficientnet-lite0/model/blocks_12/conv2d_1/Conv2D_bn_offset"], "device": "/device:CPU:0", "attr": {"data_format": {"s": "TkhXQw=="}, "fused_ops": {"list": {"s": ["Qmlhc0FkZA=="]}}, "dilations": {"list": {"i": ["1", "1", "1", "1"]}}, "use_cudnn_on_gpu": {"b": true}, "explicit_paddings": {"list": {}}, "num_args": {"i": "1"}, "T": {"type": "DT_FLOAT"}, "strides": {"list": {"i": ["1", "1", "1", "1"]}}, "epsilon": {"f": 0.0}, "padding": {"s": "U0FNRQ=="}}}, {"name": "StatefulPartitionedCall/sequential_2/hub_keras_layer_v1v2_2/StatefulPartitionedCall/efficientnet-lite0/model/blocks_12/Add", "op": "Add", "input": ["StatefulPartitionedCall/sequential_2/hub_keras_layer_v1v2_2/StatefulPartitionedCall/efficientnet-lite0/model/blocks_12/tpu_batch_normalization_2/FusedBatchNormV3", "StatefulPartitionedCall/sequential_2/hub_keras_layer_v1v2_2/StatefulPartitionedCall/efficientnet-lite0/model/blocks_11/tpu_batch_normalization_2/FusedBatchNormV3"], "attr": {"T": {"type": "DT_FLOAT"}}}, {"name": "StatefulPartitionedCall/sequential_2/hub_keras_layer_v1v2_2/StatefulPartitionedCall/efficientnet-lite0/model/blocks_13/Relu6", "op": "_FusedConv2D", "input": ["StatefulPartitionedCall/sequential_2/hub_keras_layer_v1v2_2/StatefulPartitionedCall/efficientnet-lite0/model/blocks_12/Add", "StatefulPartitionedCall/sequential_2/hub_keras_layer_v1v2_2/StatefulPartitionedCall/efficientnet-lite0/model/blocks_13/conv2d/Conv2D_weights", "StatefulPartitionedCall/sequential_2/hub_keras_layer_v1v2_2/StatefulPartitionedCall/efficientnet-lite0/model/blocks_13/conv2d/Conv2D_bn_offset"], "device": "/device:CPU:0", "attr": {"strides": {"list": {"i": ["1", "1", "1", "1"]}}, "epsilon": {"f": 0.0}, "num_args": {"i": "1"}, "fused_ops": {"list": {"s": ["Qmlhc0FkZA==", "UmVsdTY="]}}, "dilations": {"list": {"i": ["1", "1", "1", "1"]}}, "use_cudnn_on_gpu": {"b": true}, "padding": {"s": "U0FNRQ=="}, "data_format": {"s": "TkhXQw=="}, "explicit_paddings": {"list": {}}, "T": {"type": "DT_FLOAT"}}}, {"name": "StatefulPartitionedCall/sequential_2/hub_keras_layer_v1v2_2/StatefulPartitionedCall/efficientnet-lite0/model/blocks_13/depthwise_conv2d/depthwise", "op": "FusedDepthwiseConv2dNative", "input": ["StatefulPartitionedCall/sequential_2/hub_keras_layer_v1v2_2/StatefulPartitionedCall/efficientnet-lite0/model/blocks_13/Relu6", "StatefulPartitionedCall/sequential_2/hub_keras_layer_v1v2_2/StatefulPartitionedCall/efficientnet-lite0/model/blocks_13/depthwise_conv2d/depthwise_weights", "StatefulPartitionedCall/sequential_2/hub_keras_layer_v1v2_2/StatefulPartitionedCall/efficientnet-lite0/model/blocks_13/depthwise_conv2d/depthwise_bn_offset"], "attr": {"strides": {"list": {"i": ["1", "1", "1", "1"]}}, "padding": {"s": "U0FNRQ=="}, "T": {"type": "DT_FLOAT"}, "explicit_paddings": {"list": {}}, "fused_ops": {"list": {"s": ["Qmlhc0FkZA==", "UmVsdTY="]}}, "data_format": {"s": "TkhXQw=="}, "dilations": {"list": {"i": ["1", "1", "1", "1"]}}, "num_args": {"i": "1"}}}, {"name": "StatefulPartitionedCall/sequential_2/hub_keras_layer_v1v2_2/StatefulPartitionedCall/efficientnet-lite0/model/blocks_13/tpu_batch_normalization_2/FusedBatchNormV3", "op": "_FusedConv2D", "input": ["StatefulPartitionedCall/sequential_2/hub_keras_layer_v1v2_2/StatefulPartitionedCall/efficientnet-lite0/model/blocks_13/depthwise_conv2d/depthwise", "StatefulPartitionedCall/sequential_2/hub_keras_layer_v1v2_2/StatefulPartitionedCall/efficientnet-lite0/model/blocks_13/conv2d_1/Conv2D_weights", "StatefulPartitionedCall/sequential_2/hub_keras_layer_v1v2_2/StatefulPartitionedCall/efficientnet-lite0/model/blocks_13/conv2d_1/Conv2D_bn_offset"], "device": "/device:CPU:0", "attr": {"data_format": {"s": "TkhXQw=="}, "strides": {"list": {"i": ["1", "1", "1", "1"]}}, "epsilon": {"f": 0.0}, "dilations": {"list": {"i": ["1", "1", "1", "1"]}}, "num_args": {"i": "1"}, "T": {"type": "DT_FLOAT"}, "explicit_paddings": {"list": {}}, "fused_ops": {"list": {"s": ["Qmlhc0FkZA=="]}}, "padding": {"s": "U0FNRQ=="}, "use_cudnn_on_gpu": {"b": true}}}, {"name": "StatefulPartitionedCall/sequential_2/hub_keras_layer_v1v2_2/StatefulPartitionedCall/efficientnet-lite0/model/blocks_13/Add", "op": "Add", "input": ["StatefulPartitionedCall/sequential_2/hub_keras_layer_v1v2_2/StatefulPartitionedCall/efficientnet-lite0/model/blocks_13/tpu_batch_normalization_2/FusedBatchNormV3", "StatefulPartitionedCall/sequential_2/hub_keras_layer_v1v2_2/StatefulPartitionedCall/efficientnet-lite0/model/blocks_12/Add"], "attr": {"T": {"type": "DT_FLOAT"}}}, {"name": "StatefulPartitionedCall/sequential_2/hub_keras_layer_v1v2_2/StatefulPartitionedCall/efficientnet-lite0/model/blocks_14/Relu6", "op": "_FusedConv2D", "input": ["StatefulPartitionedCall/sequential_2/hub_keras_layer_v1v2_2/StatefulPartitionedCall/efficientnet-lite0/model/blocks_13/Add", "StatefulPartitionedCall/sequential_2/hub_keras_layer_v1v2_2/StatefulPartitionedCall/efficientnet-lite0/model/blocks_14/conv2d/Conv2D_weights", "StatefulPartitionedCall/sequential_2/hub_keras_layer_v1v2_2/StatefulPartitionedCall/efficientnet-lite0/model/blocks_14/conv2d/Conv2D_bn_offset"], "device": "/device:CPU:0", "attr": {"num_args": {"i": "1"}, "fused_ops": {"list": {"s": ["Qmlhc0FkZA==", "UmVsdTY="]}}, "data_format": {"s": "TkhXQw=="}, "use_cudnn_on_gpu": {"b": true}, "strides": {"list": {"i": ["1", "1", "1", "1"]}}, "epsilon": {"f": 0.0}, "padding": {"s": "U0FNRQ=="}, "T": {"type": "DT_FLOAT"}, "explicit_paddings": {"list": {}}, "dilations": {"list": {"i": ["1", "1", "1", "1"]}}}}, {"name": "StatefulPartitionedCall/sequential_2/hub_keras_layer_v1v2_2/StatefulPartitionedCall/efficientnet-lite0/model/blocks_14/depthwise_conv2d/depthwise", "op": "FusedDepthwiseConv2dNative", "input": ["StatefulPartitionedCall/sequential_2/hub_keras_layer_v1v2_2/StatefulPartitionedCall/efficientnet-lite0/model/blocks_14/Relu6", "StatefulPartitionedCall/sequential_2/hub_keras_layer_v1v2_2/StatefulPartitionedCall/efficientnet-lite0/model/blocks_14/depthwise_conv2d/depthwise_weights", "StatefulPartitionedCall/sequential_2/hub_keras_layer_v1v2_2/StatefulPartitionedCall/efficientnet-lite0/model/blocks_14/depthwise_conv2d/depthwise_bn_offset"], "attr": {"data_format": {"s": "TkhXQw=="}, "padding": {"s": "U0FNRQ=="}, "dilations": {"list": {"i": ["1", "1", "1", "1"]}}, "explicit_paddings": {"list": {}}, "T": {"type": "DT_FLOAT"}, "strides": {"list": {"i": ["1", "1", "1", "1"]}}, "fused_ops": {"list": {"s": ["Qmlhc0FkZA==", "UmVsdTY="]}}, "num_args": {"i": "1"}}}, {"name": "StatefulPartitionedCall/sequential_2/hub_keras_layer_v1v2_2/StatefulPartitionedCall/efficientnet-lite0/model/blocks_14/tpu_batch_normalization_2/FusedBatchNormV3", "op": "_FusedConv2D", "input": ["StatefulPartitionedCall/sequential_2/hub_keras_layer_v1v2_2/StatefulPartitionedCall/efficientnet-lite0/model/blocks_14/depthwise_conv2d/depthwise", "StatefulPartitionedCall/sequential_2/hub_keras_layer_v1v2_2/StatefulPartitionedCall/efficientnet-lite0/model/blocks_14/conv2d_1/Conv2D_weights", "StatefulPartitionedCall/sequential_2/hub_keras_layer_v1v2_2/StatefulPartitionedCall/efficientnet-lite0/model/blocks_14/conv2d_1/Conv2D_bn_offset"], "device": "/device:CPU:0", "attr": {"epsilon": {"f": 0.0}, "dilations": {"list": {"i": ["1", "1", "1", "1"]}}, "fused_ops": {"list": {"s": ["Qmlhc0FkZA=="]}}, "T": {"type": "DT_FLOAT"}, "data_format": {"s": "TkhXQw=="}, "explicit_paddings": {"list": {}}, "padding": {"s": "U0FNRQ=="}, "num_args": {"i": "1"}, "use_cudnn_on_gpu": {"b": true}, "strides": {"list": {"i": ["1", "1", "1", "1"]}}}}, {"name": "StatefulPartitionedCall/sequential_2/hub_keras_layer_v1v2_2/StatefulPartitionedCall/efficientnet-lite0/model/blocks_14/Add", "op": "Add", "input": ["StatefulPartitionedCall/sequential_2/hub_keras_layer_v1v2_2/StatefulPartitionedCall/efficientnet-lite0/model/blocks_14/tpu_batch_normalization_2/FusedBatchNormV3", "StatefulPartitionedCall/sequential_2/hub_keras_layer_v1v2_2/StatefulPartitionedCall/efficientnet-lite0/model/blocks_13/Add"], "attr": {"T": {"type": "DT_FLOAT"}}}, {"name": "StatefulPartitionedCall/sequential_2/hub_keras_layer_v1v2_2/StatefulPartitionedCall/efficientnet-lite0/model/blocks_15/Relu6", "op": "_FusedConv2D", "input": ["StatefulPartitionedCall/sequential_2/hub_keras_layer_v1v2_2/StatefulPartitionedCall/efficientnet-lite0/model/blocks_14/Add", "StatefulPartitionedCall/sequential_2/hub_keras_layer_v1v2_2/StatefulPartitionedCall/efficientnet-lite0/model/blocks_15/conv2d/Conv2D_weights", "StatefulPartitionedCall/sequential_2/hub_keras_layer_v1v2_2/StatefulPartitionedCall/efficientnet-lite0/model/blocks_15/conv2d/Conv2D_bn_offset"], "device": "/device:CPU:0", "attr": {"fused_ops": {"list": {"s": ["Qmlhc0FkZA==", "UmVsdTY="]}}, "use_cudnn_on_gpu": {"b": true}, "num_args": {"i": "1"}, "padding": {"s": "U0FNRQ=="}, "data_format": {"s": "TkhXQw=="}, "dilations": {"list": {"i": ["1", "1", "1", "1"]}}, "explicit_paddings": {"list": {}}, "strides": {"list": {"i": ["1", "1", "1", "1"]}}, "T": {"type": "DT_FLOAT"}, "epsilon": {"f": 0.0}}}, {"name": "StatefulPartitionedCall/sequential_2/hub_keras_layer_v1v2_2/StatefulPartitionedCall/efficientnet-lite0/model/blocks_15/depthwise_conv2d/depthwise", "op": "FusedDepthwiseConv2dNative", "input": ["StatefulPartitionedCall/sequential_2/hub_keras_layer_v1v2_2/StatefulPartitionedCall/efficientnet-lite0/model/blocks_15/Relu6", "StatefulPartitionedCall/sequential_2/hub_keras_layer_v1v2_2/StatefulPartitionedCall/efficientnet-lite0/model/blocks_15/depthwise_conv2d/depthwise_weights", "StatefulPartitionedCall/sequential_2/hub_keras_layer_v1v2_2/StatefulPartitionedCall/efficientnet-lite0/model/blocks_15/depthwise_conv2d/depthwise_bn_offset"], "attr": {"fused_ops": {"list": {"s": ["Qmlhc0FkZA==", "UmVsdTY="]}}, "dilations": {"list": {"i": ["1", "1", "1", "1"]}}, "num_args": {"i": "1"}, "strides": {"list": {"i": ["1", "1", "1", "1"]}}, "explicit_paddings": {"list": {}}, "padding": {"s": "U0FNRQ=="}, "data_format": {"s": "TkhXQw=="}, "T": {"type": "DT_FLOAT"}}}, {"name": "StatefulPartitionedCall/sequential_2/hub_keras_layer_v1v2_2/StatefulPartitionedCall/efficientnet-lite0/model/blocks_15/tpu_batch_normalization_2/FusedBatchNormV3", "op": "_FusedConv2D", "input": ["StatefulPartitionedCall/sequential_2/hub_keras_layer_v1v2_2/StatefulPartitionedCall/efficientnet-lite0/model/blocks_15/depthwise_conv2d/depthwise", "StatefulPartitionedCall/sequential_2/hub_keras_layer_v1v2_2/StatefulPartitionedCall/efficientnet-lite0/model/blocks_15/conv2d_1/Conv2D_weights", "StatefulPartitionedCall/sequential_2/hub_keras_layer_v1v2_2/StatefulPartitionedCall/efficientnet-lite0/model/blocks_15/conv2d_1/Conv2D_bn_offset"], "device": "/device:CPU:0", "attr": {"data_format": {"s": "TkhXQw=="}, "padding": {"s": "U0FNRQ=="}, "use_cudnn_on_gpu": {"b": true}, "T": {"type": "DT_FLOAT"}, "epsilon": {"f": 0.0}, "strides": {"list": {"i": ["1", "1", "1", "1"]}}, "fused_ops": {"list": {"s": ["Qmlhc0FkZA=="]}}, "explicit_paddings": {"list": {}}, "dilations": {"list": {"i": ["1", "1", "1", "1"]}}, "num_args": {"i": "1"}}}, {"name": "StatefulPartitionedCall/sequential_2/hub_keras_layer_v1v2_2/StatefulPartitionedCall/efficientnet-lite0/model/head/Relu6", "op": "_FusedConv2D", "input": ["StatefulPartitionedCall/sequential_2/hub_keras_layer_v1v2_2/StatefulPartitionedCall/efficientnet-lite0/model/blocks_15/tpu_batch_normalization_2/FusedBatchNormV3", "StatefulPartitionedCall/sequential_2/hub_keras_layer_v1v2_2/StatefulPartitionedCall/efficientnet-lite0/model/head/conv2d/Conv2D_weights", "StatefulPartitionedCall/sequential_2/hub_keras_layer_v1v2_2/StatefulPartitionedCall/efficientnet-lite0/model/head/conv2d/Conv2D_bn_offset"], "device": "/device:CPU:0", "attr": {"strides": {"list": {"i": ["1", "1", "1", "1"]}}, "data_format": {"s": "TkhXQw=="}, "fused_ops": {"list": {"s": ["Qmlhc0FkZA==", "UmVsdTY="]}}, "use_cudnn_on_gpu": {"b": true}, "explicit_paddings": {"list": {}}, "T": {"type": "DT_FLOAT"}, "epsilon": {"f": 0.0}, "num_args": {"i": "1"}, "padding": {"s": "U0FNRQ=="}, "dilations": {"list": {"i": ["1", "1", "1", "1"]}}}}, {"name": "StatefulPartitionedCall/sequential_2/hub_keras_layer_v1v2_2/StatefulPartitionedCall/efficientnet-lite0/model/head/global_average_pooling2d/Mean", "op": "Mean", "input": ["StatefulPartitionedCall/sequential_2/hub_keras_layer_v1v2_2/StatefulPartitionedCall/efficientnet-lite0/model/head/Relu6", "StatefulPartitionedCall/sequential_2/hub_keras_layer_v1v2_2/StatefulPartitionedCall/efficientnet-lite0/model/head/global_average_pooling2d/Mean/reduction_indices"], "attr": {"keep_dims": {"b": false}, "T": {"type": "DT_FLOAT"}, "Tidx": {"type": "DT_INT32"}}}, {"name": "StatefulPartitionedCall/sequential_2/dense_2/BiasAdd", "op": "_FusedMatMul", "input": ["StatefulPartitionedCall/sequential_2/hub_keras_layer_v1v2_2/StatefulPartitionedCall/efficientnet-lite0/model/head/global_average_pooling2d/Mean", "StatefulPartitionedCall/sequential_2/dense_2/MatMul/ReadVariableOp", "StatefulPartitionedCall/sequential_2/dense_2/BiasAdd/ReadVariableOp"], "device": "/device:CPU:0", "attr": {"epsilon": {"f": 0.0}, "transpose_a": {"b": false}, "T": {"type": "DT_FLOAT"}, "fused_ops": {"list": {"s": ["Qmlhc0FkZA=="]}}, "num_args": {"i": "1"}, "transpose_b": {"b": false}}}, {"name": "StatefulPartitionedCall/sequential_2/dense_2/Softmax", "op": "Softmax", "input": ["StatefulPartitionedCall/sequential_2/dense_2/BiasAdd"], "attr": {"T": {"type": "DT_FLOAT"}}}, {"name": "Identity", "op": "Identity", "input": ["StatefulPartitionedCall/sequential_2/dense_2/Softmax"], "attr": {"T": {"type": "DT_FLOAT"}}}], "library": {}, "versions": {"producer": 898}}, "weightsManifest": [{"paths": ["group1-shard1of4.bin", "group1-shard2of4.bin", "group1-shard3of4.bin", "group1-shard4of4.bin"], "weights": [{"name": "StatefulPartitionedCall/sequential_2/dense_2/MatMul/ReadVariableOp", "shape": [1280, 4], "dtype": "float32"}, {"name": "StatefulPartitionedCall/sequential_2/dense_2/BiasAdd/ReadVariableOp", "shape": [4], "dtype": "float32"}, {"name": "StatefulPartitionedCall/sequential_2/hub_keras_layer_v1v2_2/StatefulPartitionedCall/efficientnet-lite0/model/stem/conv2d/Conv2D_weights", "shape": [3, 3, 3, 32], "dtype": "float32"}, {"name": "StatefulPartitionedCall/sequential_2/hub_keras_layer_v1v2_2/StatefulPartitionedCall/efficientnet-lite0/model/stem/conv2d/Conv2D_bn_offset", "shape": [32], "dtype": "float32"}, {"name": "StatefulPartitionedCall/sequential_2/hub_keras_layer_v1v2_2/StatefulPartitionedCall/efficientnet-lite0/model/blocks_0/depthwise_conv2d/depthwise_weights", "shape": [3, 3, 32, 1], "dtype": "float32"}, {"name": "StatefulPartitionedCall/sequential_2/hub_keras_layer_v1v2_2/StatefulPartitionedCall/efficientnet-lite0/model/blocks_0/depthwise_conv2d/depthwise_bn_offset", "shape": [32], "dtype": "float32"}, {"name": "StatefulPartitionedCall/sequential_2/hub_keras_layer_v1v2_2/StatefulPartitionedCall/efficientnet-lite0/model/blocks_0/conv2d/Conv2D_weights", "shape": [1, 1, 32, 16], "dtype": "float32"}, {"name": "StatefulPartitionedCall/sequential_2/hub_keras_layer_v1v2_2/StatefulPartitionedCall/efficientnet-lite0/model/blocks_13/depthwise_conv2d/depthwise_weights", "shape": [5, 5, 1152, 1], "dtype": "float32"}, {"name": "StatefulPartitionedCall/sequential_2/hub_keras_layer_v1v2_2/StatefulPartitionedCall/efficientnet-lite0/model/blocks_0/conv2d/Conv2D_bn_offset", "shape": [16], "dtype": "float32"}, {"name": "StatefulPartitionedCall/sequential_2/hub_keras_layer_v1v2_2/StatefulPartitionedCall/efficientnet-lite0/model/blocks_1/conv2d/Conv2D_weights", "shape": [1, 1, 16, 96], "dtype": "float32"}, {"name": "StatefulPartitionedCall/sequential_2/hub_keras_layer_v1v2_2/StatefulPartitionedCall/efficientnet-lite0/model/blocks_1/conv2d/Conv2D_bn_offset", "shape": [96], "dtype": "float32"}, {"name": "StatefulPartitionedCall/sequential_2/hub_keras_layer_v1v2_2/StatefulPartitionedCall/efficientnet-lite0/model/blocks_13/depthwise_conv2d/depthwise_bn_offset", "shape": [1152], "dtype": "float32"}, {"name": "StatefulPartitionedCall/sequential_2/hub_keras_layer_v1v2_2/StatefulPartitionedCall/efficientnet-lite0/model/blocks_1/depthwise_conv2d/depthwise_weights", "shape": [3, 3, 96, 1], "dtype": "float32"}, {"name": "StatefulPartitionedCall/sequential_2/hub_keras_layer_v1v2_2/StatefulPartitionedCall/efficientnet-lite0/model/blocks_1/depthwise_conv2d/depthwise_bn_offset", "shape": [96], "dtype": "float32"}, {"name": "StatefulPartitionedCall/sequential_2/hub_keras_layer_v1v2_2/StatefulPartitionedCall/efficientnet-lite0/model/blocks_1/conv2d_1/Conv2D_weights", "shape": [1, 1, 96, 24], "dtype": "float32"}, {"name": "StatefulPartitionedCall/sequential_2/hub_keras_layer_v1v2_2/StatefulPartitionedCall/efficientnet-lite0/model/blocks_1/conv2d_1/Conv2D_bn_offset", "shape": [24], "dtype": "float32"}, {"name": "StatefulPartitionedCall/sequential_2/hub_keras_layer_v1v2_2/StatefulPartitionedCall/efficientnet-lite0/model/blocks_2/conv2d/Conv2D_weights", "shape": [1, 1, 24, 144], "dtype": "float32"}, {"name": "StatefulPartitionedCall/sequential_2/hub_keras_layer_v1v2_2/StatefulPartitionedCall/efficientnet-lite0/model/blocks_2/conv2d/Conv2D_bn_offset", "shape": [144], "dtype": "float32"}, {"name": "StatefulPartitionedCall/sequential_2/hub_keras_layer_v1v2_2/StatefulPartitionedCall/efficientnet-lite0/model/blocks_13/conv2d_1/Conv2D_weights", "shape": [1, 1, 1152, 192], "dtype": "float32"}, {"name": "StatefulPartitionedCall/sequential_2/hub_keras_layer_v1v2_2/StatefulPartitionedCall/efficientnet-lite0/model/blocks_2/depthwise_conv2d/depthwise_weights", "shape": [3, 3, 144, 1], "dtype": "float32"}, {"name": "StatefulPartitionedCall/sequential_2/hub_keras_layer_v1v2_2/StatefulPartitionedCall/efficientnet-lite0/model/blocks_2/depthwise_conv2d/depthwise_bn_offset", "shape": [144], "dtype": "float32"}, {"name": "StatefulPartitionedCall/sequential_2/hub_keras_layer_v1v2_2/StatefulPartitionedCall/efficientnet-lite0/model/blocks_2/conv2d_1/Conv2D_weights", "shape": [1, 1, 144, 24], "dtype": "float32"}, {"name": "StatefulPartitionedCall/sequential_2/hub_keras_layer_v1v2_2/StatefulPartitionedCall/efficientnet-lite0/model/head/conv2d/Conv2D_weights", "shape": [1, 1, 320, 1280], "dtype": "float32"}, {"name": "StatefulPartitionedCall/sequential_2/hub_keras_layer_v1v2_2/StatefulPartitionedCall/efficientnet-lite0/model/blocks_2/conv2d_1/Conv2D_bn_offset", "shape": [24], "dtype": "float32"}, {"name": "StatefulPartitionedCall/sequential_2/hub_keras_layer_v1v2_2/StatefulPartitionedCall/efficientnet-lite0/model/blocks_3/conv2d/Conv2D_weights", "shape": [1, 1, 24, 144], "dtype": "float32"}, {"name": "StatefulPartitionedCall/sequential_2/hub_keras_layer_v1v2_2/StatefulPartitionedCall/efficientnet-lite0/model/blocks_13/conv2d_1/Conv2D_bn_offset", "shape": [192], "dtype": "float32"}, {"name": "StatefulPartitionedCall/sequential_2/hub_keras_layer_v1v2_2/StatefulPartitionedCall/efficientnet-lite0/model/blocks_3/conv2d/Conv2D_bn_offset", "shape": [144], "dtype": "float32"}, {"name": "StatefulPartitionedCall/sequential_2/hub_keras_layer_v1v2_2/StatefulPartitionedCall/efficientnet-lite0/model/blocks_3/depthwise_conv2d/depthwise_weights", "shape": [5, 5, 144, 1], "dtype": "float32"}, {"name": "StatefulPartitionedCall/sequential_2/hub_keras_layer_v1v2_2/StatefulPartitionedCall/efficientnet-lite0/model/blocks_3/depthwise_conv2d/depthwise_bn_offset", "shape": [144], "dtype": "float32"}, {"name": "StatefulPartitionedCall/sequential_2/hub_keras_layer_v1v2_2/StatefulPartitionedCall/efficientnet-lite0/model/blocks_3/conv2d_1/Conv2D_weights", "shape": [1, 1, 144, 40], "dtype": "float32"}, {"name": "StatefulPartitionedCall/sequential_2/hub_keras_layer_v1v2_2/StatefulPartitionedCall/efficientnet-lite0/model/blocks_3/conv2d_1/Conv2D_bn_offset", "shape": [40], "dtype": "float32"}, {"name": "StatefulPartitionedCall/sequential_2/hub_keras_layer_v1v2_2/StatefulPartitionedCall/efficientnet-lite0/model/blocks_4/conv2d/Conv2D_weights", "shape": [1, 1, 40, 240], "dtype": "float32"}, {"name": "StatefulPartitionedCall/sequential_2/hub_keras_layer_v1v2_2/StatefulPartitionedCall/efficientnet-lite0/model/blocks_14/conv2d/Conv2D_weights", "shape": [1, 1, 192, 1152], "dtype": "float32"}, {"name": "StatefulPartitionedCall/sequential_2/hub_keras_layer_v1v2_2/StatefulPartitionedCall/efficientnet-lite0/model/blocks_4/conv2d/Conv2D_bn_offset", "shape": [240], "dtype": "float32"}, {"name": "StatefulPartitionedCall/sequential_2/hub_keras_layer_v1v2_2/StatefulPartitionedCall/efficientnet-lite0/model/blocks_4/depthwise_conv2d/depthwise_weights", "shape": [5, 5, 240, 1], "dtype": "float32"}, {"name": "StatefulPartitionedCall/sequential_2/hub_keras_layer_v1v2_2/StatefulPartitionedCall/efficientnet-lite0/model/blocks_4/depthwise_conv2d/depthwise_bn_offset", "shape": [240], "dtype": "float32"}, {"name": "StatefulPartitionedCall/sequential_2/hub_keras_layer_v1v2_2/StatefulPartitionedCall/efficientnet-lite0/model/blocks_4/conv2d_1/Conv2D_weights", "shape": [1, 1, 240, 40], "dtype": "float32"}, {"name": "StatefulPartitionedCall/sequential_2/hub_keras_layer_v1v2_2/StatefulPartitionedCall/efficientnet-lite0/model/blocks_14/conv2d/Conv2D_bn_offset", "shape": [1152], "dtype": "float32"}, {"name": "StatefulPartitionedCall/sequential_2/hub_keras_layer_v1v2_2/StatefulPartitionedCall/efficientnet-lite0/model/blocks_4/conv2d_1/Conv2D_bn_offset", "shape": [40], "dtype": "float32"}, {"name": "StatefulPartitionedCall/sequential_2/hub_keras_layer_v1v2_2/StatefulPartitionedCall/efficientnet-lite0/model/blocks_5/conv2d/Conv2D_weights", "shape": [1, 1, 40, 240], "dtype": "float32"}, {"name": "StatefulPartitionedCall/sequential_2/hub_keras_layer_v1v2_2/StatefulPartitionedCall/efficientnet-lite0/model/head/conv2d/Conv2D_bn_offset", "shape": [1280], "dtype": "float32"}, {"name": "StatefulPartitionedCall/sequential_2/hub_keras_layer_v1v2_2/StatefulPartitionedCall/efficientnet-lite0/model/blocks_5/conv2d/Conv2D_bn_offset", "shape": [240], "dtype": "float32"}, {"name": "StatefulPartitionedCall/sequential_2/hub_keras_layer_v1v2_2/StatefulPartitionedCall/efficientnet-lite0/model/blocks_5/depthwise_conv2d/depthwise_weights", "shape": [3, 3, 240, 1], "dtype": "float32"}, {"name": "StatefulPartitionedCall/sequential_2/hub_keras_layer_v1v2_2/StatefulPartitionedCall/efficientnet-lite0/model/blocks_5/depthwise_conv2d/depthwise_bn_offset", "shape": [240], "dtype": "float32"}, {"name": "StatefulPartitionedCall/sequential_2/hub_keras_layer_v1v2_2/StatefulPartitionedCall/efficientnet-lite0/model/blocks_5/conv2d_1/Conv2D_weights", "shape": [1, 1, 240, 80], "dtype": "float32"}, {"name": "StatefulPartitionedCall/sequential_2/hub_keras_layer_v1v2_2/StatefulPartitionedCall/efficientnet-lite0/model/blocks_14/depthwise_conv2d/depthwise_weights", "shape": [5, 5, 1152, 1], "dtype": "float32"}, {"name": "StatefulPartitionedCall/sequential_2/hub_keras_layer_v1v2_2/StatefulPartitionedCall/efficientnet-lite0/model/blocks_5/conv2d_1/Conv2D_bn_offset", "shape": [80], "dtype": "float32"}, {"name": "StatefulPartitionedCall/sequential_2/hub_keras_layer_v1v2_2/StatefulPartitionedCall/efficientnet-lite0/model/blocks_6/conv2d/Conv2D_weights", "shape": [1, 1, 80, 480], "dtype": "float32"}, {"name": "StatefulPartitionedCall/sequential_2/hub_keras_layer_v1v2_2/StatefulPartitionedCall/efficientnet-lite0/model/blocks_6/conv2d/Conv2D_bn_offset", "shape": [480], "dtype": "float32"}, {"name": "StatefulPartitionedCall/sequential_2/hub_keras_layer_v1v2_2/StatefulPartitionedCall/efficientnet-lite0/model/blocks_14/depthwise_conv2d/depthwise_bn_offset", "shape": [1152], "dtype": "float32"}, {"name": "StatefulPartitionedCall/sequential_2/hub_keras_layer_v1v2_2/StatefulPartitionedCall/efficientnet-lite0/model/blocks_6/depthwise_conv2d/depthwise_weights", "shape": [3, 3, 480, 1], "dtype": "float32"}, {"name": "StatefulPartitionedCall/sequential_2/hub_keras_layer_v1v2_2/StatefulPartitionedCall/efficientnet-lite0/model/blocks_6/depthwise_conv2d/depthwise_bn_offset", "shape": [480], "dtype": "float32"}, {"name": "StatefulPartitionedCall/sequential_2/hub_keras_layer_v1v2_2/StatefulPartitionedCall/efficientnet-lite0/model/blocks_6/conv2d_1/Conv2D_weights", "shape": [1, 1, 480, 80], "dtype": "float32"}, {"name": "StatefulPartitionedCall/sequential_2/hub_keras_layer_v1v2_2/StatefulPartitionedCall/efficientnet-lite0/model/blocks_6/conv2d_1/Conv2D_bn_offset", "shape": [80], "dtype": "float32"}, {"name": "StatefulPartitionedCall/sequential_2/hub_keras_layer_v1v2_2/StatefulPartitionedCall/efficientnet-lite0/model/blocks_7/conv2d/Conv2D_weights", "shape": [1, 1, 80, 480], "dtype": "float32"}, {"name": "StatefulPartitionedCall/sequential_2/hub_keras_layer_v1v2_2/StatefulPartitionedCall/efficientnet-lite0/model/blocks_7/conv2d/Conv2D_bn_offset", "shape": [480], "dtype": "float32"}, {"name": "StatefulPartitionedCall/sequential_2/hub_keras_layer_v1v2_2/StatefulPartitionedCall/efficientnet-lite0/model/blocks_14/conv2d_1/Conv2D_weights", "shape": [1, 1, 1152, 192], "dtype": "float32"}, {"name": "StatefulPartitionedCall/sequential_2/hub_keras_layer_v1v2_2/StatefulPartitionedCall/efficientnet-lite0/model/blocks_7/depthwise_conv2d/depthwise_weights", "shape": [3, 3, 480, 1], "dtype": "float32"}, {"name": "StatefulPartitionedCall/sequential_2/hub_keras_layer_v1v2_2/StatefulPartitionedCall/efficientnet-lite0/model/blocks_7/depthwise_conv2d/depthwise_bn_offset", "shape": [480], "dtype": "float32"}, {"name": "StatefulPartitionedCall/sequential_2/hub_keras_layer_v1v2_2/StatefulPartitionedCall/efficientnet-lite0/model/blocks_7/conv2d_1/Conv2D_weights", "shape": [1, 1, 480, 80], "dtype": "float32"}, {"name": "StatefulPartitionedCall/sequential_2/hub_keras_layer_v1v2_2/StatefulPartitionedCall/efficientnet-lite0/model/blocks_7/conv2d_1/Conv2D_bn_offset", "shape": [80], "dtype": "float32"}, {"name": "StatefulPartitionedCall/sequential_2/hub_keras_layer_v1v2_2/StatefulPartitionedCall/efficientnet-lite0/model/blocks_8/conv2d/Conv2D_weights", "shape": [1, 1, 80, 480], "dtype": "float32"}, {"name": "StatefulPartitionedCall/sequential_2/hub_keras_layer_v1v2_2/StatefulPartitionedCall/efficientnet-lite0/model/blocks_14/conv2d_1/Conv2D_bn_offset", "shape": [192], "dtype": "float32"}, {"name": "StatefulPartitionedCall/sequential_2/hub_keras_layer_v1v2_2/StatefulPartitionedCall/efficientnet-lite0/model/blocks_8/conv2d/Conv2D_bn_offset", "shape": [480], "dtype": "float32"}, {"name": "StatefulPartitionedCall/sequential_2/hub_keras_layer_v1v2_2/StatefulPartitionedCall/efficientnet-lite0/model/blocks_8/depthwise_conv2d/depthwise_weights", "shape": [5, 5, 480, 1], "dtype": "float32"}, {"name": "StatefulPartitionedCall/sequential_2/hub_keras_layer_v1v2_2/StatefulPartitionedCall/efficientnet-lite0/model/blocks_8/depthwise_conv2d/depthwise_bn_offset", "shape": [480], "dtype": "float32"}, {"name": "StatefulPartitionedCall/sequential_2/hub_keras_layer_v1v2_2/StatefulPartitionedCall/efficientnet-lite0/model/blocks_8/conv2d_1/Conv2D_weights", "shape": [1, 1, 480, 112], "dtype": "float32"}, {"name": "StatefulPartitionedCall/sequential_2/hub_keras_layer_v1v2_2/StatefulPartitionedCall/efficientnet-lite0/model/blocks_8/conv2d_1/Conv2D_bn_offset", "shape": [112], "dtype": "float32"}, {"name": "StatefulPartitionedCall/sequential_2/hub_keras_layer_v1v2_2/StatefulPartitionedCall/efficientnet-lite0/model/blocks_9/conv2d/Conv2D_weights", "shape": [1, 1, 112, 672], "dtype": "float32"}, {"name": "StatefulPartitionedCall/sequential_2/hub_keras_layer_v1v2_2/StatefulPartitionedCall/efficientnet-lite0/model/blocks_15/conv2d/Conv2D_weights", "shape": [1, 1, 192, 1152], "dtype": "float32"}, {"name": "StatefulPartitionedCall/sequential_2/hub_keras_layer_v1v2_2/StatefulPartitionedCall/efficientnet-lite0/model/blocks_9/conv2d/Conv2D_bn_offset", "shape": [672], "dtype": "float32"}, {"name": "StatefulPartitionedCall/sequential_2/hub_keras_layer_v1v2_2/StatefulPartitionedCall/efficientnet-lite0/model/blocks_9/depthwise_conv2d/depthwise_weights", "shape": [5, 5, 672, 1], "dtype": "float32"}, {"name": "StatefulPartitionedCall/sequential_2/hub_keras_layer_v1v2_2/StatefulPartitionedCall/efficientnet-lite0/model/blocks_9/depthwise_conv2d/depthwise_bn_offset", "shape": [672], "dtype": "float32"}, {"name": "StatefulPartitionedCall/sequential_2/hub_keras_layer_v1v2_2/StatefulPartitionedCall/efficientnet-lite0/model/blocks_9/conv2d_1/Conv2D_weights", "shape": [1, 1, 672, 112], "dtype": "float32"}, {"name": "StatefulPartitionedCall/sequential_2/hub_keras_layer_v1v2_2/StatefulPartitionedCall/efficientnet-lite0/model/blocks_15/conv2d/Conv2D_bn_offset", "shape": [1152], "dtype": "float32"}, {"name": "StatefulPartitionedCall/sequential_2/hub_keras_layer_v1v2_2/StatefulPartitionedCall/efficientnet-lite0/model/blocks_9/conv2d_1/Conv2D_bn_offset", "shape": [112], "dtype": "float32"}, {"name": "StatefulPartitionedCall/sequential_2/hub_keras_layer_v1v2_2/StatefulPartitionedCall/efficientnet-lite0/model/blocks_10/conv2d/Conv2D_weights", "shape": [1, 1, 112, 672], "dtype": "float32"}, {"name": "StatefulPartitionedCall/sequential_2/hub_keras_layer_v1v2_2/StatefulPartitionedCall/efficientnet-lite0/model/blocks_10/conv2d/Conv2D_bn_offset", "shape": [672], "dtype": "float32"}, {"name": "StatefulPartitionedCall/sequential_2/hub_keras_layer_v1v2_2/StatefulPartitionedCall/efficientnet-lite0/model/blocks_10/depthwise_conv2d/depthwise_weights", "shape": [5, 5, 672, 1], "dtype": "float32"}, {"name": "StatefulPartitionedCall/sequential_2/hub_keras_layer_v1v2_2/StatefulPartitionedCall/efficientnet-lite0/model/blocks_10/depthwise_conv2d/depthwise_bn_offset", "shape": [672], "dtype": "float32"}, {"name": "StatefulPartitionedCall/sequential_2/hub_keras_layer_v1v2_2/StatefulPartitionedCall/efficientnet-lite0/model/blocks_10/conv2d_1/Conv2D_weights", "shape": [1, 1, 672, 112], "dtype": "float32"}, {"name": "StatefulPartitionedCall/sequential_2/hub_keras_layer_v1v2_2/StatefulPartitionedCall/efficientnet-lite0/model/blocks_15/depthwise_conv2d/depthwise_weights", "shape": [3, 3, 1152, 1], "dtype": "float32"}, {"name": "StatefulPartitionedCall/sequential_2/hub_keras_layer_v1v2_2/StatefulPartitionedCall/efficientnet-lite0/model/blocks_10/conv2d_1/Conv2D_bn_offset", "shape": [112], "dtype": "float32"}, {"name": "StatefulPartitionedCall/sequential_2/hub_keras_layer_v1v2_2/StatefulPartitionedCall/efficientnet-lite0/model/blocks_11/conv2d/Conv2D_weights", "shape": [1, 1, 112, 672], "dtype": "float32"}, {"name": "StatefulPartitionedCall/sequential_2/hub_keras_layer_v1v2_2/StatefulPartitionedCall/efficientnet-lite0/model/blocks_11/conv2d/Conv2D_bn_offset", "shape": [672], "dtype": "float32"}, {"name": "StatefulPartitionedCall/sequential_2/hub_keras_layer_v1v2_2/StatefulPartitionedCall/efficientnet-lite0/model/blocks_15/depthwise_conv2d/depthwise_bn_offset", "shape": [1152], "dtype": "float32"}, {"name": "StatefulPartitionedCall/sequential_2/hub_keras_layer_v1v2_2/StatefulPartitionedCall/efficientnet-lite0/model/blocks_11/depthwise_conv2d/depthwise_weights", "shape": [5, 5, 672, 1], "dtype": "float32"}, {"name": "StatefulPartitionedCall/sequential_2/hub_keras_layer_v1v2_2/StatefulPartitionedCall/efficientnet-lite0/model/blocks_11/depthwise_conv2d/depthwise_bn_offset", "shape": [672], "dtype": "float32"}, {"name": "StatefulPartitionedCall/sequential_2/hub_keras_layer_v1v2_2/StatefulPartitionedCall/efficientnet-lite0/model/blocks_11/conv2d_1/Conv2D_weights", "shape": [1, 1, 672, 192], "dtype": "float32"}, {"name": "StatefulPartitionedCall/sequential_2/hub_keras_layer_v1v2_2/StatefulPartitionedCall/efficientnet-lite0/model/blocks_11/conv2d_1/Conv2D_bn_offset", "shape": [192], "dtype": "float32"}, {"name": "StatefulPartitionedCall/sequential_2/hub_keras_layer_v1v2_2/StatefulPartitionedCall/efficientnet-lite0/model/blocks_12/conv2d/Conv2D_weights", "shape": [1, 1, 192, 1152], "dtype": "float32"}, {"name": "StatefulPartitionedCall/sequential_2/hub_keras_layer_v1v2_2/StatefulPartitionedCall/efficientnet-lite0/model/blocks_12/conv2d/Conv2D_bn_offset", "shape": [1152], "dtype": "float32"}, {"name": "StatefulPartitionedCall/sequential_2/hub_keras_layer_v1v2_2/StatefulPartitionedCall/efficientnet-lite0/model/blocks_15/conv2d_1/Conv2D_weights", "shape": [1, 1, 1152, 320], "dtype": "float32"}, {"name": "StatefulPartitionedCall/sequential_2/hub_keras_layer_v1v2_2/StatefulPartitionedCall/efficientnet-lite0/model/blocks_12/depthwise_conv2d/depthwise_weights", "shape": [5, 5, 1152, 1], "dtype": "float32"}, {"name": "StatefulPartitionedCall/sequential_2/hub_keras_layer_v1v2_2/StatefulPartitionedCall/efficientnet-lite0/model/blocks_12/depthwise_conv2d/depthwise_bn_offset", "shape": [1152], "dtype": "float32"}, {"name": "StatefulPartitionedCall/sequential_2/hub_keras_layer_v1v2_2/StatefulPartitionedCall/efficientnet-lite0/model/blocks_12/conv2d_1/Conv2D_weights", "shape": [1, 1, 1152, 192], "dtype": "float32"}, {"name": "StatefulPartitionedCall/sequential_2/hub_keras_layer_v1v2_2/StatefulPartitionedCall/efficientnet-lite0/model/blocks_12/conv2d_1/Conv2D_bn_offset", "shape": [192], "dtype": "float32"}, {"name": "StatefulPartitionedCall/sequential_2/hub_keras_layer_v1v2_2/StatefulPartitionedCall/efficientnet-lite0/model/blocks_13/conv2d/Conv2D_weights", "shape": [1, 1, 192, 1152], "dtype": "float32"}, {"name": "StatefulPartitionedCall/sequential_2/hub_keras_layer_v1v2_2/StatefulPartitionedCall/efficientnet-lite0/model/blocks_15/conv2d_1/Conv2D_bn_offset", "shape": [320], "dtype": "float32"}, {"name": "StatefulPartitionedCall/sequential_2/hub_keras_layer_v1v2_2/StatefulPartitionedCall/efficientnet-lite0/model/blocks_13/conv2d/Conv2D_bn_offset", "shape": [1152], "dtype": "float32"}, {"name": "StatefulPartitionedCall/sequential_2/hub_keras_layer_v1v2_2/StatefulPartitionedCall/Const", "shape": [], "dtype": "float32"}, {"name": "StatefulPartitionedCall/sequential_2/hub_keras_layer_v1v2_2/StatefulPartitionedCall/Const_1", "shape": [], "dtype": "float32"}, {"name": "StatefulPartitionedCall/sequential_2/hub_keras_layer_v1v2_2/StatefulPartitionedCall/efficientnet-lite0/model/head/global_average_pooling2d/Mean/reduction_indices", "shape": [2], "dtype": "int32"}]}]}